v2/dwt_quantized_TFLite.tflite (tflite, 793248 bytes, 12 tensors)

Predict/fc0/BiasAdd/ReadVariableOp/resource f4 [32]
00000000: 20cb a5b9 d33d a5b9 6786 573c b5c9 a5b9
00000010: e8ca a5b9 45c7 a5b9 8f7b 983b 3ae0 fcba
00000020: 2c74 d83b 81c1 dabb 9997 7abb 5cb7 25ba
00000030: 12c9 a5b9 e842 dfba a866 21ba b45f 5339
00000040: 52ca a5b9 ff58 703c c913 2b3b 2b21 13bc
00000050: cbc8 a5b9 13bc 22b9 4639 3c39 1ccb a5b9
00000060: 3483 2cbc 75ca a5b9 12ca a5b9 a6f2 f4b9
00000070: 0000 0000 f2ca a5b9 c1ca a5b9 fa35 2d3c
-0.00031622592 -0.00031517315 0.013154603 -0.00031621536 -0.0003162243 -0.0003161972 0.004653401 -0.0019292899
0.0066056456 -0.0066758995 -0.0038237332 -0.0006321573 -0.00031621061 -0.001703349 -0.00061569596 0.0002015818
-0.00031621993 0.014669656 0.0026104322 -0.008980076 -0.00031620855 -0.00015519587 0.00017950413 -0.0003162258
-0.010529328 -0.00031622095 -0.00031621807 -0.00046720094 0.0 -0.00031622458 -0.00031622316 0.010571951

Predict/fc1/BiasAdd/ReadVariableOp/resource f4 [16]
00000000: 48ca 25ba 22b3 88bc 7c34 c1bb 949e c8bc
00000010: 26df e03c e7e9 953b 0000 0000 56bb ccb9
00000020: b6b5 f3bb 361b 8fbb 9bd5 653b fe85 c3bc
00000030: 39ca a539 19ae cf3c 8cca a5b9 3ecb a5b9
-0.0006324393 -0.01668698 -0.005896149 -0.024489678 0.027450155 0.0045750025 0.0 -0.00039049488
-0.007437433 -0.0043672575 0.0035069946 -0.023867603 0.0003162192 0.02535157 -0.00031622162 -0.0003162268

Predict/layer_conv3/BiasAdd/ReadVariableOp/resource f4 [32]
00000000: db85 b0bc aa6d 1cbd 86c1 87bc 97e9 b63c
00000010: 0cc0 a63c 98a0 12bd 4345 863c 651d afbc
00000020: 59b7 0dbd e636 373c 7747 19bd 7ba9 653c
00000030: e9e9 a93c eea2 863c 78b1 fa3b 0d11 5c3c
00000040: 0664 733c 5d8c 8b3c f7cd 703c f41e 803c
00000050: fbf7 b93b d38f b5bc df12 dbbc 6eaf 533c
00000060: 9034 4c3c d7ed 283c fb6f ff3b 43a7 953c
00000070: 4c0a 9ebc fe2f 1d3c 8eae 71bb 0276 25bd
-0.021548202 -0.03819052 -0.016571771 0.022328181 0.020355247 -0.035797685 0.016390448 -0.021376321
-0.034598682 0.011182522 -0.03742167 0.014017458 0.02074142 0.016435113 0.0076505505 0.0134318
0.01485539 0.017034704 0.014697543 0.01563976 0.0056753135 -0.022163307 -0.026742397 0.012920244
0.012463704 0.010310612 0.0077953315 0.018268233 -0.01929202 0.009593962 -0.0036877724 -0.040395744

Predict/layer_conv4/BiasAdd/ReadVariableOp/resource f4 [64]
00000000: b389 233c 061d e53b 2758 8c3c 2a65 023c
00000010: bb15 833c a980 afbc 4f17 013c 0419 813c
00000020: 526f 833c e980 7b3c 69b3 313c 87b7 773c
00000030: 30d6 4e3c f50e a13c fca8 b9bc 7252 04bc
00000040: d3f2 7f3c 98bc cdbc aa9a 87bc 001b 903c
00000050: 58f9 8bbc 03f0 d0bc 20fe 593c af50 923c
00000060: f9e0 953c 366a 573c a6df adbc cd06 aebc
00000070: abca 503c 9023 ebbc 59a8 8e3c 5a6f 223c
00000080: 9537 5f3c b2bb 8e3c d8f1 793c e42a cc3b
00000090: 0990 793c e537 bebc 5ac4 20bd c677 a2ba
000000a0: 33c2 eebc 3b33 c7bc bd71 6a3c 6273 dbbc
000000b0: 9462 613c 3a03 713c 47c1 723c 8690 943c
000000c0: 163e 5dbc 6168 6d3c d2ee c53b fd6e 7e3c
000000d0: e63f 3e3b dca0 b6bc f2c0 773c 3261 ba3b
000000e0: 4fe3 f33b 6535 b6bc 576a d9ba 65bb 6ebc
000000f0: 5ad8 953c 83a5 413c 552e c4bc d8cf 92bc
0.0099815605 0.0069919853 0.017131878 0.00795869 0.016001573 -0.021423655 0.007879092 0.015758999
0.016044293 0.015350559 0.010845997 0.01511944 0.0126243085 0.019660452 -0.022663586 -0.008076297
0.015621859 -0.025114343 -0.016553242 0.017591 -0.01708667 -0.025505072 0.013305217 0.017860739
0.018295752 0.013147881 -0.021224808 -0.021243477 0.012743632 -0.028703481 0.017414259 0.009914244
0.013624092 0.017423484 0.015255414 0.006230699 0.015232095 -0.023220012 -0.039249755 -0.0012395314
-0.029145336 -0.02431642 0.014309344 -0.026788417 0.013756413 0.014710242 0.014816589 0.01813532
-0.013503572 0.014490218 0.0060404325 0.015529391 0.0029029786 -0.0222935 0.015121685 0.005687856
0.007442869 -0.022242257 -0.0016587478 -0.0145710455 0.018291641 0.011819246 -0.023947874 -0.017921373

Predict/layer_conv5/BiasAdd/ReadVariableOp/resource f4 [128]
00000000: 2bb2 583c 20f7 70bc d5eb 23bc 8073 3dbc
00000010: db3c 8cbc bdf8 5bbb d2af 4ebc 06f0 d3b9
00000020: 572c aa3b 156e 963c e581 083b 2beb d53a
00000030: 686b 143c 680b 2c3c 6355 193c 8379 7b3c
00000040: 7421 403c e7e8 07bc 1720 94bb 90f2 ab3c
00000050: fa0d 8e3c f5df 853c fe65 3f3c 85e0 3c3c
00000060: c530 4c3c 27f7 2d3c 9b22 803c 7919 69bc
00000070: 9ddd ccbc 9598 703c e18b 70bc 32e3 853c
00000080: a910 713c a7de 613c e24c 62bc dc3b 7bbc
00000090: 5e75 583c 9efe 7e3c c686 9a3c 2ba3 543c
000000a0: 0c36 743c 9c7a 883c 8088 9d3c 39db 273c
000000b0: ed66 633c 07c4 0ebc 2d2d b53c f52d 433b
000000c0: 2f8f 4abc 5079 893c 11ff 6a3c 4d42 1c3c
000000d0: 769b 1a3c c22e 5f3c 8b14 98bc 72fe 673c
000000e0: cbea 193c 5a4e 7e3c e501 dbbb f036 1d3c
000000f0: 7062 56bc ae19 883c b7c9 853c bd0a 71bc
00000100: 0b24 7e3c 2a6e 8c3c 36c2 b2bc 83a7 fd3b
00000110: 3899 ed3b 018f 983c e9fd f23b a78c 613c
00000120: c56f 76bc 0cef 9ebc c5c1 b9bc c12a 2f3c
00000130: 0bf8 203c 98ae 5b3c 34c3 69bc 16d2 8ebc
00000140: dc55 113c 4f1d 513c 0853 393c 04d6 20bc
00000150: 1433 743c a23f 6e3c 78cf 173c d49b 283c
00000160: fad4 6fbc 1a76 5c3c e0ce 0a3c 0ad6 063c
00000170: 5c52 773c 2236 343c 3bb2 073c 01a7 9d3c
00000180: 3b81 8cbc adac ecbb 2301 5b3c e08b f73b
00000190: bf2d 563c ebc9 8b3c 8056 963c 2186 8ebc
000001a0: 0fdf 493c 0fea 433c e534 aabc 49e6 853c
000001b0: d8b6 c4bb 2bed f6bb 05ac 313c 9efa 683c
000001c0: 1c30 6c3c 9298 8cbc b5fc fa3b a2cb 7d3c
000001d0: 906a 67bc a29c 823c 359e 853c dcda 2a3c
000001e0: d6ab 043c 45ff 283c 5d40 753c ba73 903c
000001f0: aba0 133c 11d2 b4bc 879e 8e3c 73ab fabb
0.013226072 -0.014707357 -0.010004957 -0.011563182 -0.017118862 -0.0033565008 -0.012615161 -0.00040423888
0.005193274 0.018363038 0.0020829376 0.0016320696 0.009058811 0.010500766 0.009358737 0.015348795
0.011726726 -0.008295274 -0.004520427 0.020989686 0.017340649 0.016342143 0.011682032 0.011528139
0.012462799 0.010618008 0.015641501 -0.014227265 -0.025008017 0.014684816 -0.014681787 0.016343687
0.014713445 0.013785995 -0.013812276 -0.015334096 0.013211576 0.015563635 0.018863093 0.012978355
0.014905464 0.016660027 0.019230127 0.010245138 0.01387952 -0.008713729 0.022116268 0.0029782031
-0.012363239 0.01678148 0.014343039 0.009537292 0.009436479 0.013621988 -0.018564483 0.014159786
0.009394358 0.01552161 -0.0066835755 0.009595618 -0.013084993 0.016613808 0.016331537 -0.014712033
0.015511523 0.017142374 -0.021821123 0.007740916 0.007250931 0.018622877 0.0074155224 0.013766444
-0.015041296 -0.019401096 -0.022675404 0.010691346 0.009824763 0.013408326 -0.014267731 -0.017434161
0.008870568 0.012763335 0.0113113 -0.00981665 0.014904756 0.014541538 0.009265773 0.010291059
-0.01463818 0.013455892 0.008472174 0.008229742 0.01509532 0.010999234 0.00828224 0.019244673
-0.017151466 -0.007222733 0.01336697 0.007554516 0.01307243 0.017064055 0.018351793 -0.017397942
0.012321248 0.011957659 -0.020777175 0.01634516 -0.006003242 -0.007535597 0.010844235 0.014219908
0.014415767 -0.017162595 0.0076595196 0.015490444 -0.014124528 0.015943829 0.01631079 0.010428157
0.0080976095 0.010314767 0.014968959 0.017633308 0.009010474 -0.022072824 0.017409576 -0.007649833

Predict/op/BiasAdd/ReadVariableOp/resource f4 [4]
00000000: 74fd 7abc 0730 f2bc 6a54 833d 18ae 44bd
-0.015319217 -0.029563917 0.06412585 -0.04801759

Predict/fc0/MatMul i1 [32, 21632] scale=0.00053981616 zero_point=0
00000000: 15ef 010d f5e9 eff1 e512 fa1b 1de2 f9ed
00000010: e6fe 1d10 0a07 1602 1a08 f8ea 0d16 ea1b
00000020: 0b11 e7ef 011d 1e10 0df6 ec18 f517 1a07
00000030: e41e 0117 f7ef 06e6 0d02 13ee f319 edf7
00000040: 10ef 0bf0 1200 10f7 1f1c fe0a f41d fa05
00000050: 051e 14e7 0be2 eafc 12f5 e714 1c02 00f6
00000060: 0b1a f713 e311 0310 ece7 f3e9 0ef2 16ee
00000070: 03f2 f006 17e9 ec1e 0a14 0ef8 ef13 f204
00000080: f7ef 0d0d ea17 ff14 0217 1bef fd0e 0be6
00000090: 000d 0ef0 edec e2e7 e8ff 01ec e6e9 0beb
000000a0: ffe8 150a 030c 0cfc 021e 0818 efea 10f4
000000b0: f5ff eaeb f80a f0ed 1910 0dee 05f0 05f2
000000c0: fc1b 1cf7 fcfa e615 f8f5 0be9 01f1 fd02
000000d0: e1fb e7ec f90b 18f6 f80f eb0d 08f6 0fe3
000000e0: 0001 e615 faf0 fc15 e3e4 f303 1eef f21d
000000f0: 03ef e9e1 0ffe 110a ebe8 e718 0cfc fc0b
0.011336139 -0.0091768745 0.00053981616 0.00701761 -0.0059379777 -0.012415771 -0.0091768745 -0.008097243
-0.014575036 0.0097166905 -0.0032388968 0.014575036 0.015654668 -0.016194485 -0.003778713 -0.010256507
-0.01403522 -0.0010796323 0.015654668 0.008637059 0.0053981617 0.003778713 0.011875955 0.0010796323
0.01403522 0.0043185293 -0.0043185293 -0.011875955 0.00701761 0.011875955 -0.011875955 0.014575036
0.0059379777 0.0091768745 -0.013495404 -0.0091768745 0.00053981616 0.015654668 0.016194485 0.008637059
0.00701761 -0.0053981617 -0.010796323 0.012955587 -0.0059379777 0.012415771 0.01403522 0.003778713
-0.015114852 0.016194485 0.00053981616 0.012415771 -0.0048583453 -0.0091768745 0.0032388968 -0.01403522
0.00701761 0.0010796323 0.010256507 -0.0097166905 -0.00701761 0.013495404 -0.010256507 -0.0048583453
0.008637059 -0.0091768745 0.0059379777 -0.008637059 0.0097166905 0.0 0.008637059 -0.0048583453
0.0167343 0.015114852 -0.0010796323 0.0053981617 -0.0064777937 0.015654668 -0.0032388968 0.0026990809
0.0026990809 0.016194485 0.010796323 -0.013495404 0.0059379777 -0.016194485 -0.011875955 -0.0021592646
0.0097166905 -0.0059379777 -0.013495404 0.010796323 0.015114852 0.0010796323 0.0 -0.0053981617
0.0059379777 0.01403522 -0.0048583453 0.010256507 -0.015654668 0.0091768745 0.0016194484 0.008637059
-0.010796323 -0.013495404 -0.00701761 -0.012415771 0.007557426 -0.007557426 0.011875955 -0.0097166905
0.0016194484 -0.007557426 -0.008637059 0.0032388968 0.012415771 -0.012415771 -0.010796323 0.016194485
0.0053981617 0.010796323 0.007557426 -0.0043185293 -0.0091768745 0.010256507 -0.007557426 0.0021592646
-0.0048583453 -0.0091768745 0.00701761 0.00701761 -0.011875955 0.012415771 -0.00053981616 0.010796323
0.0010796323 0.012415771 0.014575036 -0.0091768745 -0.0016194484 0.007557426 0.0059379777 -0.01403522
0.0 0.00701761 0.007557426 -0.008637059 -0.010256507 -0.010796323 -0.016194485 -0.013495404
-0.012955587 -0.00053981616 0.00053981616 -0.010796323 -0.01403522 -0.012415771 0.0059379777 -0.011336139
-0.00053981616 -0.012955587 0.011336139 0.0053981617 0.0016194484 0.0064777937 0.0064777937 -0.0021592646
0.0010796323 0.016194485 0.0043185293 0.012955587 -0.0091768745 -0.011875955 0.008637059 -0.0064777937
-0.0059379777 -0.00053981616 -0.011875955 -0.011336139 -0.0043185293 0.0053981617 -0.008637059 -0.010256507
0.013495404 0.008637059 0.00701761 -0.0097166905 0.0026990809 -0.008637059 0.0026990809 -0.007557426
-0.0021592646 0.014575036 0.015114852 -0.0048583453 -0.0021592646 -0.0032388968 -0.01403522 0.011336139
-0.0043185293 -0.0059379777 0.0059379777 -0.012415771 0.00053981616 -0.008097243 -0.0016194484 0.0010796323
-0.0167343 -0.0026990809 -0.013495404 -0.010796323 -0.003778713 0.0059379777 0.012955587 -0.0053981617
-0.0043185293 0.008097243 -0.011336139 0.00701761 0.0043185293 -0.0053981617 0.008097243 -0.015654668
0.0 0.00053981616 -0.01403522 0.011336139 -0.0032388968 -0.008637059 -0.0021592646 0.011336139
-0.015654668 -0.015114852 -0.00701761 0.0016194484 0.016194485 -0.0091768745 -0.007557426 0.015654668
0.0016194484 -0.0091768745 -0.012415771 -0.0167343 0.008097243 -0.0010796323 0.0091768745 0.0053981617
-0.011336139 -0.012955587 -0.013495404 0.012955587 0.0064777937 -0.0021592646 -0.0021592646 0.0059379777

Predict/fc1/MatMul f4 [16, 32]
00000000: 6d9d 843d b0b5 f03c 6a11 963d 84b2 033e
00000010: f7bd 8bbe 52cc 593e 9af6 163e 67e5 8bbe
00000020: c83d 873c 2a72 83be f70e a9be 10a7 033e
00000030: e2d2 80be 3d04 c0bb 5460 e63d cde9 54be
00000040: f003 adbd 0f43 89be 8114 0e3e 0e6b b2be
00000050: 741a 023e 31e3 503e 7c19 b73d 9b5e 0f3e
00000060: 6255 493d e7ac 5bbd a8eb 96bd 1f6b ad3e
00000070: 5ee8 88be 2536 85be 5a9a 8c3e 9f36 72be
00000080: 4e78 2c3e a852 e83d c462 15be 944e d73d
00000090: 0860 42be c31b 983e ba67 56be b4ec a03d
000000a0: f0c3 8abe 1e7c da3d 9809 913e 9c4c 4abe
000000b0: e26c e9bd f311 1cbe 6438 d43d d0c2 363d
000000c0: 8d68 05be ddff 64bd 4dc8 523e 4442 5eba
000000d0: 30be 82bd 07f4 d43c 9fb2 84be d3be 983e
000000e0: 1cd3 4e3d 42aa 603e e6f0 723e 1cb6 aabd
000000f0: 1b0d 80be 6f5c aabe a003 0d3c f97a 73be
00000100: 1e61 6c3c a4ea e03d e42b 9bbe 564b 383e
00000110: 9ead 233e 3684 303e df71 493e 79fd 95be
00000120: a277 063e 874e 4e3e 620c 223e 8eb3 543e
00000130: 1b61 a83e 2cd0 75be 293f a93e 066e b1be
00000140: baff 363e 3858 023e 9442 bbbd 3ea3 963e
00000150: 46f4 80be a39e a2be 7774 6b3e 917b a2be
00000160: 4538 5ebe 73b3 b83d aaea 08be a8de d5bc
00000170: d9e7 983e c007 413c cdc4 80be 373a a1be
00000180: a0ef 2ebd 422f 29bd 191c 413e 4e45 223e
00000190: 8ae8 323e 3680 673e eafa 18be 6e4a 793d
000001a0: 867d 9d3d 3fb9 33bd c57d 163e 2656 8bbe
000001b0: 84ca 0d3e d736 4c3e faa8 9bbe a00a 11be
000001c0: 495c 273e d044 debd 1fba 683e 52a3 f03d
000001d0: b819 d7bd 9119 7b3e a45e ad3e 34ed fabd
000001e0: 9761 52bd 85f3 6ebe b4b7 973e ab17 06be
000001f0: dee8 7e3e 3800 83bd 8622 3cbe 0e9d 6dbe
00000200: d0cb 513e 1a38 8cbe 5f49 b73d 176f 88be
00000210: 2248 a63d 4b8a 4f3e 761b 56be 1f53 263e
00000220: e248 32bd 1d4f 8a3e e614 b03e 6b32 47be
00000230: b931 8f3e f6e4 d5bc 22d6 98be d06f 4e3e
00000240: ea17 9abe 0093 823e ce1b 44be a340 973d
00000250: f834 cabd ac98 973d a85f 293e a351 543e
00000260: 5461 23be ba17 7b3e 897b 3b3e f99e 7fbe
00000270: 4886 9cbd 50b0 ab3e 4294 1d3b 6a67 b13e
00000280: fb47 2bbe 0560 a03e 1fcd 07bd 34fb 003d
00000290: 64c9 c9bd f2b7 7bbe 6470 62bd 580a 21be
000002a0: 917d 7cbe 71ed 6cbe 4ed4 f53d dc43 7e3e
000002b0: a66a 1f3e 36e9 6fbd a897 8ebe 2f47 933e
000002c0: 309a 343d 0115 a63e 26cb f93d baf1 833d
000002d0: 0911 683e ab95 fbbd ef93 9e3e d71c 2ebd
000002e0: 1e86 7a3e e8c7 b93d 8584 95be 4f01 613e
000002f0: e075 dd3c ab0c ba3d f842 5ebc 3661 7c3d
00000300: d4d3 d5bd 40fb b03d ee1f fdbd 160b 2f3e
00000310: 0a50 82be f03a 9c3d 1e8e 6abe 803b 4cbc
00000320: c732 70be 4c06 c3bd 9390 71be a491 8f3d
00000330: 1f9d ad3e 7453 8abe b094 e9bc d12d 2fbe
00000340: 7d8f 82be 4bca 8cbe ad5b 813e 7009 02be
00000350: 4166 26be 51dc a03e 3c91 963d df7d b43e
00000360: 9025 323d d949 a2be b061 113d 32c6 a3be
00000370: 103c cabc b003 193d dd79 07be 380f f5bd
00000380: 5d58 103e 1b33 32be 64ec 8abe c65f 023e
00000390: 77df a23e 6f57 9e3e 3083 07be 036d c0bd
000003a0: 448f a63c 406b 793e b0d4 323c 611a 623e
000003b0: a81a ffbd fe69 193e a505 833e a79d 91be
000003c0: e69d 9bbe 54d7 0ebe 60c5 853e d222 64be
000003d0: 8a71 5a3e dd1a eebd 6a00 ab3e a055 a0bd
000003e0: 6afe 823d 8d18 753e 3c4c 133e 00e1 2abd
000003f0: 5920 a03e 88fc 19be dc2e 793e b686 07be
0.06475339 0.02938351 0.0732754 0.12861067 -0.2729337 0.21269348 0.14742509 -0.27323458
0.016508952 -0.25673038 -0.3301923 0.12856698 -0.2516089 -0.0058598802 0.11248842 -0.20792313
-0.08448017 -0.26808974 0.13875009 -0.348473 0.12705404 0.20399167 0.08940408 0.14000933
0.049153693 -0.05363169 -0.073691666 0.3387079 -0.26739782 -0.26017871 0.2746151 -0.23653649
0.16842768 0.113438904 -0.14588457 0.105130345 -0.18981946 0.2970868 -0.20938006 0.078576475
-0.27102613 0.10668205 0.28327632 -0.19755787 -0.11397721 -0.15241222 0.10362318 0.04461938
-0.13028164 -0.055908073 0.20584221 -0.0008478502 -0.06383932 0.025995268 -0.25917527 0.29833087
0.0504943 0.21939948 0.23724708 -0.08335516 -0.2501 -0.33273646 0.008606821 -0.23777379
0.014427451 0.10982254 -0.30306923 0.17997488 0.15984198 0.17237934 0.19672345 -0.29294947
0.13131574 0.20147143 0.15825036 0.2077162 0.32886586 -0.24005193 0.33056 -0.34654254
0.1787099 0.12728965 -0.09143558 0.2942142 -0.25186366 -0.31761655 0.22993647 -0.317349
-0.21701153 0.09018602 -0.13370767 -0.026107147 0.29864386 0.011781633 -0.25150147 -0.31489727
-0.042708993 -0.041304834 0.18858375 0.1584675 0.17471519 0.22607502 -0.14939466 0.060861997
0.07689957 -0.043877836 0.14696415 -0.27214164 0.13846785 0.19942795 -0.30402356 -0.1416421
0.16343798 -0.10852969 0.2272725 0.11749901 -0.10502952 0.24521472 0.33861268 -0.12252274
-0.0513626 -0.23335083 0.29632342 -0.13094966 0.2489352 -0.06396526 -0.18372545 -0.23204443
0.20487905 -0.27386552 0.08949541 -0.26647255 0.08119227 0.20267598 -0.20908913 0.16242646
-0.043526538 0.27013484 0.34390944 -0.19452827 0.27967623 -0.026110154 -0.2985087 0.2015984
-0.3009637 0.25502777 -0.19151232 0.07385375 -0.09873384 0.07402167 0.16540396 0.20734267
-0.15955096 0.2452077 0.18308844 -0.24962987 -0.076427996 0.33532953 0.0024044667 0.3464921
-0.16726677 0.31323257 -0.033154603 0.031489566 -0.09852865 -0.24581888 -0.055282965 -0.15726602
-0.24657275 -0.23137452 0.120033845 0.24830574 0.15568027 -0.058572017 -0.2785008 0.28765246
0.044092357 0.324379 0.121969506 0.0644259 0.22662748 -0.12284406 0.3097224 -0.042507973
0.24465224 0.09071332 -0.29202667 0.21973155 0.027033746 0.090844475 -0.013565771 0.061616145
-0.10440794 0.08641672 -0.12359606 0.17094073 -0.2545169 0.07628429 -0.22905776 -0.012465358
-0.2345687 -0.095226854 -0.23590307 0.070102006 0.33908936 -0.27016795 -0.028513283 -0.17107321
-0.25500098 -0.27498087 0.25265256 -0.12698913 -0.16249944 0.31418088 0.0735192 0.35252282
0.043492854 -0.31696966 0.035493553 -0.3198715 -0.024686843 0.037357032 -0.13230081 -0.11965793
0.14096208 -0.17402308 -0.27133477 0.12731847 0.31811115 0.30926082 -0.13233638 -0.09395792
0.020331986 0.24357319 0.010914966 0.22080375 -0.12456256 0.14981839 0.25590244 -0.28440592
-0.30393904 -0.13949329 0.26127148 -0.22278908 0.21332374 -0.116262175 0.33398753 -0.07828832
0.06396182 0.23935147 0.1438455 -0.041718483 0.3127468 -0.1503774 0.24334282 -0.13234982

Predict/op/MatMul f4 [4, 16]
00000000: 4152 dd3e 47ff e83e 7013 cd3e 3bf4 e63d
00000010: 2a77 ce3e 2cb1 1f3e 14a3 683e 7e85 f73e
00000020: eb11 f63e f0ca 813b 3060 fdbe a9a7 01bc
00000030: b945 2b3e 5f38 6fbe 9e66 b93e 58b0 09be
00000040: 24d5 3b3e 630c f4be 76c7 f6be c2c2 e23e
00000050: 73d5 113e 4982 9c3e 4ce7 e9bd 10bc ae3e
00000060: 5b7d c6be 06f7 94be 3334 ba3e b906 553e
00000070: 1c6f 36bd 1922 dbbe fe66 edbe a56e f0be
00000080: 4351 723e 6c79 0bbf 07f0 0fbe 7637 2fbe
00000090: ef6a 9e3e f655 cb3d d466 ee3e 29a6 b63e
000000a0: e1e6 e7bd 9672 ebbe 96fe b43e 1957 c4be
000000b0: fbc1 ad3e 62dd 603e 5e7a bbbe 7b8e e33e
000000c0: ec24 fc3e da22 ceba 2649 a6be 7760 ab3e
000000d0: f3d6 0f3e 9e13 8dbe 60da cdbe d47e f3bd
000000e0: 7186 0b3f 1f82 803e bc8a e33e f4c2 e1be
000000f0: 25b1 8c3e 14e6 803e ac36 8f3d 5343 a93e
0.43226817 0.4550726 0.40053892 0.11277052 0.4032529 0.1559493 0.2271846 0.48344034
0.48060545 0.0039609596 -0.49487448 -0.007913508 0.16725816 -0.23361348 0.36211103 -0.13446176
0.18343025 -0.476657 -0.48199052 0.44289213 0.1424158 0.3056815 -0.114210695 0.34127855
-0.38767514 -0.29094714 0.3636795 0.20803346 -0.044539556 -0.42799452 -0.4636764 -0.46959415
0.23663811 -0.5448215 -0.14056407 -0.17111 0.3094096 0.09928505 0.46562827 0.35673645
-0.113233335 -0.4598586 0.35350484 -0.383477 0.33937058 0.21959451 -0.36616796 0.4444464
0.4924692 -0.0015726939 -0.32477683 0.33472034 0.1404684 -0.2755403 -0.4020567 -0.11889425
0.54502016 0.25099275 0.44441783 -0.4409405 0.274789 0.25175536 0.0699285 0.33059177

Predict/layer_conv3/Conv2D f4 [32, 3, 3, 1]
00000000: 8eee d43d bbe8 a83d 8c4a b83d be00 023e
00000010: 89b0 a1bc 3078 e13d 519d 043e 0c20 cc3d
00000020: 0518 debd b086 4bbd 149e 143e 17f3 363c
00000030: 7451 e53d f6b5 a13d ce4b 4f3d bc77 643d
00000040: 2e2a 6fbd a4b3 a9bd 7940 1a3e 0e48 8d3d
00000050: 720e 213e 6ff8 7cbc 2d84 153e c998 893d
00000060: 5341 89bd 7319 a03d 787b 59bd a4b4 f9bd
00000070: 5487 40bd 3c4d 90bd 0489 31bd 962e 59bd
00000080: 18c9 e43c 9be8 0c3e 530a 9b3d 96d3 cf3d
00000090: dd61 d9bd c4c4 37bd 0f56 c23c d68b f13d
000000a0: 0363 b93d 2c55 cebd f4b4 adbd a287 bf3d
000000b0: 2394 7e3d acc5 373e fc6c a73d 6188 d6bd
000000c0: 520c db3d 6a14 e13d 8283 a6bd 5b72 883d
000000d0: 9371 91bd 781e 0d3e d229 a7bc b231 06be
000000e0: 04d2 143d 3ade b33d 3c41 96bd ea88 093e
000000f0: f1bc a6bd 43a3 8b3d 46b1 073d a8b6 3f3d
00000100: 920c 1c3e 7575 783b cb42 9b3c 6c66 0b3e
00000110: 5c74 0b3e 9959 e03c 08b9 0b3e 23bd 633c
00000120: c2d9 893b 85ff 2e3e acce 353e 5adb 66bd
00000130: 9213 ca3d 304d 633d 8f61 91bd 8801 fd3d
00000140: 2a37 48bd f795 d0bd 47c9 90bd 9b33 f23c
00000150: 51f4 193c 1ca6 19bd e2d1 57bc e8ce 153e
00000160: 9b90 a2bd 3892 db3d 4fee 24bc f0ca 1a3e
00000170: 075b 053d b49a 853d 7db4 ad3d c13a a23d
00000180: 3034 213e f82f d2bd 6708 8ebb 7afe 323d
00000190: 8c47 d4bb 053f 02be 326a 6d3c f88d 1b3d
000001a0: 8459 eebd 564f db3c 37b2 053e 8376 013e
000001b0: 9bbf 81bd f782 90bd 481f 273d 5e7b 763d
000001c0: 51a1 f6bc 618a 5e3d ebe5 0cbe 097a 4d3d
000001d0: 13d8 033e 1198 bfbc 23ff f03d 46f9 e5bc
000001e0: 22bf cd3d 7163 ddbc 42cc 13bd bfd3 aebd
000001f0: 153e c03d 41c8 fbbd 02d2 afbd 0b50 e13c
00000200: 470d 893d 635e 8cbd ca8b 60bc e66c e43c
00000210: 128b e13d 9062 a2bd 190e 663c fa26 fdbb
00000220: dcea 4cbd 49dc 943d 4f8e d1bd 2b2e 0a3e
00000230: 4b8f f53d 4241 9dbc eb69 a7bc 77d1 eebd
00000240: 319b 583d 23e9 9bbd b3c1 783d 6b05 e63c
00000250: b442 3a3d 4250 d5bd 11a0 28bd 4291 d1bb
00000260: e3cd e73c c0fe 273d 6261 93bd 010c 01be
00000270: 9ebc f0bd 5fd4 1dbd 7685 013e d355 4abb
00000280: 89a9 033e c583 933d d12d dabd 86c8 33bd
00000290: 41d9 abbd f488 143e 7b84 453d 879c e93d
000002a0: e9bc 013b 484f 4e3d b72b f9bd bd95 633d
000002b0: 2623 993b 6b56 bdbd 6a37 8a3d 6d20 6ebd
000002c0: bd49 83bd e82d 693d 8049 d63d ad43 d4bd
000002d0: 9adb 7ebd 42fe 84bd 53ab c1bd df11 93bd
000002e0: 78dc ee3c 9564 10be 6b95 edbd 2d17 bfbd
000002f0: 8938 0abe 608a bd3c 9af1 fc3d 8a08 d53c
00000300: ad1b 0c3e 0e52 143e 72b6 183e 0055 2a3e
00000310: 5bad 69bd b4b6 98bb eff8 003e 153f 113e
00000320: cd1c 98bd f7aa 0a3d f797 10bd 6016 003e
00000330: 1b3d c23d 7e96 433c 4199 123e 751b e33d
00000340: 061d 9a3c c436 083a c79f eebc 126d 07be
00000350: 65f4 813d 7fc5 d1bc db17 f53c 1cc6 22bd
00000360: 19e5 1a3b 14f9 133e fc1d 483d 4916 24bd
00000370: 26b7 163e 6004 46bd e8d8 c2bc f67d d4bd
00000380: a029 d73b e1f9 e0bd 767a d13d e9de 2f3c
00000390: 37f6 9f3c 61c9 963d fda0 ee3d eebd 8b3d
000003a0: e7f6 b13d f1e3 d13d 20ed d53d b793 3c3d
000003b0: dd0c dbbd 5800 a6bd c323 30bd e505 10bd
000003c0: a99d 29be a8b4 883d 34be f3bd 8ef7 f43d
000003d0: 450f 193d 0b8d d2bd 7567 783d 5b81 06be
000003e0: 313e b83d 4685 753c 4bde 6fbd 1f75 a4bc
000003f0: 421b 2e3b 2726 423c 6099 d63c 68db f03c
0.10397063 0.08247515 0.08998594 0.12695596 -0.019737499 0.11009252 0.12950636 0.0996705
-0.10844425 -0.049688995 0.14513427 0.011166356 0.111971766 0.078960344 0.050609402 0.05577825
-0.058389835 -0.08286217 0.15063657 0.06898509 0.15728167 -0.015440091 0.14601202 0.067185946
-0.06701913 0.07817354 -0.053096265 -0.121926576 -0.04700406 -0.07045981 -0.04334356 -0.053022943
0.02792792 0.13760607 0.075703286 0.10147779 -0.10614369 -0.044865385 0.023722677 0.1179425
0.09052088 -0.10074839 -0.0848178 0.09352042 0.062152993 0.179465 0.08175084 -0.10475231
0.10695709 0.10990222 -0.08130552 0.066624366 -0.07101741 0.13781154 -0.020405684 -0.13104895
0.0363331 0.08782621 -0.07336661 0.13431135 -0.081415065 0.06818249 0.033128045 0.046805054
0.1523917 0.0037911807 0.018952748 0.1361329 0.13618606 0.027386473 0.13644803 0.013900074
0.004206867 0.1708966 0.1775462 -0.056361534 0.09867014 0.055493534 -0.07098686 0.12353808
-0.048880734 -0.101848535 -0.070696406 0.029565623 0.0093966285 -0.03751193 -0.013172599 0.1462971
-0.079377376 0.107212484 -0.010066583 0.15116477 0.032557514 0.06523648 0.08481691 0.07921363
0.15742564 -0.102630556 -0.0043344977 0.04369972 -0.0064782556 -0.12719353 0.014490651 0.03797719
-0.116381675 0.026771229 0.13056265 0.12642865 -0.06335374 -0.070562296 0.040801316 0.060176246
-0.030106219 0.054331187 -0.13759582 0.05016521 0.12875395 -0.02338794 0.117674135 -0.028072964
0.10046221 -0.027024956 -0.036083467 -0.08536481 0.09386841 -0.12294055 -0.08584978 0.027503988
0.066919856 -0.0685394 -0.013705203 0.027883958 0.11012854 -0.079289556 0.014041447 -0.0077255936
-0.050028667 0.072685786 -0.10232221 0.13494174 0.119902216 -0.019196156 -0.020436248 -0.11661046
0.052882377 -0.07612827 0.0607316 0.028078755 0.04547377 -0.104156986 -0.041168276 -0.00639549
0.028296417 0.041014433 -0.07196309 -0.12602235 -0.11754726 -0.03853261 0.12648568 -0.003087391
0.12857641 0.072028674 -0.1065327 -0.043892406 -0.08391047 0.14505368 0.048222046 0.11406808
0.0019796437 0.050368577 -0.12166541 0.055562723 0.0046733795 -0.092449985 0.06748851 -0.058136392
-0.06410549 0.056928545 0.10463238 -0.10364471 -0.062221147 -0.06493808 -0.094565056 -0.07181143
0.029157862 -0.14100869 -0.11600765 -0.09330592 -0.13498129 0.023137271 0.12350769 0.026005048
0.13682432 0.14484426 0.14913347 0.16633987 -0.05705009 -0.004660452 0.1259496 0.1418422
-0.07427368 0.03385445 -0.035301175 0.12508535 0.09484311 0.011937736 0.14316274 0.110892214
0.018812668 0.0005196149 -0.029128922 -0.13225201 0.06345443 -0.025606869 0.029918602 -0.039739713
0.0023635088 0.14450485 0.04885672 -0.040060315 0.14718303 -0.048344016 -0.02378507 -0.10375588
0.0065662414 -0.109851606 0.10228436 0.010734298 0.019526584 0.07362629 0.116518 0.068233356
0.08689671 0.102485545 0.10445619 0.04603931 -0.10695813 -0.08105534 -0.043002855 -0.03516187
-0.16564049 0.066750824 -0.11901513 0.1196128 0.037368078 -0.10280808 0.06064554 -0.13135283
0.08996237 0.014985388 -0.058561604 -0.020075379 0.002656654 0.011849917 0.026196182 0.029401496

Predict/layer_conv4/Conv2D i1 [64, 3, 3, 32] scale=0.0013562148 zero_point=0
00000000: dc08 d124 0521 dafa defb d7ec e537 43f5
00000010: 0723 becd eeec ebd1 0cca 2ccd f2fa 11f4
00000020: 302f 43d2 08d6 22e6 0a2b 18fe 29e5 29ef
00000030: 2d2f 0af7 1a2c 1bf6 3018 06f3 1204 3e3b
00000040: ff42 f006 02fc e32a 2fe0 edd5 09f8 1c36
00000050: fa42 2a38 e304 381a 3a26 1b2d 0cd7 4229
00000060: ebd9 eb10 e3f7 ffdf 1f16 fcde 1206 2b2b
00000070: 1f19 ecd1 3d0b ece7 d0c5 0b24 2f18 492d
00000080: c3c5 2803 f0cf 3ef2 4203 28c9 4731 3836
00000090: f6f4 04d1 ce12 e915 e0e0 4526 e322 330a
000000a0: 093c 3e20 12f4 08f8 2af3 0921 050b 4748
000000b0: 4fd2 1114 e632 d65a 3fd3 dc46 08ed f2dc
000000c0: fcf7 1acd da27 10e5 c3d1 ff23 0848 e722
000000d0: 142b e100 d5ed f123 1fff dd22 ccf3 def1
000000e0: fd0e d4ef 23c2 3a29 dc25 ec0d fd45 2c15
000000f0: 4528 ff3d ddc0 3604 3028 2ae1 0f27 21cc
-0.04882373 0.010849718 -0.063742094 0.04882373 0.0067810738 0.044755086 -0.05153616 -0.0081372885
-0.0461113 -0.0067810738 -0.055604804 -0.027124295 -0.036617797 0.07459181 0.09086639 -0.014918363
0.009493504 0.047467515 -0.08951017 -0.06916695 -0.024411865 -0.027124295 -0.02848051 -0.063742094
0.016274577 -0.073235594 0.05967345 -0.06916695 -0.018987007 -0.0081372885 0.02305565 -0.016274577
0.06509831 0.063742094 0.09086639 -0.06238588 0.010849718 -0.05696102 0.0461113 -0.035261583
0.0135621475 0.058317233 0.032549154 -0.0027124295 0.055604804 -0.036617797 0.055604804 -0.02305565
0.061029665 0.063742094 0.0135621475 -0.012205932 0.035261583 0.05967345 0.036617797 -0.0135621475
0.06509831 0.032549154 0.0081372885 -0.017630791 0.024411865 0.005424859 0.084085315 0.08001667
-0.0013562148 0.08951017 -0.021699436 0.0081372885 0.0027124295 -0.005424859 -0.03933023 0.05696102
0.063742094 -0.043398872 -0.02576808 -0.058317233 0.012205932 -0.010849718 0.037974015 0.073235594
-0.0081372885 0.08951017 0.05696102 0.07594803 -0.03933023 0.005424859 0.07594803 0.035261583
0.07866046 0.05153616 0.036617797 0.061029665 0.016274577 -0.055604804 0.08951017 0.055604804
-0.02848051 -0.052892376 -0.02848051 0.021699436 -0.03933023 -0.012205932 -0.0013562148 -0.044755086
0.042042658 0.029836725 -0.005424859 -0.0461113 0.024411865 0.0081372885 0.058317233 0.058317233
0.042042658 0.03390537 -0.027124295 -0.063742094 0.0827291 0.014918363 -0.027124295 -0.03390537
-0.06509831 -0.08001667 0.014918363 0.04882373 0.063742094 0.032549154 0.09900368 0.061029665
-0.0827291 -0.08001667 0.05424859 0.0040686443 -0.021699436 -0.06645452 0.084085315 -0.018987007
0.08951017 0.0040686443 0.05424859 -0.07459181 0.096291244 0.06645452 0.07594803 0.073235594
-0.0135621475 -0.016274577 0.005424859 -0.063742094 -0.06781074 0.024411865 -0.03119294 0.02848051
-0.043398872 -0.043398872 0.093578815 0.05153616 -0.03933023 0.0461113 0.06916695 0.0135621475
0.012205932 0.08137289 0.084085315 0.043398872 0.024411865 -0.016274577 0.010849718 -0.010849718
0.05696102 -0.017630791 0.012205932 0.044755086 0.0067810738 0.014918363 0.096291244 0.09764746
0.107140966 -0.06238588 0.02305565 0.027124295 -0.035261583 0.06781074 -0.05696102 0.12205933
0.08544153 -0.061029665 -0.04882373 0.09493503 0.010849718 -0.02576808 -0.018987007 -0.04882373
-0.005424859 -0.012205932 0.035261583 -0.06916695 -0.05153616 0.052892376 0.021699436 -0.036617797
-0.0827291 -0.063742094 -0.0013562148 0.047467515 0.010849718 0.09764746 -0.03390537 0.0461113
0.027124295 0.058317233 -0.042042658 0.0 -0.058317233 -0.02576808 -0.020343222 0.047467515
0.042042658 -0.0013562148 -0.047467515 0.0461113 -0.070523165 -0.017630791 -0.0461113 -0.020343222
-0.0040686443 0.018987007 -0.05967345 -0.02305565 0.047467515 -0.084085315 0.07866046 0.055604804
-0.04882373 0.050179947 -0.027124295 0.017630791 -0.0040686443 0.093578815 0.05967345 0.02848051
0.093578815 0.05424859 -0.0013562148 0.0827291 -0.047467515 -0.086797744 0.073235594 0.005424859
0.06509831 0.05424859 0.05696102 -0.042042658 0.020343222 0.052892376 0.044755086 -0.070523165

Predict/layer_conv5/Conv2D i1 [128, 3, 3, 64] scale=0.0010079269 zero_point=0
00000000: 1bdb e4d0 d206 dae3 0923 e51d dc2b f2d3
00000010: 4120 160e 20da 3609 2f33 d4c6 15cc 08cb
00000020: 0dd4 2d22 f72c 3633 ef16 08c9 f630 e4d8
00000030: 1fdf 01f9 f4f9 1d1d 1fed 121f de29 0bfe
00000040: 2804 431c e6c6 c61d d115 e911 fa26 07c6
00000050: 0af5 122c eee7 ed02 e00d 1819 cf11 38ca
00000060: 28f3 0320 29e6 f6f0 28be d719 d856 d031
00000070: d2e3 240d 3015 012f f321 e0e6 3345 c32c
00000080: fd18 3935 f0e8 f6e0 ddfd c308 4724 0ee5
00000090: d717 2de6 e60b 1ee3 1601 2b05 f0fb 0209
000000a0: d9e3 e8fb dfea eee9 cb24 d512 db4a 27fd
000000b0: f6cc d33f 2919 27e8 0619 3bf9 f02f e1f9
000000c0: f123 c2dc 37e2 30fb e8f7 e52b 2d0a 10c5
000000d0: d625 f4d4 d832 3af1 152a c7f9 e116 dec6
000000e0: e8f1 c821 47dd 0cea d7de f9ea fb2a 28f5
000000f0: 2714 dc12 f925 c3c3 e7cf 22d8 2a2b f903
0.027214026 -0.037293296 -0.028221954 -0.04838049 -0.046364635 0.0060475613 -0.038301222 -0.02922988
0.009071342 0.03527744 -0.027214026 0.02922988 -0.036285367 0.043340854 -0.014110977 -0.04535671
0.06551525 0.03225366 0.022174392 0.014110977 0.03225366 -0.038301222 0.054428052 0.009071342
0.047372565 0.05140427 -0.044348784 -0.05845976 0.021166464 -0.052412197 0.008063415 -0.053420126
0.013103049 -0.044348784 0.04535671 0.034269515 -0.009071342 0.044348784 0.054428052 0.05140427
-0.017134758 0.022174392 0.008063415 -0.055435978 -0.010079268 0.04838049 -0.028221954 -0.040317073
0.031245733 -0.033261586 0.0010079269 -0.0070554884 -0.012095123 -0.0070554884 0.02922988 0.02922988
0.031245733 -0.019150611 0.018142683 0.031245733 -0.034269515 0.041325003 0.011087196 -0.0020158538
0.040317073 0.0040317075 0.0675311 0.028221954 -0.026206098 -0.05845976 -0.05845976 0.02922988
-0.047372565 0.021166464 -0.023182318 0.017134758 -0.0060475613 0.038301222 0.0070554884 -0.05845976
0.010079268 -0.011087196 0.018142683 0.044348784 -0.018142683 -0.025198173 -0.019150611 0.0020158538
-0.03225366 0.013103049 0.024190245 0.025198173 -0.049388416 0.017134758 0.056443907 -0.054428052
0.040317073 -0.013103049 0.0030237806 0.03225366 0.041325003 -0.026206098 -0.010079268 -0.01612683
0.040317073 -0.06652317 -0.041325003 0.025198173 -0.040317073 0.08668171 -0.04838049 0.049388416
-0.046364635 -0.02922988 0.036285367 0.013103049 0.04838049 0.021166464 0.0010079269 0.047372565
-0.013103049 0.033261586 -0.03225366 -0.026206098 0.05140427 0.06954695 -0.06148354 0.044348784
-0.0030237806 0.024190245 0.057451833 0.053420126 -0.01612683 -0.024190245 -0.010079268 -0.03225366
-0.03527744 -0.0030237806 -0.06148354 0.008063415 0.07156281 0.036285367 0.014110977 -0.027214026
-0.041325003 0.023182318 0.04535671 -0.026206098 -0.026206098 0.011087196 0.030237807 -0.02922988
0.022174392 0.0010079269 0.043340854 0.005039634 -0.01612683 -0.005039634 0.0020158538 0.009071342
-0.039309148 -0.02922988 -0.024190245 -0.005039634 -0.033261586 -0.022174392 -0.018142683 -0.023182318
-0.053420126 0.036285367 -0.043340854 0.018142683 -0.037293296 0.07458659 0.039309148 -0.0030237806
-0.010079268 -0.052412197 -0.04535671 0.06349939 0.041325003 0.025198173 0.039309148 -0.024190245
0.0060475613 0.025198173 0.059467684 -0.0070554884 -0.01612683 0.047372565 -0.031245733 -0.0070554884
-0.0151189035 0.03527744 -0.062491465 -0.036285367 0.055435978 -0.030237807 0.04838049 -0.005039634
-0.024190245 -0.009071342 -0.027214026 0.043340854 0.04535671 0.010079268 0.01612683 -0.059467684
-0.04233293 0.037293296 -0.012095123 -0.044348784 -0.040317073 0.050396346 0.05845976 -0.0151189035
0.021166464 0.04233293 -0.057451833 -0.0070554884 -0.031245733 0.022174392 -0.034269515 -0.05845976
-0.024190245 -0.0151189035 -0.056443907 0.033261586 0.07156281 -0.03527744 0.012095123 -0.022174392
-0.041325003 -0.034269515 -0.0070554884 -0.022174392 -0.005039634 0.04233293 0.040317073 -0.011087196
0.039309148 0.020158537 -0.036285367 0.018142683 -0.0070554884 0.037293296 -0.06148354 -0.06148354
-0.025198173 -0.049388416 0.034269515 -0.040317073 0.04233293 0.043340854 -0.0070554884 0.0030237806
