v3/dwt_HH_TFLite_Quantized.tflite (tflite, 793280 bytes, 12 tensors)

Predict/fc0/BiasAdd/ReadVariableOp/resource f4 [32]
00000000: 2438 ed39 647e 593b 3281 bb3b c37e 87b8
00000010: a2ba 48b9 0000 0000 2040 183b ee1d 7b3b
00000020: ee5e 2abb 0000 0000 1816 debb 556d 9cbb
00000030: 08d0 9db8 8abb bf3b 0d70 cc3b be82 68ba
00000040: 6497 d43b a6f0 c4b8 87a8 2b3a 5af1 8db9
00000050: 4134 4fbb c30c ecb8 68c1 e9bb 8467 22bb
00000060: b13a 343c 2819 c23b e9b8 023c be7e 9a3b
00000070: f3a1 79b9 7371 4fbb 0e50 db3b 2de3 9f3b
0.0004524599 0.0033186907 0.0057221884 -6.460913e-05 -0.00019143012 0.0 0.002323158 0.00383174
-0.0025996524 0.0 -0.006777536 -0.0047737756 -7.525092e-05 0.005851214 0.0062389434 -0.000886958
0.0064877737 -9.3908326e-05 0.0006548245 -0.00027073437 -0.003161684 -0.00011255734 -0.0071336515 -0.0024780938
0.011000321 0.005923409 0.007978656 0.004714816 -0.00023806821 -0.0031653314 0.006692893 0.0048793764

Predict/fc1/BiasAdd/ReadVariableOp/resource f4 [16]
00000000: 0000 0000 9bcb 3c3c 0000 0000 b204 9d3b
00000010: db7e 9a3b 0000 0000 9f8b d93b 0a1a b9bb
00000020: 4e2f 4c3c 3365 2ebb b31e cf39 cb7f 533a
00000030: 0000 0000 a7e9 febb 3eb8 47bb 0000 0000
0.0 0.011523153 0.0 0.0047918195 0.0047148294 0.0 0.0066389586 -0.005648856
0.01246245 -0.0026610612 0.0003950499 0.0008068054 0.0 -0.0077793184 -0.0030474807 0.0

Predict/layer_conv3/BiasAdd/ReadVariableOp/resource f4 [32]
00000000: 0182 91bb 8fdb 123c f26d 153c b1c4 1e3c
00000010: 5bf3 1c3c 084b 753b 41d2 2e3c f201 273c
00000020: 6a78 c13b 2ba9 0d3c 3521 f43b 6dc7 163b
00000030: 2e0f aebb 2349 213c 3be4 9f3b 7c0d f43b
00000040: a1cb d53b 66ab 263c 3dc6 133c 9211 193c
00000050: a963 103c 1c33 1e3c 8f92 6b3a 9cdc 29bb
00000060: 6d47 f73b 0aa0 0d3c 2065 f73b 4476 223c
00000070: 9492 fe3b ffce 183c 869d 6ebb 98bf 053c
-0.0044405465 0.00896348 0.009120451 0.00969045 0.009579505 0.0037428755 0.010670246 0.010193335
0.005904247 0.00864629 0.0074502476 0.002300705 -0.005311868 0.009844097 0.004879502 0.0074478965
0.0065245186 0.0101727005 0.009019432 0.009342568 0.008812823 0.00965574 0.00089863775 -0.0025918847
0.0075463564 0.008644113 0.007549897 0.009915892 0.0077689383 0.009326695 -0.003640981 0.008163355

Predict/layer_conv4/BiasAdd/ReadVariableOp/resource f4 [64]
00000000: fa4b 16bb 959d f63b f34b f73b ff8c 983b
00000010: 5da2 163c dd6a 353a c720 1e3c b8bb d23b
00000020: a463 663b 3ae1 203b cccc 1c3c 235e 923b
00000030: 1b94 203c 2ad5 0b3c e2f8 c23b 402d 1a3c
00000040: 164c b03b 5525 263c 2a89 0c3c 4ac2 c23b
00000050: 02bd ca3a ccb6 063b 3034 d93b 7dd8 223c
00000060: 5499 1b3c 7aee 7f3b 782f 1e3c 3aa4 c53b
00000070: ba89 e63b 8d48 033c 498b 8b3b 939b 283c
00000080: 2140 8539 4a8b 0d3c affd 0c3c e110 0e3c
00000090: da06 c33b 7982 153b 121b 113c 671c 1d3c
000000a0: 178a de3b ace3 883b 20ba 113c 9edf adba
000000b0: 1d16 9a3b 61f8 0e3c 3267 033c f89f c63b
000000c0: 55f9 123c 70f1 a03b cc88 213c 5c2c 3c3b
000000d0: 1487 073c a06d 163c 13d1 0d3c fdf2 3c3b
000000e0: d6bb d53b c282 e63b 3719 1b3c 5f82 0a3c
000000f0: 539b 1c3c 1ab2 dc3b 2383 d33b 6ede 1e3c
-0.002293347 0.0075261095 0.0075468956 0.00465548 0.009193984 0.0006920526 0.009651369 0.006431069
0.0035154605 0.0024548308 0.009570312 0.0044667884 0.009800936 0.008534709 0.0059500793 0.0094102025
0.005380164 0.010140737 0.008577624 0.005943571 0.0015467706 0.0020555733 0.0066285357 0.00993931
0.0094970055 0.0039052055 0.009654872 0.00603154 0.0070354613 0.008012903 0.0042585474 0.010290998
0.00025415517 0.008639166 0.008605405 0.008671016 0.0059517445 0.0022813363 0.008856552 0.009589291
0.006791364 0.004177531 0.008894473 -0.0013265496 0.004702343 0.00872621 0.008020209 0.00606155
0.008970578 0.004911594 0.009859275 0.0028712964 0.008271951 0.00918141 0.008655804 0.0028831356
0.006522636 0.0070346305 0.009466461 0.008453934 0.009558517 0.0067350985 0.0064548417 0.009696586

Predict/layer_conv5/BiasAdd/ReadVariableOp/resource f4 [128]
00000000: 38cc 0e3c 9605 dc3b ecd0 813b 7013 cc3b
00000010: b693 143c 69de 123c 2281 893b 7478 a1bb
00000020: 2271 1c3c 7652 df3b 6e1a 163c f200 163c
00000030: ded1 d2ba c17b a23b 029d 133c bfac 3e3b
00000040: 7caa d43b b91b 123c 7418 193c e508 943b
00000050: 180b c43b da8b a939 4752 cd3b dcc8 e33b
00000060: 07de d53b 570b e63b 8e87 1b3c c50f c93b
00000070: fd7f 983a 0511 ae3a f076 3f3c 5d74 303c
00000080: dd64 333b 2ac2 793b d96d df3b deba b63b
00000090: 6e06 163c 1064 0f3c 9b97 fa3b 68ec 063b
000000a0: 0466 da3b 3484 193c 3b5b a7bb 1363 f43b
000000b0: 63f9 c53b 9dac 8f3b 7e83 143c 251d 4d3c
000000c0: b45e 0e3c 20f2 bc3b 417c cb3b 9bce 293c
000000d0: 8905 c93b bfa7 ae3b 27b7 033c 8276 f13b
000000e0: 78ba 3f3b 48f1 843b d796 f63b eb2f 4b3c
000000f0: 0fb5 383c b3e5 ba3b c5f0 203c cf07 133c
00000100: 259c 9bbb 820a 333c 9c32 233c 6707 c93b
00000110: 0008 b53b 366c 8e3b 2783 1d3c 88a2 0c3c
00000120: cfc6 f83b 456c 103c ee0a 243c f880 1e3c
00000130: 8db6 b03b cc8c ff3b 1f84 f93b 5ead 2a3c
00000140: 010e b03b 7edb 2a3c 910a 143c 43ae ec3b
00000150: ab7d 3b3b a268 743b 5dca d73a dab9 8a3b
00000160: 541f 243c b879 263c ec72 de3b 3978 243c
00000170: 9546 1a3c 4e39 ad3b 6bf3 ed3b 208f f63b
00000180: dccb 293c deed 843b 855a d73b f543 b83b
00000190: d9f5 1e3c 00e1 1e3c eef7 1f3c 6bfd 6b3b
000001a0: 5e73 ee3b a6c5 ec3b b19d c03b 71dd df3b
000001b0: 296f 143c dfcd 893b 140b fb3b 22ee 343b
000001c0: fe30 113c f4a7 c03b 2527 033c 13f1 a43b
000001d0: 2c58 c53b d17b ce3b 3c26 ff3b 4255 123c
000001e0: 3286 d93b b5a0 073b 9f64 ad3b 5e50 e23b
000001f0: d96e 8d3b 485c 0d3c a969 2d3b 444a fa3b
0.008715682 0.006714533 0.003961673 0.006227903 0.00906842 0.0089641595 0.004196302 -0.004927689
0.009548457 0.00681525 0.009161575 0.009155499 -0.0016084274 0.0049586003 0.009009602 0.0029094664
0.00649005 0.008917742 0.009344209 0.004517662 0.005982768 0.0003233839 0.0062659117 0.0069514345
0.006526712 0.007020395 0.009492768 0.006135913 0.0011634823 0.0013280219 0.011686072 0.010769931
0.0027373352 0.0038110116 0.006818515 0.0055764755 0.009156806 0.008751884 0.0076474673 0.0020587686
0.0066649932 0.009369899 -0.005107311 0.0074580996 0.006041692 0.004384591 0.009064553 0.012519156
0.008689571 0.0057661682 0.0062098806 0.0103642 0.006134693 0.0053300555 0.008039272 0.0073688636
0.002925543 0.0040570833 0.0075253057 0.012401561 0.0112736365 0.005703652 0.009823029 0.00897403
-0.0047488385 0.010927798 0.009960797 0.0061349156 0.0055246353 0.004346396 0.009613789 0.008583672
0.007592059 0.008814876 0.010012371 0.009674303 0.0053928555 0.0077987667 0.007614627 0.0104173105
0.005372763 0.010428308 0.009035722 0.007222922 0.002860884 0.0037293811 0.0016463507 0.004233581
0.010017235 0.010160856 0.006788602 0.010038429 0.009416242 0.0052863723 0.0072616837 0.007524386
0.010363545 0.0040566763 0.00657207 0.0056233355 0.009702169 0.009697199 0.009763701 0.0036009203
0.0072769364 0.00722571 0.0058781733 0.006831818 0.009059706 0.00420545 0.0076612327 0.0027607759
0.008861778 0.0058793966 0.008004938 0.005033621 0.006022474 0.006301381 0.0077865403 0.00893146
0.006638312 0.0020695154 0.005291536 0.006906553 0.0043161926 0.008627959 0.0026460683 0.0076382477

Predict/op/BiasAdd/ReadVariableOp/resource f4 [4]
00000000: b1db cc3b 0b0a 6a3b 59a1 babb 4fb0 47bc
0.006251775 0.0035711552 -0.0056955037 -0.012188031

Predict/fc0/MatMul i1 [32, 21632] scale=0.00059627875 zero_point=0
00000000: ed1c ed01 ff08 070e e816 fef6 0a18 14ff
00000010: 0cfd f9e9 03e8 1bff 0e19 160d f114 fd11
00000020: ff1e 11ed 07e6 f703 09f0 eff9 f40e 03f0
00000030: 130c ff01 f80d fafd 09fe 112a fdff 1c1d
00000040: eef8 f817 f71a 1500 0dfa ec07 0be9 fbf1
00000050: fb09 07f3 f2ec ef19 0515 fffe f316 f80b
00000060: 080d 0ceb ecf1 f5e9 1803 1418 0dfe f50a
00000070: eff6 eb15 1210 05fd 05fa 1b1a ff10 fe0a
00000080: 031b ed1a e7f7 f205 ea15 ee01 faeb 051c
00000090: 08f3 f112 121c 02f1 131b f8fb e8f3 1f1c
000000a0: 19ee 1013 f213 0a09 0cfe 1b19 05f7 0212
000000b0: fe1a 160b 04fc 13ed f511 120f eb0b f2e9
000000c0: df0b ed10 1c19 f100 f0e8 f506 0afb 02f6
000000d0: efe9 110a 1cfc f708 0504 e902 e7f8 eb14
000000e0: f7ea 0df0 15f6 08ed e71d 0a0c 17e8 0c01
000000f0: ec07 0504 0bff 0705 ea08 15e9 0bfd 0e0a
-0.011329296 0.016695805 -0.011329296 0.00059627875 -0.00059627875 0.00477023 0.004173951 0.008347902
-0.01431069 0.013118133 -0.0011925575 -0.0059627877 0.0059627877 0.01431069 0.011925575 -0.00059627875
0.007155345 -0.0017888362 -0.004173951 -0.013714411 0.0017888362 -0.01431069 0.016099526 -0.00059627875
0.008347902 0.014906969 0.013118133 0.0077516236 -0.008944182 0.011925575 -0.0017888362 0.010136738
-0.00059627875 0.017888363 0.010136738 -0.011329296 0.004173951 -0.015503247 -0.005366509 0.0017888362
0.005366509 -0.00954046 -0.010136738 -0.004173951 -0.007155345 0.008347902 0.0017888362 -0.00954046
0.011329296 0.007155345 -0.00059627875 0.00059627875 -0.00477023 0.0077516236 -0.0035776724 -0.0017888362
0.005366509 -0.0011925575 0.010136738 0.025043707 -0.0017888362 -0.00059627875 0.016695805 0.017292084
-0.010733018 -0.00477023 -0.00477023 0.013714411 -0.005366509 0.015503247 0.012521854 0.0
0.0077516236 -0.0035776724 -0.011925575 0.004173951 0.0065590665 -0.013714411 -0.0029813938 -0.008944182
-0.0029813938 0.005366509 0.004173951 -0.0077516236 -0.008347902 -0.011925575 -0.010136738 0.014906969
0.0029813938 0.012521854 -0.00059627875 -0.0011925575 -0.0077516236 0.013118133 -0.00477023 0.0065590665
0.00477023 0.0077516236 0.007155345 -0.012521854 -0.011925575 -0.008944182 -0.0065590665 -0.013714411
0.01431069 0.0017888362 0.011925575 0.01431069 0.0077516236 -0.0011925575 -0.0065590665 0.0059627877
-0.010136738 -0.0059627877 -0.012521854 0.012521854 0.010733018 0.00954046 0.0029813938 -0.0017888362
0.0029813938 -0.0035776724 0.016099526 0.015503247 -0.00059627875 0.00954046 -0.0011925575 0.0059627877
0.0017888362 0.016099526 -0.011329296 0.015503247 -0.014906969 -0.005366509 -0.008347902 0.0029813938
-0.013118133 0.012521854 -0.010733018 0.00059627875 -0.0035776724 -0.012521854 0.0029813938 0.016695805
0.00477023 -0.0077516236 -0.008944182 0.010733018 0.010733018 0.016695805 0.0011925575 -0.008944182
0.011329296 0.016099526 -0.00477023 -0.0029813938 -0.01431069 -0.0077516236 0.01848464 0.016695805
0.014906969 -0.010733018 0.00954046 0.011329296 -0.008347902 0.011329296 0.0059627877 0.005366509
0.007155345 -0.0011925575 0.016099526 0.014906969 0.0029813938 -0.005366509 0.0011925575 0.010733018
-0.0011925575 0.015503247 0.013118133 0.0065590665 0.002385115 -0.002385115 0.011329296 -0.011329296
-0.0065590665 0.010136738 0.010733018 0.008944182 -0.012521854 0.0065590665 -0.008347902 -0.013714411
-0.0196772 0.0065590665 -0.011329296 0.00954046 0.016695805 0.014906969 -0.008944182 0.0
-0.00954046 -0.01431069 -0.0065590665 0.0035776724 0.0059627877 -0.0029813938 0.0011925575 -0.0059627877
-0.010136738 -0.013714411 0.010136738 0.0059627877 0.016695805 -0.002385115 -0.005366509 0.00477023
0.0029813938 0.002385115 -0.013714411 0.0011925575 -0.014906969 -0.00477023 -0.012521854 0.011925575
-0.005366509 -0.013118133 0.0077516236 -0.00954046 0.012521854 -0.0059627877 0.00477023 -0.011329296
-0.014906969 0.017292084 0.0059627877 0.007155345 0.013714411 -0.01431069 0.007155345 0.00059627875
-0.011925575 0.004173951 0.0029813938 0.002385115 0.0065590665 -0.00059627875 0.004173951 0.0029813938
-0.013118133 0.00477023 0.012521854 -0.013714411 0.0065590665 -0.0017888362 0.008347902 0.0059627877

Predict/fc1/MatMul f4 [16, 32]
00000000: 36d5 073e b405 e43d 4d06 8abe 7e0f 9dbe
00000010: ab24 9abe f06b 47be e2d5 353e 5df6 56be
00000020: bcb0 a4be 9030 7b3d 43d4 abbe 2a85 abbe
00000030: 2ecf 3d3e 006c 3c3b 13d6 03be f4eb a0bd
00000040: 4867 133d 60a1 a93c 3b57 84be 0dfd 3abe
00000050: 2818 77be 4050 153e fe22 3bbe 0054 f83a
00000060: edc9 13be ffda b03e 9a0d 33be 5d7b a9be
00000070: e8e3 95bd b0ea bebd 3c1b c83d 6073 2f3c
00000080: d36c 32be c27f 7cbe 11e8 90be 353a 253e
00000090: 119f c93d e005 603c 94e3 cabd b56e 7d3e
000000a0: 0a0d b53e 26b4 463e 7a84 fc3d 745f 15bd
000000b0: fa5c 1e3e 8a93 97be e559 053d 777b 193e
000000c0: bbdb 973e bf35 8c3e f42b 79be 8ba2 113e
000000d0: c791 a03b d254 a13e f0d5 d43d 1e27 0d3e
000000e0: 1475 6a3e cbc3 a33e 8b3f 8e3d 7ecf 6fbd
000000f0: 33a2 32be 827c 233e edd3 4d3e 8242 2dbe
00000100: f732 2bbe 3fb4 993e 7991 853e d47f cb3d
00000110: e80b b9bd 36dd 453e a6e5 1a3e 2913 a63e
00000120: e00f d53d a04a 4d3c 585d 5c3d f0e6 e63d
00000130: 3c96 10be ad9a 53be 40df a2bd b99d a63e
00000140: b28e 7b3e 908c 113d db1c 3ebe d7aa 81be
00000150: 5e71 afbe 38cf e9bd f6b1 58be f6fe 73be
00000160: 7693 62be 89b8 80be 3c5f adbe 6886 57bd
00000170: 3293 443e 95b7 39be be69 51be c6ca 1a3e
00000180: 642b c33a 17b3 67be 439d 71bb 4666 a93e
00000190: 22c6 c5bd 51ed 953e cb33 b4be deb7 a73e
000001a0: 8f42 3c3e 3d6e 57be 1f13 92be 00a3 cf3d
000001b0: 01d9 79be 3479 973e f944 193d 9d43 8e3e
000001c0: 648b 1d3e 9184 923e 50b6 61bd db00 a0bd
000001d0: c6d4 0e3e 24c7 073e 3112 46be afdc 873e
000001e0: 7ee8 343e 6eda 9e3e a838 b53e 4bee 5fbd
000001f0: 700d 1c3d e8a7 cb3d 791a 3c3e bbce a3be
00000200: 2d1b 80bd 179d d8bd d280 a9bd 3e16 8c3e
00000210: e76b 473e a6a0 183e fb94 743e 3c7b 823e
00000220: fb8f 4fbe e325 a13e d6d2 31be a8d3 a7be
00000230: 91b6 983e 7257 5b3e f6e5 4d3e 51b1 91be
00000240: 9086 b63d 87e5 cabd 8592 e63d b574 543e
00000250: 8886 87be 6e41 283e 2e2a 7dbe 6571 3c3d
00000260: ad9f 763e e785 463e 8894 3c3e 8885 873e
00000270: d28f 363e e471 9bbe 8c31 a13d 39f9 a13e
00000280: f417 a83d 6b6d 1dbe 0720 b3be 2c0f c33d
00000290: e85b 153d 444b 063e 5b78 8e3e de93 703e
000002a0: f609 21be 37f8 ab3e 2da1 a23e 7cfd 72be
000002b0: c8d3 93bd 2695 60be 83d9 4cbe 7072 b1bd
000002c0: 7556 9d3e fab4 453e 13fd 42be fe2b 4c3e
000002d0: da8b 543e d36e 8b3e 1c6c 3bbe dcdb 8abe
000002e0: 4eca 8ebe 681b 62bd 007b b9bb 9094 9bbe
000002f0: d8a5 95bd 54cb a5bd a562 aebe 03a5 93be
00000300: 3af1 673e 834d a43e b260 a83e 0cdc b23e
00000310: a932 adbe d0c6 c5bc b972 b53e 6d72 9f3e
00000320: 99bf 943d c4be f03d 06f4 d1bd aec6 25be
00000330: 9b94 523c 8b1c 08be 0871 26be d6b1 8abb
00000340: 063f 733e 2ab1 ff3d 2e8f 5abe 06f2 7d3e
00000350: 311f 83bd 179d bfbd 2238 15be 28e7 a8be
00000360: 48ce 043e f314 a43e 2a23 d83d 0df6 b53e
00000370: 3bf5 4fbe d2ae 4fbe 4f5c 653e ca67 b63e
00000380: 5709 8e3d b9b3 d7bc 6807 47bd ba8f 603e
00000390: 113a ff3d 51b2 ac3e 0d91 cdbc fa7a 113e
000003a0: 56c2 163e 80bc 773d 27cc 36bc b082 ca3d
000003b0: 2001 59be 3998 debc 417e 81be c626 62bd
000003c0: 6b02 2fbe 7b37 433c 4a5e 1d3e 6781 ad3d
000003d0: 8b23 8b3c b851 93bd 0fdf 9f3d 54f7 443e
000003e0: 5244 f53c 49c2 163c 9c1d 87be 6eca bd3d
000003f0: 103e 97be af8f 5dbd 827a 94be ac96 00be
0.13264927 0.111339 -0.26957932 -0.30675882 -0.301061 -0.19474769 0.17757371 -0.20992418
-0.32166088 0.06132561 -0.3356038 -0.33500034 0.18536064 0.0028750896 -0.12874632 -0.078575045
0.03598717 0.020706832 -0.25847802 -0.18260594 -0.24130309 0.14581394 -0.18275067 0.0018945932
-0.14432497 0.3454208 -0.17485657 -0.3310193 -0.0731886 -0.09322107 0.097708195 0.01070866
-0.17424326 -0.2465811 -0.28302053 0.16135485 0.09844793 0.013673276 -0.09906688 0.24749263
0.3536151 0.19404659 0.123299554 -0.036467984 0.15465155 -0.2960475 0.032556433 0.14988504
0.2965983 0.27384755 -0.24333173 0.14222161 0.0049001905 0.31510025 0.10392368 0.13784453
0.22896224 0.31985316 0.069457136 -0.05854749 -0.17444687 0.15965465 0.20100375 -0.16919902
-0.1671866 0.3002033 0.2608755 0.09936491 -0.09035474 0.19322667 0.15126666 0.32436493
0.104034185 0.012529999 0.053799957 0.112745166 -0.1411981 -0.20664473 -0.07952738 0.32542208
0.24566153 0.03553444 -0.18565695 -0.25325653 -0.3426618 -0.11416477 -0.21161637 -0.23827729
-0.22126564 -0.2514079 -0.3386172 -0.052618414 0.19196776 -0.18136437 -0.20450494 0.15116414
0.0014890251 -0.22626911 -0.0036867417 0.3308584 -0.096569315 0.2928262 -0.35195765 0.32757467
0.18384765 -0.21038146 -0.28530213 0.10138512 -0.24399187 0.29584658 0.037419293 0.2778596
0.15385205 0.28616765 -0.055105507 -0.07812663 0.13948354 0.1325956 -0.19342877 0.26535556
0.17666814 0.31026024 0.35394788 -0.054670613 0.038098752 0.09944135 0.18369474 -0.3199366
-0.06255183 -0.105768375 -0.08276524 0.2736072 0.19474755 0.14905033 0.23884957 0.25484645
-0.20269768 0.31474218 -0.17365584 -0.32778668 0.29826787 0.21420076 0.20107254 -0.28455594
0.089123845 -0.0990706 0.11258415 0.20747645 -0.26469827 0.1643121 -0.24723122 0.04600658
0.24084349 0.19387017 0.18416035 0.26469064 0.178283 -0.3036033 0.078707784 0.31635454
0.08207694 -0.15373771 -0.34985372 0.09524378 0.0364646 0.13114649 0.278262 0.23493907
-0.15726456 0.3358781 0.31763592 -0.23729509 -0.072181284 -0.21931896 -0.20004849 -0.08664405
0.30730024 0.19307318 -0.19041853 0.19938657 0.20756474 0.2723299 -0.18302959 -0.27120864
-0.2788872 -0.055201918 -0.0056604147 -0.30386782 -0.07307023 -0.080954224 -0.34059635 -0.2883683
0.22650614 0.32090387 0.32886273 0.34933507 -0.33827713 -0.024142653 0.3543909 0.31141987
0.07263107 0.11755136 -0.10251622 -0.16189072 0.012852813 -0.13292138 -0.16254056 -0.0042326255
0.2375451 0.12484963 -0.21343681 0.24799356 -0.06402434 -0.093561344 -0.14572194 -0.32988858
0.12969315 0.32047233 0.10553582 0.35539284 -0.20308392 -0.20281532 0.22398494 0.3562606
0.06935375 -0.026330816 -0.048591048 0.21929827 0.12462247 0.33729795 -0.02509358 0.14207068
0.14722571 0.060482502 -0.011157072 0.09888208 -0.21191835 -0.027172195 -0.25291637 -0.05521276
-0.17090766 0.011915083 0.15368 0.08471947 0.016984722 -0.07193321 0.07806217 0.19234973
0.029939804 0.009201595 -0.26389778 0.09267126 -0.29539537 -0.054092105 -0.28999716 -0.12557477

Predict/op/MatMul f4 [4, 16]
00000000: c834 3a3e 80e6 10bf d8e1 593e d07e 2e3e
00000010: b95f c0bd 54db c3be 26e8 53bd 2fe1 4abe
00000020: 2cb3 313e f2ff 293e e9b8 44be a690 023f
00000030: eec7 37be 000f e43e f084 d03c 7035 7a3d
00000040: f8b1 023f 7c65 8cbd 64d9 b1be 8c6f 02bf
00000050: b63a b23e 784c 893e e622 2a3c 78c7 903e
00000060: 7f7e 3e3e fb16 02bf 87ce b5be 4ac8 543c
00000070: 6cd0 e7be 2b03 c33d 4eb6 84be 1c89 f63e
00000080: bc5e 3f3e 07ab 303e fc26 b33e a817 323e
00000090: 4ccb 133f b873 833d f79e 953d 2de3 13be
000000a0: 489b 3a3e a0ab 25be f0a0 f43d 815f 003e
000000b0: 14fd a0be a214 563e 3b37 6bbe 106a 6e3e
000000c0: 1253 d1be 5fb0 56be 00df 96be 8ebf f43e
000000d0: 734d 6cbe fc4f e9be 3081 8cbe a6a1 043f
000000e0: 9fe6 69be 1297 25bc 4ac8 173f 1d31 e83e
000000f0: 8081 d73d a17e b1bd 45f9 013f aa79 da3e
0.18184197 -0.56601715 0.21277559 0.17040563 -0.09393258 -0.38253272 -0.051735066 -0.19812463
0.17353505 0.16601542 -0.19211163 0.51001966 -0.17947361 0.44542694 0.025454015 0.06108612
0.5105281 -0.06855294 -0.34736168 -0.5095146 0.34810418 0.26816154 0.010384297 0.28277183
0.18602942 -0.50816315 -0.3550913 0.012987206 -0.452762 0.095220886 -0.25920337 0.4815148
0.18688482 0.17252742 0.3499068 0.17391837 0.5773208 0.06418556 0.07305711 -0.1444213
0.18223298 -0.16178751 0.11944759 0.12536432 -0.31443083 0.20906308 -0.22970288 0.23282647
-0.4088369 -0.20965718 -0.2946701 0.47802395 -0.2307642 -0.45568836 -0.27442312 0.51809156
-0.22841881 -0.010106819 0.5928999 0.4534997 0.10522747 -0.08666731 0.5077098 0.42670947

Predict/layer_conv3/Conv2D i1 [32, 3, 3, 4] scale=0.0014343221 zero_point=0
00000000: 5a7d e20c 22b2 48ea 41ef 01db e5b0 d7a2
00000010: 5f6c 1523 f356 9f39 093b eb16 4517 2b59
00000020: af0b 9bb9 e2eb 4133 d0a7 5ab6 06b1 0f37
00000030: 345c 0aeb 6f28 d71c 401f 0a5c 41aa 50aa
00000040: 6fe7 58b7 bd38 1f2e f921 d4f9 31d6 4eff
00000050: 68fa f0c8 00ba ffe7 354e 397f 0c48 ccaf
00000060: d1e3 1df4 6237 1ad4 3172 b137 c60a 23ba
00000070: 3e9e 3705 219e a6c9 b6b6 2b9d 6b50 2cf1
00000080: 55fc 2b58 eddb 9a24 35dd cb00 0be6 be3b
00000090: 57f2 37c3 3ded 29cf d6de 1c3e 3fa9 5209
000000a0: 3dc1 224f 15e3 2b47 da32 1ecf 5b14 dbb6
000000b0: 42da 2d3e fe00 a3bf 2fbd 15fe fd3d 101f
000000c0: d831 231d deca a3a3 0f67 0130 13a2 52c2
000000d0: 082a a634 f2eb 69be cd6f 1c1d 358c 5293
000000e0: f2a2 44ae 2c26 ced0 c05a 5645 190f e638
000000f0: 46d8 ca1e b6c5 f24a f8de 61e1 ddab e84d
0.12908898 0.17929026 -0.043029662 0.017211866 0.048766952 -0.11187712 0.103271194 -0.031555086
0.09323093 -0.024383476 0.0014343221 -0.05306992 -0.038726695 -0.114745766 -0.058807205 -0.13482627
0.1362606 0.15490678 0.030120764 0.050201274 -0.018646188 0.1233517 -0.13912924 0.08175636
0.012908899 0.084625006 -0.030120764 0.031555086 0.09896822 0.03298941 0.06167585 0.12765467
-0.11618009 0.015777543 -0.14486653 -0.10183687 -0.043029662 -0.030120764 0.09323093 0.073150426
-0.06884746 -0.12765467 0.12908898 -0.10613984 0.008605933 -0.11331145 0.021514831 0.078887716
0.07458475 0.13195764 0.014343221 -0.030120764 0.15920976 0.057372883 -0.058807205 0.040161017
0.091796614 0.044463985 0.014343221 0.13195764 0.09323093 -0.1233517 0.114745766 -0.1233517
0.15920976 -0.035858054 0.12622035 -0.10470551 -0.09609958 0.080322035 0.044463985 0.06597882
-0.010040254 0.04733263 -0.06311017 -0.010040254 0.07028178 -0.060241528 0.11187712 -0.0014343221
0.1491695 -0.008605933 -0.022949154 -0.080322035 0.0 -0.10040255 -0.0014343221 -0.035858054
0.07601907 0.11187712 0.08175636 0.1821589 0.017211866 0.103271194 -0.07458475 -0.11618009
-0.06741314 -0.04159534 0.04159534 -0.017211866 0.14056356 0.078887716 0.037292376 -0.06311017
0.07028178 0.16351272 -0.11331145 0.078887716 -0.08319068 0.014343221 0.050201274 -0.10040255
0.08892797 -0.14056356 0.078887716 0.0071716104 0.04733263 -0.14056356 -0.12908898 -0.078887716
-0.10613984 -0.10613984 0.06167585 -0.14199789 0.15347247 0.114745766 0.06311017 -0.021514831
0.12191738 -0.0057372884 0.06167585 0.12622035 -0.027252119 -0.05306992 -0.14630085 0.051635597
0.07601907 -0.050201274 -0.07601907 0.0 0.015777543 -0.037292376 -0.09466526 0.084625006
0.12478602 -0.020080509 0.078887716 -0.08749365 0.08749365 -0.027252119 0.058807205 -0.07028178
-0.060241528 -0.048766952 0.040161017 0.08892797 0.090362296 -0.12478602 0.11761441 0.012908899
0.08749365 -0.090362296 0.048766952 0.11331145 0.030120764 -0.04159534 0.06167585 0.10183687
-0.054504238 0.07171611 0.043029662 -0.07028178 0.13052331 0.028686441 -0.05306992 -0.10613984
0.09466526 -0.054504238 0.06454449 0.08892797 -0.0028686442 0.0 -0.13339196 -0.09323093
0.06741314 -0.09609958 0.030120764 -0.0028686442 -0.0043029664 0.08749365 0.022949154 0.044463985
-0.057372883 0.07028178 0.050201274 0.04159534 -0.048766952 -0.07745339 -0.13339196 -0.13339196
0.021514831 0.14773518 0.0014343221 0.06884746 0.027252119 -0.13482627 0.11761441 -0.08892797
0.011474577 0.060241528 -0.12908898 0.07458475 -0.020080509 -0.030120764 0.15060382 -0.09466526
-0.073150426 0.15920976 0.040161017 0.04159534 0.07601907 -0.16638136 0.11761441 -0.1563411
-0.020080509 -0.13482627 0.097533904 -0.11761441 0.06311017 0.054504238 -0.07171611 -0.06884746
-0.091796614 0.12908898 0.1233517 0.09896822 0.035858054 0.021514831 -0.037292376 0.080322035
0.10040255 -0.057372883 -0.07745339 0.043029662 -0.10613984 -0.084625006 -0.020080509 0.10613984
-0.011474577 -0.048766952 0.13912924 -0.044463985 -0.050201274 -0.12191738 -0.03442373 0.1104428

Predict/layer_conv4/Conv2D i1 [64, 3, 3, 32] scale=0.0012056613 zero_point=0
00000000: 280f fd29 09ed bd0c b021 0420 d8e6 160b
00000010: 1cce 1ce1 c21d 113c 16e6 c703 2bfb 1bc8
00000020: 49e7 f3f8 2df4 20c9 bc20 cbc1 2135 d8e0
00000030: 4c24 f8f8 dc0e 1121 a7c2 dadc c6d7 1418
00000040: e701 3be6 f3fd f10c 2435 dfc3 d638 3ce5
00000050: 10bc 1ab4 e1d2 1632 a40a 35e2 1e01 3dda
00000060: 384b 033c 4026 1c1f c70b 24e1 27f4 151a
00000070: 20fb e81e 242b 1506 23cd c8de fb0a 32cc
00000080: 0d32 3cec 27d2 e8bb f230 d0ee 10e1 1d1f
00000090: 3dce d3ef 2f1d 311a f0fc 16b1 d2cc e7e3
000000a0: 2bff 09e2 f80d d4d0 bacb d218 d0f6 22cc
000000b0: 1def c629 d93e 1b48 e51f 1ff6 c9d0 0808
000000c0: f8e7 21ea ef1e 3a0c 1604 3947 c6bc 2bf1
000000d0: 33f0 d439 38f3 e7d6 15cd e2f1 c407 dc28
000000e0: f934 2901 19b6 40ed c81b 4448 04b7 1002
000000f0: 34ce 16c6 c1c8 ea0b 30e5 bc24 e41c 2111
0.048226453 0.018084921 -0.003616984 0.049432114 0.010850952 -0.022907566 -0.08077931 0.014467936
-0.09645291 0.039786823 0.0048226453 0.038581163 -0.048226453 -0.031347193 0.02652455 0.013262275
0.033758517 -0.060283065 0.033758517 -0.037375502 -0.074751005 0.034964178 0.020496242 0.072339684
0.02652455 -0.031347193 -0.068722695 0.003616984 0.05184344 -0.0060283067 0.032552857 -0.067517035
0.08801328 -0.030141532 -0.015673596 -0.009645291 0.05425476 -0.014467936 0.038581163 -0.066311374
-0.08198497 0.038581163 -0.06390005 -0.075956665 0.039786823 0.06390005 -0.048226453 -0.038581163
0.091630265 0.043403808 -0.009645291 -0.009645291 -0.043403808 0.016879259 0.020496242 0.039786823
-0.10730386 -0.074751005 -0.045815133 -0.043403808 -0.069928356 -0.049432114 0.024113227 0.028935872
-0.030141532 0.0012056613 0.071134016 -0.031347193 -0.015673596 -0.003616984 -0.018084921 0.014467936
0.043403808 0.06390005 -0.039786823 -0.073545344 -0.050637774 0.067517035 0.072339684 -0.032552857
0.019290581 -0.08198497 0.031347193 -0.091630265 -0.037375502 -0.055460423 0.02652455 0.060283065
-0.11092085 0.012056613 0.06390005 -0.036169842 0.036169842 0.0012056613 0.073545344 -0.045815133
0.067517035 0.0904246 0.003616984 0.072339684 0.077162325 0.045815133 0.033758517 0.037375502
-0.068722695 0.013262275 0.043403808 -0.037375502 0.047020793 -0.014467936 0.025318887 0.031347193
0.038581163 -0.0060283067 -0.028935872 0.036169842 0.043403808 0.05184344 0.025318887 0.007233968
0.042198148 -0.06148873 -0.067517035 -0.040992483 -0.0060283067 0.012056613 0.060283065 -0.062694386
0.015673596 0.060283065 0.072339684 -0.024113227 0.047020793 -0.055460423 -0.028935872 -0.083190635
-0.016879259 0.057871744 -0.057871744 -0.021701904 0.019290581 -0.037375502 0.034964178 0.037375502
0.073545344 -0.060283065 -0.05425476 -0.020496242 0.056666084 0.034964178 0.059077404 0.031347193
-0.019290581 -0.0048226453 0.02652455 -0.09524725 -0.055460423 -0.062694386 -0.030141532 -0.034964178
0.05184344 -0.0012056613 0.010850952 -0.036169842 -0.009645291 0.015673596 -0.0530491 -0.057871744
-0.084396295 -0.06390005 -0.055460423 0.028935872 -0.057871744 -0.012056613 0.040992483 -0.062694386
0.034964178 -0.020496242 -0.069928356 0.049432114 -0.047020793 0.074751005 0.032552857 0.086807616
-0.032552857 0.037375502 0.037375502 -0.012056613 -0.066311374 -0.057871744 0.009645291 0.009645291
-0.009645291 -0.030141532 0.039786823 -0.02652455 -0.020496242 0.036169842 0.069928356 0.014467936
0.02652455 0.0048226453 0.068722695 0.085601956 -0.069928356 -0.08198497 0.05184344 -0.018084921
0.06148873 -0.019290581 -0.0530491 0.068722695 0.067517035 -0.015673596 -0.030141532 -0.050637774
0.025318887 -0.06148873 -0.036169842 -0.018084921 -0.072339684 0.008439629 -0.043403808 0.048226453
-0.008439629 0.062694386 0.049432114 0.0012056613 0.030141532 -0.08921894 0.077162325 -0.022907566
-0.067517035 0.032552857 0.08198497 0.086807616 0.0048226453 -0.08801328 0.019290581 0.0024113227
0.062694386 -0.060283065 0.02652455 -0.069928356 -0.075956665 -0.067517035 -0.02652455 0.013262275
0.057871744 -0.032552857 -0.08198497 0.043403808 -0.033758517 0.033758517 0.039786823 0.020496242

Predict/layer_conv5/Conv2D i1 [128, 3, 3, 64] scale=0.0009043553 zero_point=0
00000000: 2304 1615 e9e4 31ef 07b8 fde7 f0e6 311d
00000010: 42ca f826 dbdc c503 230d 3ee4 1f06 f32c
00000020: 1ede dfce 33fc c4d3 0aeb 1ccd eac7 cebb
00000030: 272c f83b cf08 d3e4 fa2b f8da 033a 04c4
00000040: 34eb e204 001c 26fc d123 b7e3 ccd8 3244
00000050: f4cd e922 e80e 263b 2d38 083d 3738 c7e6
00000060: 29bd 40fa 22f0 e362 4044 47fb e83f 130a
00000070: 365b 4556 ecc2 bc26 f1c6 3dcc 2213 ff4a
00000080: 2fd7 3f16 1824 2b28 f510 3827 2b43 1ad5
00000090: ea30 1853 d543 0114 eff9 5b1f 44df 330e
000000a0: 392e 3cf9 571b 3aff f91c ed06 e9f4 28d7
000000b0: f0f8 48eb d9f2 db0c 1ecc 10f8 3745 1e43
000000c0: c718 c3d8 eb1c ba2b 0ef9 e117 14f7 40da
000000d0: ffee e835 c2f6 bfd1 2d3b cfee c710 2c11
000000e0: ecd0 3efb cbcd e9c4 e9d8 d821 0cde 00ea
000000f0: edd4 dcef 30d4 1927 c0f0 25da 1407 2302
0.031652436 0.0036174213 0.019895816 0.018991461 -0.020800171 -0.02532195 0.044313412 -0.01537404
0.0063304873 -0.06511358 -0.002713066 -0.022608884 -0.014469685 -0.023513239 0.044313412 0.026226304
0.05968745 -0.04883519 -0.0072348425 0.0343655 -0.033461146 -0.03255679 -0.053356964 0.002713066
0.031652436 0.011756619 0.05607003 -0.02532195 0.028035015 0.005426132 -0.011756619 0.039791632
0.02713066 -0.03074808 -0.029843725 -0.045217767 0.046122123 -0.0036174213 -0.05426132 -0.040695988
0.009043553 -0.018991461 0.02532195 -0.046122123 -0.019895816 -0.051548254 -0.045217767 -0.062400516
0.035269856 0.039791632 -0.0072348425 0.053356964 -0.044313412 0.0072348425 -0.040695988 -0.02532195
-0.005426132 0.038887277 -0.0072348425 -0.0343655 0.002713066 0.05245261 0.0036174213 -0.05426132
0.047026478 -0.018991461 -0.02713066 0.0036174213 0.0 0.02532195 0.0343655 -0.0036174213
-0.042504698 0.031652436 -0.06601794 -0.026226304 -0.047026478 -0.03617421 0.045217767 0.06149616
-0.010852264 -0.046122123 -0.020800171 0.03074808 -0.021704528 0.012660975 0.0343655 0.053356964
0.040695988 0.0506439 0.0072348425 0.055165675 0.049739543 0.0506439 -0.051548254 -0.023513239
0.037078567 -0.060591806 0.05787874 -0.005426132 0.03074808 -0.014469685 -0.026226304 0.088626824
0.05787874 0.06149616 0.06420923 -0.0045217765 -0.021704528 0.056974385 0.01718275 0.009043553
0.04883519 0.082296334 0.062400516 0.077774554 -0.018087106 -0.05607003 -0.06149616 0.0343655
-0.01356533 -0.05245261 0.055165675 -0.047026478 0.03074808 0.01718275 -0.0009043553 0.06692229
0.042504698 -0.037078567 0.056974385 0.019895816 0.021704528 0.03255679 0.038887277 0.03617421
-0.009947908 0.014469685 0.0506439 0.035269856 0.038887277 0.060591806 0.023513239 -0.038887277
-0.019895816 0.043409057 0.021704528 0.07506149 -0.038887277 0.060591806 0.0009043553 0.018087106
-0.01537404 -0.0063304873 0.082296334 0.028035015 0.06149616 -0.029843725 0.046122123 0.012660975
0.051548254 0.041600343 0.05426132 -0.0063304873 0.07867891 0.024417594 0.05245261 -0.0009043553
-0.0063304873 0.02532195 -0.01718275 0.005426132 -0.020800171 -0.010852264 0.03617421 -0.037078567
-0.014469685 -0.0072348425 0.06511358 -0.018991461 -0.035269856 -0.012660975 -0.033461146 0.010852264
0.02713066 -0.047026478 0.014469685 -0.0072348425 0.049739543 0.062400516 0.02713066 0.060591806
-0.051548254 0.021704528 -0.055165675 -0.03617421 -0.018991461 0.02532195 -0.06330487 0.038887277
0.012660975 -0.0063304873 -0.028035015 0.020800171 0.018087106 -0.008139198 0.05787874 -0.0343655
-0.0009043553 -0.016278395 -0.021704528 0.047930833 -0.05607003 -0.009043553 -0.058783095 -0.042504698
0.040695988 0.053356964 -0.044313412 -0.016278395 -0.051548254 0.014469685 0.039791632 0.01537404
-0.018087106 -0.043409057 0.05607003 -0.0045217765 -0.047930833 -0.046122123 -0.020800171 -0.05426132
-0.020800171 -0.03617421 -0.03617421 0.029843725 0.010852264 -0.03074808 0.0 -0.019895816
-0.01718275 -0.039791632 -0.03255679 -0.01537404 0.043409057 -0.039791632 0.022608884 0.035269856
-0.05787874 -0.014469685 0.033461146 -0.0343655 0.018087106 0.0063304873 0.031652436 0.0018087106
