v3/DWT_Recons_L7_TFLite_Quantized.tflite (tflite, 907792 bytes, 12 tensors)

Predict/fc0/BiasAdd/ReadVariableOp/resource f4 [32]
-0.0003162116 -0.0006277071 -0.0005989425 -0.0003196874 0.00038438063 -0.00031581815 -0.00031622202 0.0017512239
-0.0003159762 -0.00031620293 0.0013564713 -0.00053931447 0.001161999 6.7579094e-08 -0.005695014 -0.006255864
0.0153662 0.015284293 -0.008007126 -0.0003162179 0.009723125 -0.00029982027 -0.00081134756 -0.0006322977
-0.00031620843 -0.014551052 -0.014805883 0.0 0.0101655 0.015253625 -0.00031621536 -0.0005710034
00000000: 34c9 a5b9 b68c 24ba 5a02 1dba b79b a7b9
00000010: b286 c939 6594 a5b9 9aca a5b9 5389 e53a
00000020: 9ca9 a5b9 0ac8 a5b9 a0cb b13a c860 0dba
00000030: 374e 983a 0020 9133 3d9d babb fefd ccbb
00000040: 84c2 7b3c f96a 7a3c 5230 03bc 0cca a5b9
00000050: be4d 1f3c 3231 9db9 9db0 54ba c8c0 25ba
00000060: c7c8 a5b9 8967 6ebc 6094 72bc 0000 0000
00000070: 338d 263c 57ea 793c b5c9 a5b9 64af 15ba

Predict/fc1/BiasAdd/ReadVariableOp/resource f4 [16]
0.013469158 0.020315057 0.0009918971 0.0 0.013903598 -0.020415375 -0.00031622517 -0.015693814
-0.0005720729 0.005670058 -0.004179628 -0.0049154405 0.00036806765 -0.00059850793 0.0076053166 0.02417848
00000000: bead 5c3c c36b a63c 8b02 823a 0000 0000
00000010: ebcb 633c 253e a7bc 06cb a5b9 5090 80bc
00000020: 2af7 15ba e5cb b93b 43f5 88bb b411 a1bb
00000030: 34f9 c039 30e5 1cba 0536 f93b f311 c63c

Predict/layer_conv3/BiasAdd/ReadVariableOp/resource f4 [32]
-0.041825596 -0.019202448 -0.01573939 -0.008825777 0.023758024 -0.02034282 0.010203176 -0.0092923
0.008916605 -0.03251659 -0.013447869 -0.01750225 -0.03941908 -0.038066227 -0.029512472 -0.016041862
0.0072118477 0.021336023 -0.020781107 -0.020111065 0.021157915 -0.000650685 -0.029946133 -0.0053516636
-0.016490752 -0.018740715 -0.032496948 -0.010550587 -0.021300418 -0.021179395 -0.016117148 -0.02087623
00000000: 5151 2bbd 744e 9dbc e5ef 80bc fe99 10bc
00000010: 30a0 c23c fca5 a6bc 392b 273c bb3e 18bc
00000020: f416 123c 1e30 05bd 7354 5cbc e160 8fbc
00000030: e775 21bd 55eb 1bbd 24c4 f1bc 396a 83bc
00000040: 5d51 ec3b e2c8 ae3c 243d aabc f6bf a4bc
00000050: 5d53 ad3c bb92 2aba 9851 f5bc 025d afbb
00000060: 9d17 87bc 2186 99bc 851b 05bd 5fdc 2cbc
00000070: 377e aebc 6980 adbc 1c08 84bc a104 abbc

Predict/layer_conv4/BiasAdd/ReadVariableOp/resource f4 [64]
-0.019301662 -0.01758428 -0.014908891 -0.01585471 0.004958588 0.016891567 -0.010716885 0.019936534
0.0195328 0.01643557 0.023627518 -0.01884119 -0.011649479 -0.012780334 -0.004827609 0.019284712
-0.018249955 0.017670246 0.0015085465 -0.020357782 0.02373415 -0.015803488 0.010145513 -0.013906366
0.015126885 -0.01568234 -0.015969193 -0.021636361 0.022136867 0.000542149 0.021057313 7.5316595e-05
-0.015456518 0.018626051 -0.012007852 -0.018550888 0.01994949 0.009763008 0.015094622 -0.019082248
0.02116445 -0.017334795 -0.015437385 -0.017408922 -0.01260249 0.0139003275 -0.024494443 0.019850573
0.0008778572 0.00021764728 -0.0017192871 -0.015313319 -0.014366166 -0.010585562 -0.023791613 0.012155974
-0.018593209 0.015940223 -0.01565479 0.01945166 0.018562539 -0.020930463 -0.016578177 -0.024821078
00000000: 851e 9ebc e80c 90bc 6c44 74bc bde1 81bc
00000010: a77b a23b 2f60 8a3c e095 2fbc f151 a33c
00000020: 4003 a03c e3a3 863c 7f8e c13c d758 9abc
00000030: 75dd 3ebc 9b64 51bc eb30 9ebb f9fa 9d3c
00000040: ee80 95bc 31c1 903c 6cba c53a 5dc5 a6bc
00000050: 1f6e c23c 5176 81bc 5e39 263c 87d7 63bc
00000060: c1d6 773c 4078 80bc d3d1 82bc bd3e b1bc
00000070: 6058 b53c 011f 0e3a 6380 ac3c 4af3 9d38
00000080: 563d 7dbc a995 983c 95bc 44bc 08f8 97bc
00000090: 1d6d a33c 06f5 1f3c 6f4f 773c 6052 9cbc
000000a0: 1261 ad3c b301 8ebc 16ed 7cbc 289d 8ebc
000000b0: ad7a 4ebc 33be 633c 92a8 c8bc ab9d a23c
000000c0: 0020 663a 3f38 6439 b459 e1ba b7e4 7abc
000000d0: 1160 6bbc 116f 2dbc a1e6 c2bc da29 473c
000000e0: c950 98bc 1295 823c 793e 80bc 1659 9f3c
000000f0: 7710 983c 5d76 abbc f5ce 87bc 9355 cbbc

Predict/layer_conv5/BiasAdd/ReadVariableOp/resource f4 [128]
-0.010049875 -0.012090526 -0.010755783 -0.00031556003 -0.004158249 -0.011504578 0.02375009 0.015842538
0.02189919 0.0072062924 -0.010776477 0.019658756 0.02350539 0.023758402 0.021012891 0.025316173
0.022702163 -0.0055535613 0.015668493 0.020107007 0.018036883 0.022079898 0.007317995 0.021487039
0.021782096 0.017007018 -0.00890701 -0.013321584 0.0132136075 -0.014994122 0.017617512 0.022001188
-0.011223104 0.015749298 -0.015108318 -0.010790589 -0.027948035 -0.008781597 0.014748872 0.0018800156
0.00011000075 -0.0054973443 -0.016749255 -0.009561863 -0.0060108798 -0.006393012 0.020570563 -0.011163756
-0.014990801 0.020017762 0.018468412 -0.009129773 -0.010035078 0.02038002 -0.01097396 -0.0079162065
-0.009035975 -0.0048676096 0.018495249 0.0049772547 -0.0031125173 -0.017894108 -0.01155203 -0.013605405
0.019527778 0.018598905 -0.008683007 -0.013397871 0.00241557 0.0072445488 -0.01228165 -0.0016504895
-0.016473632 0.011389005 -0.008033279 0.02195532 0.01835648 0.0038826352 0.01890625 -0.013795012
0.022746854 0.02523371 -0.01332136 -0.008746003 0.022620935 -0.00720052 -0.013829024 -0.011127507
-0.008499559 0.00095475046 0.016433964 0.0057285917 0.020860707 -0.009041779 -0.0062617734 0.022827117
-0.004837488 -0.017307239 0.02090447 -0.012209303 -0.010734448 0.022096869 0.021267109 -0.010705083
0.019418724 -0.015755411 0.018108847 0.019231908 0.021959784 0.023734687 0.0069183833 -0.0010826102
0.013561752 0.0070238654 0.022015406 -0.01593628 0.0006450795 -0.0128781935 0.008428116 -0.00842811
0.023024352 -0.012784452 -0.012094352 0.022573689 -0.0019071277 -0.012764983 0.016907148 -0.013043824
00000000: 3ba8 24bc 5717 46bc 0639 30bc c071 a5b9
00000010: ec41 88bb b37d 3cbc 8c8f c23c 36c8 813c
00000020: ee65 b33c c322 ec3b d28f 30bc 660b a13c
00000030: 608e c03c fba0 c23c 3a23 ac3c dd63 cf3c
00000040: e3f9 b93c a6fa b5bb 365b 803c 73b7 a43c
00000050: 16c2 933c e7e0 b43c cbcb ef3b 9605 b03c
00000060: 5e70 b23c 4d52 8b3c b5ee 11bc c642 5abc
00000070: e37d 583c e8a9 75bc 9a52 903c d63b b43c
00000080: 1ce1 37bc ac04 813c e188 77bc 03cb 30bc
00000090: 47f3 e4bc b0e0 0fbc 41a5 713c db6a f63a
000000a0: 34b0 e638 1123 b4bb bc35 89bc 5ca9 1cbc
000000b0: eaf6 c4bb 797c d1bb 9983 a83c 30e8 36bc
000000c0: fa9b 75bc 4afc a33c 114b 973c 0b95 15bc
000000d0: 2b6a 24bc 00f4 a63c 20cc 33bc fab2 01bc
000000e0: a00b 14bc 7880 9fbb 5983 973c 3d18 a33b
000000f0: 60fb 4bbb aa96 92bc ba44 3dbc 34e9 5ebc
00000100: b8f8 9f3c bb5c 983c 2c43 0ebc be82 5bbc
00000110: 8a4e 1e3b ae63 ed3b f938 49bc 3d55 d8ba
00000120: b6f3 86bc f398 3a3c 049e 03bc a5db b33c
00000130: 5460 963c cf73 7e3b 48e1 9a3c 7904 62bc
00000140: 9c57 ba3c edb6 ce3c d541 5abc 654b 0fbc
00000150: 8a4f b93c 57f2 ebbb 2193 62bc 2650 36bc
00000160: bc41 0bbc 3848 7a3a 85a0 863c e9b6 bb3b
00000170: 13e4 aa3c f823 14bc 902f cdbb efff ba3c
00000180: ca83 9ebb e9c7 8dbc da3f ab3c 8709 48bc
00000190: 8adf 2fbc 7e04 b53c 5c38 ae3c 5f64 2fbc
000001a0: 0414 9f3c 7e11 81bc 0159 943c 3c8c 9d3c
000001b0: 01e5 b33c 3f6f c23c 9bb3 e23b 5fe6 8dba
000001c0: 1c32 5e3c 7428 e63b a759 b43c cd8c 82bc
000001d0: 8d1a 293a 0fff 52bc 1516 0a3c 0e16 0abc
000001e0: 919d bc3c e175 51bc 6427 46bc 75ec b83c
000001f0: 96f8 f9ba 3824 51bc dc80 8a3c c3b5 55bc

Predict/op/BiasAdd/ReadVariableOp/resource f4 [4]
0.00087529595 -0.024707465 0.013776401 0.018194815
00000000: 1e74 653a 4f67 cabc 6ab6 613c 4b0d 953c

Predict/fc0/MatMul i1 [32, 25088] scale=0.0005592723 zero_point=0
-0.0151003525 -0.015659625 -0.015659625 -0.0011185446 -0.0005592723 -0.006711268 0.006711268 0.005592723
-0.010066901 0.008948357 0.0151003525 -0.010066901 0.011744718 0.0044741784 0.0005592723 0.013422536
-0.0151003525 -0.011744718 -0.003355634 0.001677817 0.010066901 0.0151003525 -0.00727054 0.013422536
0.0011185446 0.013981808 0.0022370892 0.003355634 0.0044741784 -0.01230399 0.0151003525 0.009507629
0.003355634 0.013981808 0.0044741784 0.007829812 -0.0005592723 -0.0005592723 -0.008948357 -0.01230399
-0.008389085 -0.008389085 -0.012863263 0.01454108 0.011185446 0.006711268 -0.005592723 -0.0022370892
-0.001677817 -0.010626174 0.008948357 0.0050334507 0.003914906 0.001677817 -0.0022370892 0.005592723
-0.0050334507 -0.006151995 0.012863263 0.0005592723 -0.012863263 -0.015659625 0.0050334507 0.00727054
0.0151003525 0.008389085 -0.013981808 -0.008389085 0.008389085 0.006711268 -0.013981808 0.006151995
-0.015659625 0.007829812 -0.010626174 0.003355634 0.003914906 -0.006151995 -0.010066901 -0.0011185446
0.013981808 -0.012863263 -0.003914906 0.00727054 -0.006711268 -0.0022370892 -0.0027963615 0.009507629
-0.003914906 -0.010066901 0.0027963615 -0.00727054 0.008948357 -0.006151995 -0.00727054 0.0011185446
-0.005592723 -0.010066901 -0.013981808 0.005592723 -0.0005592723 -0.006151995 0.01230399 -0.0044741784
-0.010066901 0.0050334507 -0.008948357 -0.009507629 -0.0011185446 0.011744718 -0.007829812 -0.0005592723
-0.006151995 -0.008389085 0.01230399 -0.013422536 -0.008948357 0.006151995 -0.013422536 0.0044741784
0.01454108 0.0044741784 0.010066901 0.0022370892 0.0050334507 0.0022370892 -0.0027963615 -0.010626174
0.01454108 0.003914906 -0.010066901 -0.001677817 0.0050334507 0.0027963615 -0.0011185446 -0.001677817
0.010626174 -0.006151995 -0.012863263 0.008389085 0.00727054 -0.008948357 0.008948357 -0.001677817
-0.010626174 0.0011185446 -0.012863263 -0.013981808 -0.005592723 0.012863263 0.009507629 0.015659625
0.0027963615 0.006151995 -0.00727054 0.007829812 0.010066901 -0.0022370892 -0.0005592723 -0.011744718
0.0050334507 0.001677817 0.010626174 -0.013981808 -0.003914906 -0.009507629 0.0011185446 -0.011185446
-0.01230399 -0.005592723 -0.008389085 -0.001677817 -0.0011185446 -0.003355634 -0.009507629 -0.006151995
-0.010066901 -0.003914906 -0.0022370892 -0.008948357 -0.006151995 0.012863263 -0.015659625 -0.005592723
0.006151995 -0.007829812 -0.01454108 0.011185446 0.009507629 0.0044741784 0.0151003525 0.009507629
-0.001677817 -0.006151995 -0.00727054 0.009507629 0.009507629 0.011185446 -0.003355634 -0.012863263
-0.011744718 0.0 -0.012863263 -0.013981808 0.007829812 -0.010626174 -0.003914906 -0.009507629
0.0151003525 -0.006151995 0.006151995 -0.01230399 0.001677817 0.013981808 0.012863263 0.011744718
0.013981808 -0.013422536 0.006711268 0.0050334507 0.0005592723 0.003914906 -0.01454108 -0.00727054
-0.0022370892 0.0005592723 -0.001677817 0.0005592723 -0.0005592723 0.01230399 0.011744718 0.00727054
-0.001677817 0.006151995 0.003355634 -0.005592723 -0.0044741784 0.01230399 -0.0027963615 -0.0050334507
0.011185446 -0.008948357 -0.001677817 0.011744718 0.0005592723 0.009507629 0.005592723 -0.008948357
-0.006711268 -0.008948357 0.011185446 -0.009507629 0.010066901 0.0044741784 0.009507629 -0.001677817
00000000: e5e4 e4fe fff4 0c0a ee10 1bee 1508 0118
00000010: e5eb fa03 121b f318 0219 0406 08ea 1b11
00000020: 0619 080e ffff f0ea f1f1 e91a 140c f6fc
00000030: fded 1009 0703 fc0a f7f5 1701 e9e4 090d
00000040: 1b0f e7f1 0f0c e70b e40e ed06 07f5 eefe
00000050: 19e9 f90d f4fc fb11 f9ee 05f3 10f5 f302
00000060: f6ee e70a fff5 16f8 ee09 f0ef fe15 f2ff
00000070: f5f1 16e8 f00b e808 1a08 1204 0904 fbed
00000080: 1a07 eefd 0905 fefd 13f5 e90f 0df0 10fd
00000090: ed02 e9e7 f617 111c 050b f30e 12fc ffeb
000000a0: 0903 13e7 f9ef 02ec eaf6 f1fd fefa eff5
000000b0: eef9 fcf0 f517 e4f6 0bf2 e614 1108 1b11
000000c0: fdf5 f311 1114 fae9 eb00 e9e7 0eed f9ef
000000d0: 1bf5 0bea 0319 1715 19e8 0c09 0107 e6f3
000000e0: fc01 fd01 ff16 150d fd0b 06f6 f816 fbf7
000000f0: 14f0 fd15 0111 0af0 f4f0 14ef 1208 11fd

Predict/fc1/MatMul f4 [16, 32]
-0.00522281 0.34994593 0.23519291 -0.08978431 -0.32667258 -0.14209287 0.32774904 -0.07267156
-0.32881522 -0.35110575 -0.14438745 0.11577342 -0.2671759 0.25311086 0.21324916 0.35313782
-0.05669249 0.19878389 -0.15079448 -0.23267514 0.24125364 0.28782785 0.14716639 -0.18105039
-0.08430979 0.12582701 -0.18183896 -0.253891 0.2636451 -0.115963794 -0.16093682 0.2065405
-0.10647162 -0.08103985 -0.0056016236 -0.27230197 0.3203268 -0.09900412 -0.31545252 0.24914251
0.34482783 0.101764336 -0.34348252 -0.2896979 0.28190896 0.16086882 0.016555496 0.100390725
0.07553765 -0.19467646 0.039482236 0.071389385 0.21439296 0.046358373 -0.27209017 0.20890889
0.26214212 -0.31901112 0.2950674 -0.12333955 0.023445792 0.2437907 0.099647455 -0.2195236
0.092320144 0.11702658 -0.126079 0.014818264 -0.2554229 -0.2686472 0.14447197 -0.15345852
-0.20379156 0.10424128 0.013918301 -0.2671601 -0.18720622 -0.27344653 0.22871374 -0.00866756
0.0755489 -0.34825942 0.21186204 0.19699052 -0.024229152 -0.3412851 0.13595127 -0.06431633
0.10664466 -0.33346206 0.0009995385 -0.29494616 -0.17441896 0.29186544 0.11247472 0.32907262
-0.27815706 0.21352443 0.17572615 0.32079503 0.10160223 0.086022645 0.13812247 -0.23101808
0.2504675 -0.31977352 0.08080724 -0.32057828 -0.2204028 0.31405553 -0.0114376545 -0.07303232
0.14064115 -0.33027914 -0.17502625 0.27522138 -0.14030391 -0.2796231 0.1382469 0.0022047758
-0.1228756 -0.07004318 -0.3373921 0.19128522 -0.15811719 -0.16728118 0.23846874 -0.14063981
-0.20259994 -0.2684644 0.2909442 -0.24377279 -0.2580721 0.100539476 0.24284598 -0.11274484
-0.22130093 -0.33734643 -0.20702404 0.31511822 0.010692449 -0.15934692 0.32711965 0.0374791
0.012994082 0.24483289 -0.23185857 0.10219411 0.14072938 0.03770235 -0.13776146 0.29805356
-0.28136352 0.0032321212 0.051885862 0.09262249 0.30206442 0.33116594 0.22060177 -0.056194685
-0.31243023 0.07907253 -0.06436178 0.34765923 0.054194253 -0.01677384 -0.22543007 -0.18475614
-0.06600345 0.2432308 -0.2786704 0.057083946 -0.03204394 -0.2397863 0.23755442 0.2856315
-0.15817358 -0.23488405 -0.19637765 0.15511426 0.17360055 0.28006318 0.2776799 0.020826165
0.3094627 -0.10823242 0.33323416 0.25348684 0.091724224 -0.05673828 -0.0372773 0.20715432
-0.12081942 -0.2082326 0.18980394 -0.24066971 -0.29514244 -0.13280998 -0.08290294 -0.00634858
-0.1640357 -0.2379649 -0.3238758 0.29795787 -0.14892632 0.24511206 -0.34044102 0.12884703
-0.30478454 0.03764084 0.13003492 -0.048809472 -0.117770486 -0.21125214 0.3275932 0.19446006
0.28208044 -0.16929701 0.048889317 -0.10642062 -0.06967254 0.29723564 0.3117166 0.021499563
0.007190968 0.33180448 0.09559663 0.10536821 -0.017065981 -0.20141633 0.16556537 -0.06399241
-0.31536478 -0.26605365 0.2332324 0.13856998 -0.16704355 0.28176358 0.1501347 0.3220453
-0.2360263 -0.24472688 0.35223877 0.09249985 0.13315506 -0.15833335 -0.035254795 -0.31796002
-0.045442954 0.35862142 0.13924478 0.22134909 0.14100417 -0.23330785 -0.11983916 0.31668273
00000000: 1b24 abbb 1d2c b33e 69d6 703e d6e0 b7bd
00000010: a141 a7be cb80 11be b9ce a73e d4d4 94bd
00000020: 785a a8be 22c4 b3be 4eda 13be 9d1a ed3d
00000030: 48cb 88be bf97 813e fd5d 5a3e 7bce b43e
00000040: 6236 68bd 018e 4b3e de69 1abe 6442 6ebe
00000050: 320b 773e 2c5e 933e c9b2 163e 4665 39be
00000060: 9caa acbd ccd8 003e fe33 3abe 00fe 81be
00000070: 7efc 863e 6d7e edbd 9fcc 24be 5a7f 533e
00000080: cb0d dabd 39f8 a5bd d38d b7bb 2a6b 8bbe
00000090: e001 a43e acc2 cabd fe82 a1be 371f 7f3e
000000a0: 468d b03e d269 d03d f1dc afbe 4853 94be
000000b0: 5f56 903e ccba 243e 649f 873c a799 cd3d
000000c0: 7cb3 9a3d 4459 47be 20b8 213d 9934 923d
000000d0: d489 5b3e 47e2 3d3d 674f 8bbe 36ec 553e
000000e0: 7e37 863e 6d55 a3be 1313 973e 7299 fcbd
000000f0: 6411 c03c 45a4 793e f713 cc3d cbca 60be
00000100: 5812 bd3d a2ab ef3d da1a 01be 4ec8 723c
00000110: cac6 82be 208c 89be 76f0 133e 3b24 1dbe
00000120: bcae 50be 747c d53d 9609 643c 35c9 88be
00000130: fdb2 3fbe 2f01 8cbe ef33 6a3e 6202 0ebc
00000140: 62b9 9a3d 0f4f b2be 5df2 583e e2b7 493e
00000150: 377c c6bc ecbc aebe cf36 0b3e 48b8 83bd
00000160: 8468 da3d 8abb aabe f202 833a 2f03 97be
00000170: e29a 32be 636f 953e 2559 e63d 357c a83e
00000180: 9a6a 8ebe 26a6 5a3e 8ef1 333e 3f3f a43e
00000190: d414 d03d a42c b03d fa6f 0d3e 0190 6cbe
000001a0: 473d 803e 5bb9 a3be 447e a53d d622 a4be
000001b0: 46b1 61be e3cb a03e 0065 3bbc f891 95bd
000001c0: 3c04 103e 591a a9be 153a 33be d1e9 8c3e
000001d0: d4ab 0fbe c22a 8fbe 9890 0d3e 007e 103b
000001e0: 34a6 fbbd cc72 8fbd a8be acbe 46e0 433e
000001f0: 79e9 21be c24b 2bbe 2631 743e e203 10be
00000200: 5c76 4fbe 2a74 89be a3f6 943e 939f 79be
00000210: 0722 84be a4e7 cd3d 9eac 783e c4e6 e6bd
00000220: b69c 62be acb8 acbe 1cfe 53be 2d57 a13e
00000230: 622f 2f3c d72b 23be 3a7c a73e af83 193d
00000240: 21e5 543c 79b5 7a3e 556c 6dbe 254b d13d
00000250: 5d1b 103e c86d 1a3d 5711 0dbe 7a9a 983e
00000260: e10e 90be ffd1 533b 4586 543d dcb0 bd3d
00000270: 30a8 9a3e 958e a93e 6ee5 613e 662c 66bd
00000280: dbf6 9fbe c7f0 a13d 1cd0 83bd 6400 b23e
00000290: cbfa 5d3d 4b69 89bc 24d7 66be b730 3dbe
000002a0: d12c 87bd 7f11 793e e3ad 8ebe dbd0 693d
000002b0: 8240 03bd 8a8a 75be 7741 733e 4b3e 923e
000002c0: 41f8 21be 7285 70be 3917 49be 46d6 1e3e
000002d0: 58c4 313e 7164 8f3e 0f2c 8e3e a29b aa3c
000002e0: e571 9e3e f6a8 ddbd ab9d aa3e 07c9 813e
000002f0: e9d9 bb3d 6666 68bd 15b0 18bd 4320 543e
00000300: 2c70 f7bd ed3a 55be f75b 423e 1f72 76be
00000310: e91c 97be 57ff 07be 04c9 a9bd c007 d0bb
00000320: f9f8 27be 12ad 73be 0dd3 a5be ef8d 983e
00000330: 2480 18be a8fe 7a3e 494e aebe 7af0 033e
00000340: b80c 9cbe 482d 1a3d e027 053e 71ec 47bd
00000350: a731 f1bd 7b52 58be 4cba a73e 8a20 473e
00000360: d96c 903e 325c 2dbe 2a40 483d 0ef3 d9bd
00000370: 7ab0 8ebd 452f 983e 5199 9f3e da1f b03c
00000380: 36a2 eb3b 47e2 a93e 2ac8 c33d 4acb d73d
00000390: f5cd 8bbc 1540 4ebe f889 293e 740e 83bd
000003a0: 7e77 a1be 2f38 88be 79d4 6e3e 4ae5 0d3e
000003b0: 770d 2bbe 5143 903e e9bc 193e 1fe3 a43e
000003c0: e1b0 71be af99 7abe a458 b43e 9070 bd3d
000003d0: cd59 083e 2322 22be 5567 10bd a8cb a2be
000003e0: 6422 3abd 3a9d b73e 2f96 0e3e 56a9 623e
000003f0: 6663 103e 41e8 6ebe 3c6e f5bd 3d24 a23e

Predict/op/MatMul f4 [4, 16]
-0.08348347 -0.3140571 -0.17372604 -0.41166872 0.14320917 -0.40200603 -0.05274892 0.036299612
0.16469273 0.16451913 -0.25833783 0.242629 -0.25826243 -0.2566879 0.42034855 0.40108675
0.40850112 -0.29482317 -0.5363095 -0.078611284 0.22383419 0.4068627 -0.24224333 0.073207006
-0.06770721 -0.34603104 0.13924436 -0.15661564 0.0030855238 -0.2874269 -0.49858302 0.34766105
0.29873905 -0.13922669 0.18811524 0.12790287 0.43104103 -0.22581014 0.5342111 -0.38907927
-0.53798556 -0.0406224 0.028117206 -0.19205017 0.27490625 0.27338353 -0.2313026 0.46772698
-0.5844122 0.35268554 -0.19991349 0.47649443 -0.5580202 -0.41258416 -0.10273901 -0.39225376
0.07887197 -0.10970347 -0.37874785 -0.35137564 0.34476778 -0.19084537 -0.5031676 0.49634776
00000000: 62f9 aabd 18cc a0be 3de5 31be 3ec6 d2be
00000010: 6da5 123e bcd3 cdbe 400f 58bd e7ae 143d
00000020: 36a5 283e b477 283e db44 84be bd73 783e
00000030: f93a 84be 996c 83be ed37 d73e 3e5b cd3e
00000040: 0f27 d13e 10f3 96be 944b 09bf f4fe a0bd
00000050: ca34 653e 4f50 d03e a30e 78be 8eed 953d
00000060: 14aa 8abd fb2a b1be 1396 0e3e da5f 20be
00000070: 8036 4a3b 9e29 93be 4646 ffbe a100 b23e
00000080: 53f4 983e 7191 0ebe 48a1 403e f8f8 023e
00000090: 69b1 dc3e c63a 67be 0fc2 083f 6635 c7be
000000a0: 6cb9 09bf ac63 26bd 0e56 e63c cda8 44be
000000b0: 83c0 8c3e edf8 8b3e 97da 6cbe e979 ef3e
000000c0: 0a9c 15bf 3393 b43e 1fb6 4cbe 14f7 f33e
000000d0: 69da 0ebf 3b3e d3be d468 d2bd 7cd5 c8be
000000e0: a187 a13d 36ac e0bd 3deb c1be 82e7 b3be
000000f0: 6785 b03e f86c 43be 98cf 00bf 4b21 fe3e

Predict/layer_conv3/Conv2D f4 [32, 3, 3, 1]
0.04443236 0.11697938 0.06516007 0.13709779 -0.08727613 0.13867188 -0.014193051 -0.029699499
0.160695 0.050446074 -0.008535112 0.09303819 0.09918069 0.10237368 0.08556443 0.08720814
-0.051059227 0.12880361 -0.13587922 -0.10975864 -0.049684376 -0.10406984 0.024517914 0.054313645
-0.0046039284 -0.0066794707 -0.11255057 0.16374373 0.0450192 -0.020909743 0.16462776 -0.1036307
-0.094704926 0.06737132 0.017615318 0.1486389 -0.10327949 0.09761849 0.0049817553 -0.06997163
-0.08997648 0.019633196 0.043196198 0.042018626 0.061732374 -0.028160963 0.07060347 -0.07096202
-0.12005981 -0.118859366 0.011322157 -0.015733503 -0.12368705 -0.06722495 0.08273938 -0.13334894
-0.074163325 -0.1052439 -0.1308786 0.13205814 -0.014803162 0.003954522 0.041895766 -0.101938196
0.12837869 0.107781716 -0.11033155 0.00018900231 0.17381024 0.032980736 -0.012396163 0.17471896
-0.09083993 -0.101015516 0.12932551 -0.11947977 -0.04598158 0.0945875 0.12574343 -0.018496806
0.109926835 0.1679459 0.1742315 0.09176036 0.05346925 0.07565672 0.00024194419 0.1842482
0.14883503 0.0906632 -0.11855616 -0.06958863 -0.11896647 0.058408502 0.104886785 -0.12133637
0.023505034 -0.060464244 0.029301409 0.042622562 -0.13820983 0.10296154 0.055271532 0.028031461
-0.11383995 -0.0017864112 -0.13082334 -0.015894886 -0.08592456 0.11955072 -0.03447303 0.17024738
-0.063701436 -0.071622655 0.1060205 0.12839518 0.020611914 0.17155078 0.07759089 -0.027744438
0.06998214 0.14049314 0.051308565 0.18884939 -0.039891142 0.1132446 0.13908565 0.037915997
0.15988387 0.089919806 0.008743598 0.09634678 0.08590171 0.11674243 -0.010219171 0.004053244
-0.1040865 -0.012697045 -0.12220086 -0.06025305 0.06119484 -0.049407598 -0.06591309 -0.1109463
0.029309627 -0.051239487 0.031076854 -0.0059737684 0.13592246 -0.07718208 0.013521403 0.019137314
-0.011206389 -0.11533329 0.019314041 0.013573868 0.05811519 -0.022422154 0.07054332 -0.071569756
-0.037114326 0.078531936 -0.00890716 0.07796104 0.0766759 0.041411646 0.15975848 -0.08947327
0.052978892 0.15276101 0.1425895 0.12925188 -0.005231512 -0.06239808 0.0016473467 -0.11465544
0.13836175 -0.033447213 0.0036999756 -0.13807106 0.012261638 0.1029943 -0.0063327444 0.04699004
-0.03209818 0.034985464 -0.110323526 -0.12408453 0.097406365 0.0957517 -0.10149655 0.14620243
-0.009021753 0.13182488 -0.06357884 -0.14286837 0.13055435 0.06403865 0.12957385 0.118356906
-0.044214875 -0.09018463 0.12089119 0.015853975 0.10089492 0.13043226 0.019798148 -0.08156356
-0.069147386 -0.11661232 0.04359552 -0.045255728 -0.08834327 -0.063913256 0.13400759 0.07967368
0.13854076 0.0040717004 -0.107590936 -0.061655756 -0.03804252 -0.12786333 -0.11708059 0.12420369
-0.0876668 0.082383335 -0.09029217 0.16533554 -0.13655281 -0.00088460767 0.03805441 -0.073611304
0.12086954 0.11104172 0.13152495 0.06422806 0.17825542 0.10010298 0.1390471 0.14022751
0.09404163 0.10883337 -0.07599455 -0.08333439 0.040996555 0.09420632 -0.013001345 -0.03596958
-0.053675175 0.03380584 -0.06683836 -0.044661008 0.0020752873 0.19166799 0.17813033 0.12719661
00000000: b5fe 353d e392 ef3d a572 853d 5d63 0c3e
00000010: d4bd b2bd 0000 0e3e f889 68bc 5d4c f3bc
00000020: 3b8d 243e 8ba0 4e3d dbd6 0bbc ce8a be3d
00000030: 3f1f cb3d 4ba9 d13d 673c af3d 2e9a b23d
00000040: 7b23 51bd 18e5 033e ec23 0bbe 23c9 e0bd
00000050: d881 4bbd 9122 d5bd cbd9 c83c fc77 5e3d
00000060: 8ddc 96bb 76df dabb ea80 e6bd 70ac 273e
00000070: 0d66 383d e94a abbc 2e94 283e 553c d4bd
00000080: a8f4 c1bd faf9 893d 004e 903c cc34 183e
00000090: 3284 d3bd 34ec c73d fe3d a33b 494d 8fbd
000000a0: 9745 b8bd ccd5 a03c 7fee 303d b91b 2c3d
000000b0: 16db 7c3d d2b1 e6bc 8d98 903d 8954 91bd
000000c0: ebe1 f5bd 8a6c f3bd 9280 393c 8ce3 80bc
000000d0: a34f fdbd 3cad 89bd 4473 a93d a08c 08be
000000e0: f1e2 97bd 1d8a d7bd 0a05 06be 403a 073e
000000f0: f688 72bc ef94 813b e59a 2b3d f9c4 d0bd
00000100: b475 033e a9bc dc3d 82f5 e1bd ec2e 4639
00000110: 50fb 313e cf16 073d 4719 4bbc 87e9 323e
00000120: 490a babd 39e1 cebd e86d 043e cfb1 f4bd
00000130: 2e57 3cbd 17b7 c13d e3c2 003e 9d86 97bc
00000140: 5221 e13d 03fa 2b3e be69 323e dbec bb3d
00000150: 9302 5b3d e9f1 9a3d 66b2 7d39 8fab 3c3e
00000160: 3668 183e a1ad b93d 92cd f2bd 7c84 8ebd
00000170: b1a4 f3bd c13d 6f3d e2ce d63d 347f f8bd
00000180: a18d c03c 5ba9 77bd 8209 f03c ff94 2e3d
00000190: e186 0dbe 80dd d23d 6764 623d 3ca2 e53c
000001a0: eb24 e9bd 0326 eaba 8ef6 05be fe35 82bc
000001b0: 37f9 afbd 02d7 f43d 9833 0dbd 5455 2e3e
000001c0: e675 82bd e6ae 92bd 4721 d93d 077a 033e
000001d0: 51da a83c 02ab 2f3e f9e7 9e3d 4e48 e3bc
000001e0: cc52 8f3d 6fdd 0f3e ee28 523d bc61 413e
000001f0: e564 23bd c9ec e73d 786c 0e3e ce4d 1b3d
00000200: 99b8 233e e027 b83d 4f41 0f3c 7651 c53d
00000210: 3ced af3d a816 ef3d 4f6e 27bc 13d1 843b
00000220: 4e2b d5bd 4407 50bc 7244 fabd e7cb 76bd
00000230: 71a7 7a3d 9f5f 4abd 71fd 86bd d037 e3bd
00000240: be1a f03c 7fe0 51bd e394 fe3c 9abf c3bb
00000250: 422f 0b3e a311 9ebd e088 5d3c dbc5 9c3c
00000260: 019b 37bc dc33 ecbd 7b38 9e3c ee64 5e3c
00000270: 320a 6e3d aaae b7bc 0479 903d 2a93 92bd
00000280: 3105 18bd 5ad5 a03d 56ef 11bc 0aaa 9f3d
00000290: 4108 9d3d 429f 293d ba97 233e c33d b7bd
000002a0: 6500 593d 626d 1c3e fb02 123e 9b5a 043e
000002b0: 1a6d abbb 2195 7fbd c8eb d73a 79d0 eabd
000002c0: b4ae 0d3e f2ff 08bd 4a7b 723b 8062 0dbe
000002d0: 0ae5 483c adee d23d e982 cfbb a178 403d
000002e0: 6279 03bd eb4c 0f3d 4df1 e1bd 0820 febd
000002f0: fd7c c73d 7819 c43d 6cdd cfbd 17b6 153e
00000300: facf 13bc 1afd 063e 9f35 82bd 164c 12be
00000310: 0ab0 053e b226 833d 02af 043e 1b65 f23d
00000320: a81a 35bd b8b2 b8bd cd95 f73d 32e0 813c
00000330: ffa1 ce3d 0990 053e ba2f a23c cc0a a7bd
00000340: 259d 8dbd 71d2 eebd 3791 323d 125e 39bd
00000350: 51ed b4bd f4e4 82bd 4939 093e f42b a33d
00000360: a1dd 0d3e e66b 853b a358 dcbd bf8a 7cbd
00000370: 79d2 1bbd 9bee 02be f3c7 efbd 815e fe3d
00000380: a78a b3bd 98b8 a83d 1aeb b8bd b84d 293e
00000390: 80d4 0bbe 04e5 67ba f1de 1b3d 86c1 96bd
000003a0: 738a f73d d769 e33d 7aae 063e 008a 833d
000003b0: 9788 363e cb02 cd3d 5d62 0e3e cd97 0f3e
000003c0: e698 c03d 08e4 de3d 08a3 9bbd 38ab aabd
000003d0: 01ec 273d 3eef c03d 9803 55bc d754 13bd
000003e0: 80da 5bbd fe77 0a3d 8de2 88bd 76ee 36bd
000003f0: 8b01 083b 9d44 443e cc67 363e d43f 023e

Predict/layer_conv4/Conv2D i1 [64, 3, 3, 32]
116 52 57 82 -112 87 -59 87
32 -27 -41 97 96 -8 16 -49
38 -73 -37 -70 -1 -53 111 85
56 56 125 -22 -52 -8 78 61
31 -79 91 -22 -64 0 7 48
23 94 51 100 24 127 22 -83
-58 -69 76 -33 -79 20 46 -20
-16 -62 121 59 74 5 34 74
49 69 21 1 48 36 36 -94
-68 28 82 -101 109 29 72 15
-74 -20 87 60 57 21 21 65
31 -104 14 -69 68 63 65 2
95 85 -17 -6 79 -8 10 27
56 110 86 65 8 42 95 107
12 -78 111 83 47 32 -11 37
67 97 78 67 42 64 11 -71
-51 101 19 62 39 -65 -47 -3
112 69 44 43 17 43 76 82
-79 65 28 90 -32 -68 -11 0
96 92 -75 36 43 73 -59 18
95 -41 43 62 -32 -42 16 64
-120 -39 -68 67 -22 -25 51 21
-47 64 -69 123 -36 54 -62 85
-32 -22 100 -77 -62 -92 -90 25
28 117 43 95 -83 -35 73 79
-60 -56 -48 27 17 -57 53 61
-31 -76 -84 120 50 2 90 5
94 -29 -34 22 75 -64 -88 53
28 110 -97 -50 -116 31 41 7
42 72 -36 46 96 64 21 51
-64 74 26 -33 -31 -86 48 15
-7 -26 -15 67 -47 92 69 -14
00000000: 7434 3952 9057 c557 20e5 d761 60f8 10cf
00000010: 26b7 dbba ffcb 6f55 3838 7dea ccf8 4e3d
00000020: 1fb1 5bea c000 0730 175e 3364 187f 16ad
00000030: c6bb 4cdf b114 2eec f0c2 793b 4a05 224a
00000040: 3145 1501 3024 24a2 bc1c 529b 6d1d 480f
00000050: b6ec 573c 3915 1541 1f98 0ebb 443f 4102
00000060: 5f55 effa 4ff8 0a1b 386e 5641 082a 5f6b
00000070: 0cb2 6f53 2f20 f525 4361 4e43 2a40 0bb9
00000080: cd65 133e 27bf d1fd 7045 2c2b 112b 4c52
00000090: b141 1c5a e0bc f500 605c b524 2b49 c512
000000a0: 5fd7 2b3e e0d6 1040 88d9 bc43 eae7 3315
000000b0: d140 bb7b dc36 c255 e0ea 64b3 c2a4 a619
000000c0: 1c75 2b5f addd 494f c4c8 d01b 11c7 353d
000000d0: e1b4 ac78 3202 5a05 5ee3 de16 4bc0 a835
000000e0: 1c6e 9fce 8c1f 2907 2a48 dc2e 6040 1533
000000f0: c04a 1adf e1aa 300f f9e6 f143 d15c 45f2

Predict/layer_conv5/Conv2D i1 [128, 3, 3, 64]
18 11 86 94 -59 72 -73 -5
-14 -55 -86 95 -56 85 76 71
-36 82 -30 -12 54 -19 -75 -73
-47 -38 74 85 -73 31 47 -73
87 62 29 -5 33 -33 -66 59
43 26 -17 -7 25 93 40 -39
87 71 49 31 -60 -36 -3 -61
40 2 56 -39 20 -35 39 -48
29 -74 -34 -4 53 83 -52 -6
59 -32 42 -59 88 59 65 116
62 106 -10 -29 -51 106 -100 -18
68 63 13 -2 -79 84 65 -59
-45 18 28 24 87 -49 24 -72
-57 -14 -16 -45 -45 8 87 50
-66 61 61 65 15 -24 71 -26
63 48 -61 -35 25 20 -34 13
-79 -17 -13 -36 -89 -44 -5 -12
38 68 107 -91 90 59 -89 73
-7 74 38 -56 29 -24 -113 -77
-56 -68 3 -1 -42 41 79 34
23 32 -14 -93 100 26 -66 65
-47 73 45 6 -76 10 62 79
-1 -47 -1 32 -48 -51 -22 -90
90 -25 -56 -59 -70 -66 -4 -38
88 -45 36 46 51 73 44 -12
72 100 52 98 -44 96 42 22
-15 66 -32 -44 -60 -58 -90 -32
21 21 19 97 -74 -34 -72 -49
9 -45 -46 10 37 -5 88 25
65 -25 -17 44 71 36 -68 85
-20 -82 -22 48 88 -28 96 -41
88 -45 -34 40 66 -5 36 -60
00000000: 120b 565e c548 b7fb f2c9 aa5f c855 4c47
00000010: dc52 e2f4 36ed b5b7 d1da 4a55 b71f 2fb7
00000020: 573e 1dfb 21df be3b 2b1a eff9 195d 28d9
00000030: 5747 311f c4dc fdc3 2802 38d9 14dd 27d0
00000040: 1db6 defc 3553 ccfa 3be0 2ac5 583b 4174
00000050: 3e6a f6e3 cd6a 9cee 443f 0dfe b154 41c5
00000060: d312 1c18 57cf 18b8 c7f2 f0d3 d308 5732
00000070: be3d 3d41 0fe8 47e6 3f30 c3dd 1914 de0d
00000080: b1ef f3dc a7d4 fbf4 2644 6ba5 5a3b a749
00000090: f94a 26c8 1de8 8fb3 c8bc 03ff d629 4f22
000000a0: 1720 f2a3 641a be41 d149 2d06 b40a 3e4f
000000b0: ffd1 ff20 d0cd eaa6 5ae7 c8c5 babe fcda
000000c0: 58d3 242e 3349 2cf4 4864 3462 d460 2a16
000000d0: f142 e0d4 c4c6 a6e0 1515 1361 b6de b8cf
000000e0: 09d3 d20a 25fb 5819 41e7 ef2c 4724 bc55
000000f0: ecae ea30 58e4 60d7 58d3 de28 42fb 24c4
