v3/DWT_Recons_L6_TFLite_Quantized.tflite (tflite, 189504 bytes, 20 tensors)

Predict/fc0/BiasAdd/ReadVariableOp/resource f4 [64]
-0.0009381132 -0.019759525 0.028674899 -0.0021846963 0.0033333893 -0.0023846354 -0.00065435836 0.0
0.013201589 0.0012890556 0.0 -0.0024014255 -0.008610787 -0.012844309 0.0006524778 0.014698588
-0.00031621143 -0.025917033 0.0065703723 -0.023726026 -0.0073524225 -0.0066112266 0.025973128 -0.0015733561
-0.0020434242 0.0 -0.024102584 0.009752239 0.032486517 0.0 0.015148896 -0.012175969
-0.02617958 0.010965339 -0.0028405143 -0.01687516 0.028691169 0.015006745 -0.0015502821 -0.011142262
-0.0019406483 0.00571166 0.0012639053 -0.013574289 -0.0007732906 -0.018120809 -0.001357333 -0.010841436
-0.012740832 0.0 0.00048399117 0.0067331623 -0.0008180334 0.0 -0.0029283995 -0.006976836
-0.010665076 -0.009328488 -0.0056995424 0.01847867 0.026578587 0.0025343362 -0.014037428 -0.0168923
00000000: b6eb 75ba bade a1bc 9fe7 ea3c 1f2d 0fbb
00000010: fe74 5a3b 8b47 1cbb 3f89 2bba 0000 0000
00000020: 7a4b 583c 87f5 a83a 0000 0000 3c61 1dbb
00000030: 4214 0dbc f070 52bc 0b0b 2b3a 59d2 703c
00000040: 2ec9 a5b9 f54f d4bc 474c d73b 155d c2bc
00000050: 97ec f0bb fda2 d8bb 99c5 d43c 1239 ceba
00000060: f8ea 05bb 0000 0000 c872 c5bc dbc7 1f3c
00000070: 9510 053d 0000 0000 1333 783c b77d 47bc
00000080: 8f76 d6bc f7a7 333c ec27 3abb c73d 8abc
00000090: be09 eb3c dade 753c d632 cbba 098e 36bc
000000a0: 5a5d feba e028 bb3b a0a9 a53a b266 5ebc
000000b0: a7b6 4aba 1772 94bc 8ae8 b1ba 47a0 31bc
000000c0: ecbe 50bc 0000 0000 32c0 fd39 dca1 dc3b
000000d0: 4b71 56ba 0000 0000 64ea 3fbb f19d e4bb
000000e0: 92bc 2ebc 84d6 18bc 3ac3 babb 9460 973c
000000f0: 56bb d93c 1b17 263b 3efd 65bc b961 8abc

Predict/fc1/BiasAdd/ReadVariableOp/resource f4 [32]
-0.011942286 0.021603601 -0.0004172002 0.0018448269 0.021306774 0.059110098 -0.011457722 -0.015467061
0.010898747 0.026572663 0.018911282 0.0077552362 -0.044058956 0.014938884 0.011701249 0.030469742
-0.036120974 0.028196821 0.032723017 0.02854895 0.017179469 0.057332218 -0.032485213 -0.019385122
-0.03235992 -0.012266466 -0.0049053524 -0.04410594 0.069231465 0.0260942 -0.015797688 0.04157248
00000000: 94a9 43bc 09fa b03c aabb dab9 1ece f13a
00000010: 8b8b ae3c 6e1d 723d 2bb9 3bbc 8e69 7dbc
00000020: a890 323c eaae d93c d5eb 9a3c a31f fe3b
00000030: 2a77 34bd 39c2 743c 98b6 3f3c ae9b f93c
00000040: 96f3 13bd 05fd e63c 9208 063d 7ddf e93c
00000050: f5bb 8c3c 30d5 6a3d 370f 05bd 8ccd 9ebc
00000060: d68b 04bd 4af9 48bc 14bd a0bb 6ea8 34bd
00000070: 3ac9 8d3d 81c3 d53c 276a 81bc e847 2a3d

Predict/fc2/BiasAdd/ReadVariableOp/resource f4 [32]
0.06438265 -0.012920387 0.08301507 0.04153872 -0.028405251 0.046851266 -0.0028328646 -0.0071399133
-0.01949992 -0.072644405 -0.017268512 0.04495483 -0.055148166 0.06414546 -0.0016525764 0.1117283
-0.012709355 0.070007764 0.06495547 -0.0073492113 -0.02947205 0.02494797 0.03360227 0.07434429
0.0065670293 -0.057406902 0.023901062 -0.008345975 0.030335475 0.053232137 -0.03682136 0.06977095
00000000: 0ddb 833d 08b0 53bc ce03 aa3d 8124 2a3d
00000010: 21b2 e8bc 1de7 3f3d 95a7 39bb eff5 e9bb
00000020: 4cbe 9fbc 97c6 94bd b276 8dbc 8e22 383d
00000030: 0be3 61bd b25e 833d 439b d8ba cfd1 e43d
00000040: e63a 50bc 3b60 8f3d 6007 853d a7d1 f0bb
00000050: 5e6f f1bc af5f cc3c 89a2 093d d241 983d
00000060: 3c30 d73b 8023 6bbd 29cc c33c 8ebd 08bc
00000070: 1a82 f83c f109 5a3d ffd1 16bd 12e4 8e3d

Predict/layer_conv1/BiasAdd/ReadVariableOp/resource f4 [4]
0.029895969 -0.0018521252 -0.07040156 0.008387948
00000000: 64e8 f43c 02c3 f2ba b12e 90bd 9b6d 093c

Predict/layer_conv2/BiasAdd/ReadVariableOp/resource f4 [8]
-0.01967356 0.027836405 0.014619211 -0.026611432 -0.02783878 0.012698092 0.02060586 -0.027707953
00000000: 722a a1bc 2c09 e43c 6a85 6f3c 3800 dabc
00000010: 270e e4bc a80b 503c 9fcd a83c cafb e2bc

Predict/layer_conv3/BiasAdd/ReadVariableOp/resource f4 [16]
-0.010697169 -0.002539581 -0.02549715 0.023304189 0.020847818 0.022296656 0.015347185 -0.0232224
0.020773944 0.009332261 -0.031253505 0.011909613 0.023759948 0.038271405 0.020989738 0.026623601
00000000: 2e43 2fbc 196f 26bb 66df d0bc 6de8 be3c
00000010: 0bc9 aa3c 7aa7 b63c c272 7b3c e73c bebc
00000020: 1e2e aa3c 57e6 183c ad03 00bd 8a20 433c
00000030: 39a4 c23c 7ac2 1c3d acf2 ab3c bd19 da3c

Predict/layer_conv4/BiasAdd/ReadVariableOp/resource f4 [32]
-0.011157327 0.03661114 -0.0137293665 -0.021075796 0.029174792 0.011811654 -0.032369297 -0.025946638
0.033956103 0.01504427 -0.028196286 0.026598047 0.025538756 0.027866771 0.03309784 0.011621957
0.024866669 0.014813342 -0.015475114 0.014458871 -0.0095286025 -0.022479745 0.023435526 -0.027514372
0.001607243 -0.031774975 0.003640618 -0.0009713273 0.028133627 -0.03431396 -0.0070192707 -0.018587487
00000000: 39cd 36bc 90f5 153d 23f1 60bc 26a7 acbc
00000010: f9ff ee3c ab85 413c ab95 04bd 0b8e d4bc
00000020: 8e15 0b3d 3e7c 763c e6fb e6bc 26e4 d93c
00000030: a736 d13c db48 e43c 9a91 073d 056a 3e3c
00000040: 2fb5 cb3c a9b3 723c 558b 7dbc e7e4 6c3c
00000050: db1d 1cbc 7127 b8bc dcfb bf3c d265 e1bc
00000060: 20aa d23a 7a26 02bd 6f97 6e3b aca0 7eba
00000070: 7e78 e63c cb8c 0cbd e901 e6bb c944 98bc

Predict/layer_conv5/BiasAdd/ReadVariableOp/resource f4 [64]
0.029849581 0.02060667 -0.03326556 0.008019019 -0.0063948804 -0.031371873 -0.020399304 0.044338208
-0.019281238 0.019744921 -0.011139667 0.020739788 -0.025297496 0.01689674 0.0042322446 -0.012599272
0.019228904 0.006687944 0.04097385 0.03584275 -0.019030377 -0.01898168 0.012700232 0.021055946
0.030663714 0.033780333 -0.016738253 0.009903575 0.0 0.0120312255 -0.043669377 -0.03160582
0.019624902 -0.015739793 0.0013434693 0.0033758434 -0.03747212 -0.008327265 0.02165334 -0.014402225
-0.0006917866 0.029615907 -0.017613126 -0.041477453 -0.008117691 -0.029378332 0.0043851645 0.015522923
-0.030604828 -0.031727426 -0.031488713 -0.021371182 -0.012156575 0.00227441 0.043096922 0.008776323
-0.032591574 0.043347113 0.020147989 -0.02550981 -2.2339396e-05 -0.0026099766 -0.007285163 0.02939255
00000000: 1c87 f43c 52cf a83c 7841 08bd 3462 033c
00000010: 258c d1bb cb7f 00bd 711c a7bc fb9b 353d
00000020: b0f3 9dbc 1ac0 a13c 2683 36bc 7de6 a93c
00000030: b23c cfbc 086b 8a3c a4ae 8a3b 2d6d 4ebc
00000040: ef85 9d3c 8a26 db3b 32d4 273d d9cf 123d
00000050: 98e5 9bbc 787f 9bbc a214 503c 857d ac3c
00000060: 7832 fb3c 3f5d 0a3d a91e 89bc 9b42 223c
00000070: 0000 0000 9e1e 453c a9de 32bd 1b75 01bd
00000080: 67c4 a03c bdf0 80bc 5917 b03a 413d 5d3b
00000090: 5e7c 19bd 156f 08bc 5862 b13c 4ff7 6bbc
000000a0: 0359 35ba 0f9d f23c 6749 90bc 43e4 29bd
000000b0: 1000 05bc d4aa f0bc 6db1 8f3b dc53 7e3c
000000c0: fab6 fabc 9ef4 01bd 4ffa 00bd 9e12 afbc
000000d0: 5f2c 47bc 450e 153b 6686 303d 91ca 0f3c
000000e0: be7e 05bd be8c 313d 650d a53c f3f9 d0bc
000000f0: 7d65 bbb7 240c 2bbb 60b8 eebb a5c8 f03c

Predict/layer_conv6/BiasAdd/ReadVariableOp/resource f4 [128]
-0.009819878 0.014247848 -0.028413046 0.04379868 0.008249514 0.01168434 0.027393896 -0.007206502
0.015091535 -0.016337462 -0.023599807 -0.007631863 0.039193016 -0.020662865 0.023683947 -0.011675808
0.032168034 -0.0042432924 0.007558906 0.024418289 -0.011966561 -0.025972327 0.0124016395 0.034931377
-0.01197298 0.015462604 0.018756812 0.005419715 0.009458101 -0.0029065928 0.027526885 0.0028336283
-0.017006492 0.035702437 0.03155373 -0.04015311 -0.00063388766 0.0282338 -0.03480988 -0.013697813
-0.0017016586 0.020258408 0.012475277 0.0050120964 -0.01437448 -4.460282e-05 0.015865698 -0.003460458
0.023644803 0.035115026 0.0043934067 -0.0059689055 0.032637075 -0.010571669 -0.015617351 0.012044945
0.03620538 -0.019099213 -0.014069786 0.007066619 -0.013853807 0.02445863 -0.007535973 0.033260245
0.03731325 0.045404747 0.04010655 -0.031728767 -0.008250435 0.009780125 -0.020267876 -0.00015897657
0.010976906 0.01976039 -0.022966178 0.008574569 0.016595844 -0.0013550292 0.0 -0.028995015
0.0 0.026917223 -0.022174567 0.0046349927 -0.030284915 0.008619277 0.0012975873 -0.01364831
-0.020875337 0.0025910528 0.021018947 -0.020500548 -0.027479153 -0.0004232755 -0.017249908 0.038729828
-0.0035202892 0.013204116 -0.01906658 0.008927798 0.006005237 0.039854906 -0.0410605 0.015662752
0.01622014 0.0058467803 0.0392846 0.007284616 -0.018952826 -0.0050289137 0.025440654 -0.031076314
0.0053103897 -0.0022607835 0.008037113 -0.0013805726 0.014863885 -0.002200506 -0.0006910312 -0.0010964226
-0.027591085 -0.03515116 0.032157574 0.022213228 0.0054637156 0.0043961518 -0.0006185257 0.008072596
00000000: 8ee3 20bc ce6f 693c 7ac2 e8bc 3f66 333d
00000010: f828 073c ad6f 3f3c 2a69 e03c 8524 ecbb
00000020: 7c42 773c 24d6 85bc 6254 c1bc b514 fabb
00000030: db88 203d 2b45 a9bc d604 c23c e34b 3fbc
00000040: a1c2 033d 510b 8bbb b3b0 f73b dd08 c83c
00000050: 650f 44bc ebc3 d4bc 3f30 4b3c 3414 0f3d
00000060: 512a 44bc dd56 7d3c e3a7 993c dd97 b13b
00000070: 27f6 1a3c 897c 3ebb 1080 e13c 65b4 393b
00000080: 3351 8bbc b83c 123d 7c3e 013d 9677 24bd
00000090: 7b2b 26ba 924a e73c ce94 0ebd cb6c 60bc
000000a0: 300a dfba f6f4 a53c 1b65 4c3c 833c a43b
000000b0: f082 6bbc ea13 3bb8 c8f8 813c dac8 62bb
000000c0: bfb2 c13c c6d4 0f3d 91f6 8f3b cf96 c3bb
000000d0: 74ae 053d cb34 2dbc ebdf 7fbc 2958 453c
000000e0: 184c 143d f475 9cbc f684 66bc 198f e73b
000000f0: 14fb 62bc 775d c83c 53f0 f6bb e53b 083d
00000100: c7d5 183d 54fa 393d c446 243d 06f6 01bd
00000110: d52c 07bc d13c 203c d108 a6bc f3b2 26b9
00000120: 7bd8 333c 8be0 a13c 9123 bcbc 597c 0c3c
00000130: 02f4 873c 3c9b b1ba 0000 0000 f486 edbc
00000140: 0000 0000 8281 dc3c 70a7 b5bc 23e1 973b
00000150: 1218 f8bc de37 0d3c ce13 aa3a 299d 5fbc
00000160: c102 abbc a7ce 293b ed2f ac3c c4f0 a7bc
00000170: f61b e1bc 13eb ddb9 ae4f 8dbc 2ba3 1e3d
00000180: a7b4 66bb 1456 583c 8431 9cbc e645 123c
00000190: 94c7 c43b e63e 233d 0e2f 28bd 2c4f 803c
000001a0: 19e0 843c 5996 bf3b e4e8 203d cab3 ee3b
000001b0: f542 9bbc 96c9 a4bb eb68 d03c c193 febc
000001c0: c702 ae3b a729 14bb 18ae 033c 54f4 b4ba
000001d0: a787 733c 5d36 10bb 5226 35ba d6b5 8fba
000001e0: b306 e2bc aafa 0fbd a9b7 033d 84f8 b53c
000001f0: f808 b33b 980d 903b 8f24 22ba ec42 043c

Predict/op/BiasAdd/ReadVariableOp/resource f4 [4]
0.028354466 -0.059294883 0.044423986 -0.053958472
00000000: a047 e83c 31df 72bd edf5 353d 8f03 5dbd

Predict/fc0/MatMul i1 [64, 1152] scale=0.0010845255 zero_point=0
0.009760729 -0.016267883 -0.019521458 -0.04771912 0.05747985 -0.03578934 -0.0032535763 0.032535765
-0.03362029 -0.019521458 0.0553108 -0.030366713 -0.04121197 -0.042296495 0.04555007 0.060733426
0.018436933 0.004338102 0.05314175 -0.07049416 0.017352408 0.03362029 0.063987 -0.06615605
-0.017352408 -0.0032535763 0.008676204 0.06290248 0.054226276 0.03578934 -0.06724058 -0.05314175
-0.014098831 0.050972696 0.0054226276 -0.056395326 -0.048803646 0.0553108 0.008676204 -0.03795839
-0.029282188 -0.01192978 -0.03362029 -0.029282188 0.06290248 -0.06507153 -0.04338102 0.0075916783
0.009760729 -0.022775035 -0.058564376 0.010845255 -0.017352408 0.058564376 -0.04121197 0.010845255
0.050972696 -0.030366713 0.05205722 0.056395326 -0.029282188 0.056395326 0.050972696 -0.06290248
0.013014305 -0.009760729 0.028197663 -0.03578934 -0.014098831 -0.034704816 0.042296495 0.022775035
-0.058564376 0.02385956 0.03578934 -0.06181795 0.02602861 0.0 -0.029282188 0.02385956
0.036873866 0.010845255 -0.0010845255 -0.009760729 0.03362029 -0.027113138 -0.06290248 -0.044465546
0.020605985 -0.05747985 -0.0010845255 -0.04555007 0.02385956 0.0 0.010845255 0.013014305
0.034704816 -0.05314175 -0.03362029 -0.042296495 -0.036873866 0.036873866 -0.015183357 0.010845255
-0.06940963 0.06615605 -0.046634596 0.046634596 0.017352408 0.04771912 -0.04121197 -0.032535765
-0.056395326 0.042296495 0.058564376 0.0065071527 -0.063987 0.02385956 -0.004338102 0.05314175
-0.036873866 0.06290248 0.0054226276 -0.018436933 -0.020605985 0.020605985 -0.03362029 0.03795839
0.02385956 0.032535765 0.018436933 0.036873866 -0.01192978 0.04338102 -0.06181795 -0.0596489
0.06507153 0.01192978 -0.009760729 -0.03362029 0.034704816 0.032535765 0.015183357 -0.04338102
-0.07049416 -0.0032535763 0.02602861 0.03145124 -0.018436933 -0.032535765 0.0 -0.017352408
0.044465546 0.020605985 0.05747985 -0.004338102 -0.06724058 -0.02169051 0.06181795 0.02602861
0.008676204 0.013014305 -0.063987 -0.06940963 -0.030366713 0.0010845255 0.04338102 0.0032535763
0.04338102 0.004338102 -0.004338102 -0.04988817 0.0553108 -0.009760729 0.036873866 0.01192978
0.018436933 0.044465546 0.058564376 0.0054226276 -0.05205722 0.028197663 0.04555007 0.058564376
-0.058564376 0.03145124 -0.020605985 -0.04338102 0.0010845255 -0.05205722 -0.0596489 -0.06724058
0.06615605 -0.010845255 -0.04988817 0.029282188 -0.042296495 -0.008676204 -0.042296495 -0.058564376
-0.0032535763 -0.046634596 -0.0065071527 0.046634596 -0.04555007 -0.017352408 -0.04771912 -0.04121197
0.06181795 -0.002169051 -0.05314175 0.06724058 -0.018436933 -0.06940963 0.015183357 -0.009760729
-0.060733426 0.063987 0.015183357 0.0065071527 0.004338102 0.02602861 -0.0075916783 0.0054226276
-0.04771912 -0.07049416 -0.03795839 0.034704816 -0.07049416 -0.04771912 -0.02602861 -0.06940963
0.056395326 -0.07049416 -0.020605985 0.060733426 -0.024944086 0.06724058 -0.04338102 -0.0054226276
0.050972696 -0.018436933 -0.06724058 0.034704816 -0.04012744 -0.06290248 -0.0065071527 -0.024944086
0.017352408 0.046634596 -0.06507153 -0.0065071527 0.017352408 0.06181795 0.05314175 -0.056395326
00000000: 09f1 eed4 35df fd1e e1ee 33e4 dad9 2a38
00000010: 1104 31bf 101f 3bc3 f0fd 083a 3221 c2cf
00000020: f32f 05cc d333 08dd e5f5 e1e5 3ac4 d807
00000030: 09eb ca0a f036 da0a 2fe4 3034 e534 2fc6
00000040: 0cf7 1adf f3e0 2715 ca16 21c7 1800 e516
00000050: 220a fff7 1fe7 c6d7 13cb ffd6 1600 0a0c
00000060: 20cf e1d9 de22 f20a c03d d52b 102c dae2
00000070: cc27 3606 c516 fc31 de3a 05ef ed13 e123
00000080: 161e 1122 f528 c7c9 3c0b f7e1 201e 0ed8
00000090: bffd 181d efe2 00f0 2913 35fc c2ec 3918
000000a0: 080c c5c0 e401 2803 2804 fcd2 33f7 220b
000000b0: 1129 3605 d01a 2a36 ca1d edd8 01d0 c9c2
000000c0: 3df6 d21b d9f8 d9ca fdd5 fa2b d6f0 d4da
000000d0: 39fe cf3e efc0 0ef7 c83b 0e06 0418 f905
000000e0: d4bf dd20 bfd4 e8c0 34bf ed38 e93e d8fb
000000f0: 2fef c220 dbc6 fae9 102b c4fa 1039 31cc

Predict/fc1/MatMul i1 [32, 64] scale=0.0025646428 zero_point=0
0.11540893 -0.02821107 -0.053857498 -0.038469642 -0.04616357 -0.066680714 -0.14618464 -0.14874928
0.035905 -0.043598928 -0.09489179 -0.2333825 0.023081785 0.066680714 0.18465428 -0.18978357
-0.020517142 -0.2333825 -0.15644321 0.033340357 -0.076939285 -0.15131393 -0.09232714 0.10515036
0.16413714 0.10258571 -0.035905 -0.030775715 0.0897625 0.07950392 0.14362 0.0179525
0.0025646428 -0.22825322 0.179525 0.012823214 -0.07181 -0.023081785 0.08206857 -0.084633216
-0.117973566 -0.14618464 0.07181 0.076939285 0.20773607 -0.19491285 0.06924535 -0.0051292856
-0.20773607 0.14362 -0.19234821 0.023081785 0.21030071 -0.11540893 -0.23081785 -0.066680714
-0.16926643 -0.0076939287 0.15900785 0.11540893 0.10002107 0.097456425 -0.14105536 0.020517142
-0.12053821 -0.2692875 -0.023081785 0.084633216 -0.17183107 0.09232714 0.24877036 0.22055928
0.0897625 0.14874928 -0.084633216 0.041034285 -0.058986783 0.18465428 -0.16413714 -0.17183107
-0.097456425 0.107714996 0.06155143 -0.14362 -0.048728213 0.012823214 0.24364106 -0.023081785
0.24107642 -0.13079679 0.010258571 0.10258571 0.107714996 0.21799465 -0.035905 -0.076939285
0.17696035 -0.14618464 -0.1384907 0.048728213 0.14874928 -0.048728213 -0.10002107 -0.251335
-0.179525 0.18978357 0.20260678 -0.12310286 -0.09232714 -0.15387857 -0.17696035 -0.18721892
-0.015387857 -0.14362 0.18465428 -0.15644321 -0.04616357 0.015387857 0.08206857 0.11540893
-0.097456425 -0.06155143 0.15900785 0.20260678 0.22055928 -0.24107642 -0.251335 -0.18465428
-0.20773607 -0.19234821 -0.24620572 0.117973566 -0.0897625 -0.24364106 -0.13592607 0.22055928
-0.023081785 0.015387857 -0.025646428 0.02821107 -0.15900785 -0.06155143 -0.24877036 -0.038469642
0.033340357 -0.02821107 0.087197855 -0.20517142 -0.033340357 -0.10002107 0.13079679 -0.20773607
0.0897625 0.22825322 -0.16413714 0.14874928 -0.058986783 -0.15900785 -0.015387857 0.076939285
-0.11540893 0.053857498 -0.066680714 -0.048728213 -0.14618464 -0.010258571 -0.23851179 0.19491285
-0.15131393 -0.12310286 0.20517142 -0.179525 -0.015387857 0.05642214 -0.17439571 -0.11284428
-0.15900785 0.12310286 -0.22568856 -0.21286535 0.13336143 -0.10515036 -0.17696035 0.06155143
-0.22568856 0.06155143 -0.097456425 -0.22568856 -0.21286535 -0.0897625 -0.21030071 -0.07950392
0.16670178 -0.09232714 0.19491285 -0.0179525 -0.087197855 0.033340357 -0.20773607 0.0
0.1256675 -0.012823214 0.02821107 0.033340357 0.12823214 0.010258571 0.23851179 -0.21286535
-0.025646428 -0.11027964 0.012823214 0.2692875 0.06924535 -0.010258571 0.02821107 -0.087197855
-0.179525 -0.13079679 0.179525 0.27954605 -0.11540893 0.051292855 0.11540893 0.15644321
0.051292855 0.066680714 -0.17439571 0.058986783 -0.16670178 -0.22055928 0.06924535 -0.12310286
0.09232714 0.012823214 -0.041034285 -0.24620572 -0.041034285 -0.22568856 -0.15131393 -0.18721892
0.08206857 0.18978357 -0.18978357 -0.041034285 0.15387857 0.117973566 -0.17439571 -0.15131393
-0.07181 -0.19491285 0.05642214 0.0051292856 0.21542999 0.26415822 0.035905 0.179525
00000000: 2df5 ebf1 eee6 c7c6 0eef dba5 091a 48b6
00000010: f8a5 c30d e2c5 dc29 4028 f2f4 231f 3807
00000020: 01a7 4605 e4f7 20df d2c7 1c1e 51b4 1bfe
00000030: af38 b509 52d3 a6e6 befd 3e2d 2726 c908
00000040: d197 f721 bd24 6156 233a df10 e948 c0bd
00000050: da2a 18c8 ed05 5ff7 5ecd 0428 2a55 f2e2
00000060: 45c7 ca13 3aed d99e ba4a 4fd0 dcc4 bbb7
00000070: fac8 48c3 ee06 202d dae8 3e4f 56a2 9eb8
00000080: afb5 a02e dda1 cb56 f706 f60b c2e8 9ff1
00000090: 0df5 22b0 f3d9 33af 2359 c03a e9c2 fa1e
000000a0: d315 e6ed c7fc a34c c5d0 50ba fa16 bcd4
000000b0: c230 a8ad 34d7 bb18 a818 daa8 addd aee1
000000c0: 41dc 4cf9 de0d af00 31fb 0b0d 3204 5dad
000000d0: f6d5 0569 1bfc 0bde bacd 466d d314 2d3d
000000e0: 141a bc17 bfaa 1bd0 2405 f0a0 f0a8 c5b7
000000f0: 204a b6f0 3c2e bcc5 e4b4 1602 5467 0e46

Predict/fc2/MatMul i1 [32, 32] scale=0.003387066 zero_point=0
0.10499905 -0.12870851 -0.09145078 0.08467665 0.20322396 0.0 -0.28451356 0.19644983
-0.006774132 0.23709463 0.2912877 0.03387066 -0.25402996 0.21338516 -0.11516025 -0.08128959
0.11177318 0.20661104 -0.3319325 -0.29806182 -0.20322396 0.18628864 -0.11177318 0.30144888
0.21338516 -0.15580504 0.2099981 -0.308223 0.27096528 0.19306277 -0.30483595 0.16257918
0.07112839 0.023709463 0.1998369 0.11854731 0.14903091 0.037257727 0.1591921 -0.32177126
-0.04403186 -0.2303205 0.19644983 0.24725582 0.013548264 -0.308223 0.1998369 -0.020322397
-0.18628864 -0.15241797 -0.23709463 0.25402996 -0.15241797 -0.29467475 -0.30483595 0.1795145
-0.2777394 -0.18290156 0.17612743 -0.23370756 -0.14903091 0.13209558 -0.26419115 0.1591921
0.09483785 0.06096719 -0.20661104 -0.17274037 -0.06774132 0.2675782 -0.14903091 0.037257727
0.32515836 0.15241797 -0.12532145 -0.22354636 -0.08128959 0.2099981 -0.29806182 0.35225487
-0.24725582 0.20322396 -0.18628864 0.006774132 -0.057580125 0.03387066 -0.12193438 0.064354256
0.01693533 -0.13209558 -0.09483785 0.09483785 0.17274037 0.34209368 0.0 -0.07112839
-0.2608041 0.30144888 0.27435234 0.11516025 0.21677223 -0.01693533 -0.11854731 -0.22354636
-0.1896757 -0.25402996 -0.09145078 -0.11854731 0.1795145 0.04403186 0.003387066 0.17612743
-0.17612743 -0.18628864 -0.22693342 -0.08467665 -0.030483594 0.25741702 -0.11516025 0.12532145
-0.1388697 0.06774132 0.31161007 -0.21338516 0.359029 0.006774132 -0.1693533 0.21677223
-0.25402996 -0.19306277 0.23370756 0.17274037 -0.1998369 -0.25741702 0.09145078 0.06096719
0.2608041 -0.21677223 0.2506429 0.10499905 -0.01693533 0.027096529 0.2506429 0.15580504
-0.2675782 -0.1795145 -0.25402996 -0.1998369 0.047418926 -0.22015929 0.14903091 0.003387066
-0.28790063 -0.1896757 -0.1896757 0.013548264 -0.013548264 0.14564385 -0.1896757 -0.24386875
0.11177318 -0.023709463 -0.108386114 0.19644983 0.064354256 0.01693533 -0.14903091 -0.12193438
-0.08467665 -0.36241606 0.10499905 0.25741702 0.027096529 -0.24048169 -0.16257918 -0.1896757
0.108386114 0.12870851 -0.26419115 0.22354636 0.37257728 -0.057580125 -0.1896757 -0.17274037
-0.24386875 0.12193438 0.21338516 -0.19644983 0.25402996 0.1591921 -0.09483785 0.23370756
-0.108386114 -0.20661104 0.05080599 0.21338516 -0.18290156 0.24725582 0.06096719 -0.18628864
-0.2675782 0.07790252 0.18628864 0.21677223 0.17612743 0.01693533 0.14903091 -0.030483594
0.2303205 -0.027096529 0.006774132 0.037257727 -0.08806372 0.0 -0.057580125 -0.08806372
-0.29467475 0.054193057 -0.30144888 0.22354636 0.1388697 -0.23370756 -0.2675782 -0.06774132
0.2912877 -0.1388697 -0.037257727 0.2303205 -0.17274037 0.06774132 0.36919022 0.11854731
0.064354256 0.28112647 -0.24386875 0.14903091 -0.03387066 0.23370756 -0.15580504 -0.11177318
-0.1998369 0.13548264 -0.037257727 0.32177126 0.030483594 -0.11177318 -0.1998369 -0.22693342
-0.16257918 -0.1591921 0.2506429 -0.11854731 -0.15241797 -0.08467665 0.07112839 -0.24048169
00000000: 1fda e519 3c00 ac3a fe46 560a b53f dee8
00000010: 213d 9ea8 c437 df59 3fd2 3ea5 5039 a630
00000020: 1507 3b23 2c0b 2fa1 f3bc 3a49 04a5 3bfa
00000030: c9d3 ba4b d3a9 a635 aeca 34bb d427 b22f
00000040: 1c12 c3cd ec4f d40b 602d dbbe e83e a868
00000050: b73c c902 ef0a dc13 05d9 e41c 3365 00eb
00000060: b359 5122 40fb ddbe c8b5 e5dd 350d 0134
00000070: ccc9 bde7 f74c de25 d714 5cc1 6a02 ce40
00000080: b5c7 4533 c5b4 1b12 4dc0 4a1f fb08 4a2e
00000090: b1cb b5c5 0ebf 2c01 abc8 c804 fc2b c8b8
000000a0: 21f9 e03a 1305 d4dc e795 1f4c 08b9 d0c8
000000b0: 2026 b242 6eef c8cd b824 3fc6 4b2f e445
000000c0: e0c3 0f3f ca49 12c9 b117 3740 3405 2cf7
000000d0: 44f8 020b e600 efe6 a910 a742 29bb b1ec
000000e0: 56d7 f544 cd14 6d23 1353 b82c f645 d2df
000000f0: c528 f55f 09df c5bd d0d1 4add d3e7 15b9

Predict/op/MatMul f4 [4, 32]
0.43326312 -0.16937737 0.25399098 0.16710354 -0.13814682 -0.19687933 -0.38758856 -0.38360643
0.07059732 -0.3240385 0.1499991 0.2485599 0.17379934 0.36688545 0.33470294 -0.03900335
0.15279771 0.27504754 0.14883251 -0.3673394 0.01014077 0.32973328 0.16808337 0.28829256
0.21324836 -0.2684332 0.09675835 -0.19493207 -0.050383173 0.24247687 -0.3420558 -0.42479038
-0.38683593 0.23137866 -0.10506736 -0.2903812 -0.26048377 0.2835117 -0.21088271 -0.16958968
-0.24673916 -0.5271874 0.38723877 0.40976983 -0.3630205 0.17086183 0.05598673 -0.142609
-0.00661138 0.37781894 0.058237635 0.02959208 0.2965648 0.45225856 0.21548195 0.36585885
-0.22974326 -0.17597824 -0.5648472 -0.2682866 -0.0052054743 0.013403181 -0.25132498 0.3262661
0.28722316 0.2068768 0.39010078 0.15843096 -0.34065175 0.32934326 -0.09432439 -0.014102146
0.3852385 -0.30516782 0.13903992 0.23599117 -0.2953504 0.043704517 -0.28564182 -0.030800514
-0.32990104 0.3650405 0.39540666 -0.3900496 0.019690147 0.11105894 0.09509704 0.28671876
-0.18058074 0.08243942 -0.41683787 0.33301553 0.4223023 -0.05869964 -0.4841631 0.2550743
-0.0031760582 -0.2337074 -0.2649798 0.29440248 -0.20540735 -0.36868197 -0.17266107 0.41335407
0.33618364 0.19964486 -0.013307715 -0.4816823 -0.19753613 0.3819463 -0.20413423 -0.30797455
-0.2618779 -0.38334984 -0.31433275 0.017144883 -0.38806581 -0.25665787 0.05476145 -0.5030981
0.43023017 -0.11443178 0.27924877 0.28104812 0.10905881 0.29854342 -0.2491278 -0.21248156
00000000: aad4 dd3e 4371 2dbe 1b0b 823e 311d 2b3e
00000010: 5c76 0dbe bc9a 49be 0272 c6be 1068 c4be
00000020: 5495 903d 60e8 a5be 5d99 193e 7d86 7e3e
00000030: 74f8 313e 69d8 bb3e 2f5e ab3e fac1 1fbd
00000040: 0177 1c3e 08d3 8c3e 8d67 183e e913 bcbe
00000050: 7925 263c cdd2 a83e 0c1e 2c3e 159b 933e
00000060: c75d 5a3e 1470 89be 3e29 c63d 469c 47be
00000070: 965e 4ebd db4b 783e f021 afbe 207e d9be
00000080: 5c0f c6be 87ee 6c3e 8e2d d7bd d8ac 94be
00000090: 215e 85be 7228 913e a3f1 57be eba8 2dbe
000000a0: 31a9 7cbe c1f5 06bf 2944 c63e 5acd d13e
000000b0: d3dd b9be 67f6 2e3e 5752 653d 1808 12be
000000c0: 46a4 d8bb 7c71 c13e 968a 6e3d 176b f23c
000000d0: 57d7 973e 6f8e e73e 4da7 5c3e da51 bb3e
000000e0: d141 6bbe a433 34be d399 10bf dc5c 89be
000000f0: af92 aabb 0499 5b3c abad 80be 5a0c a73e
00000100: ea0e 933e 83d7 533e 4abb c73e ba3b 223e
00000110: e869 aebe ae9f a83e 252d c1bd b00c 67bc
00000120: fb3d c53e f53e 9cbe 7b60 0e3e aba7 713e
00000130: 2b38 97be 8203 333d a53f 92be 5c51 fcbc
00000140: cae8 a8be 97e6 ba3e be72 ca3e 95b4 c7be
00000150: 3b4d a13c df72 e33d 3dc2 c23d cdcc 923e
00000160: 28ea 38be 00d6 a83d c66b d5be 0381 aa3e
00000170: 0238 d83e 096f 70bd 3ae4 f7be 1999 823e
00000180: 6a25 50bb fe50 6fbe 6fab 87be ecbb 963e
00000190: 4e56 52be e2c3 bcbe 10ce 30be 25a3 d33e
000001a0: 4320 ac3e b46f 4c3e 9a08 5abc 109f f6be
000001b0: e946 4abe 778e c33e 9008 51be d7ae 9dbe
000001c0: dc14 86be 6e46 c4be 39f0 a0be 6d73 8c3c
000001d0: 90b0 c6be a968 83be 8b4d 603d 09cb 00bf
000001e0: 2147 dc3e 365b eabd b2f9 8e3e 8ae5 8f3e
000001f0: 3a5a df3d afda 983e 5c1b 7fbe c494 59be

Predict/layer_conv1/Conv2D f4 [4, 3, 3, 1]
0.051207796 0.04969704 -0.15070203 0.09557309 -0.28695977 0.31049773 -0.17732905 -0.04835583
-0.12015275 -0.3316666 -0.13233519 -0.23840238 -0.29647756 0.018408276 -0.294698 0.15815462
-0.17960669 -0.16478169 0.050697774 0.3262469 -0.033354383 0.1315129 0.15249528 -0.033222627
-0.2401064 0.30280435 -0.08635563 -0.024241593 0.09031718 -0.27949944 0.046161547 -0.22005405
-0.1487981 -0.3104755 0.11687229 -0.34061003
00000000: 44bf 513d 208f 4b3d a251 1abe d3bb c33d
00000010: 64ec 92be 8ff9 9e3e bf95 35be c310 46bd
00000020: a512 f6bd 34d0 a9be e082 07be c11f 74be
00000030: e8cb 97be f4cc 963c a8e2 96be 49f3 213e
00000040: d1ea 37be 88bc 28be 78a8 4f3d d509 a73e
00000050: 9b9e 08bd 51ab 063e b927 1c3e 7314 08bd
00000060: 74de 75be 2c09 9b3e 38db b0bd 4e96 c6bc
00000070: 37f8 b83d 8d1a 8fbe e413 3d3d d955 61be
00000080: 875e 18be a5f6 9ebe bd5a ef3d 7064 aebe

Predict/layer_conv2/Conv2D f4 [8, 3, 3, 4]
-0.1431528 -0.03809502 -0.055045266 -0.09387038 -0.0027500254 -0.061550576 -0.18353273 -0.18863524
-0.020723559 0.15779372 0.038302124 0.0161197 -0.14039126 0.18545854 -0.15910248 0.18225238
-0.12651666 -0.18573435 0.060629714 0.025941683 0.09567103 -0.17587398 0.12672116 -0.07169778
0.19071198 -0.081354655 0.109018505 -0.13905269 -0.015383922 0.116546385 -0.1801127 0.23024724
-0.0064415154 0.23001549 0.17005731 0.12178635 -0.06560954 0.09070987 -0.1871779 -0.046706963
0.06061484 0.005375704 -0.1868819 0.21706729 0.0745528 -0.18272468 0.2700115 0.11444859
-0.036536735 0.12567537 -0.08457336 0.072979 0.093928605 -0.031018695 -0.18602084 0.042494833
0.040614568 -0.034879677 -0.07434287 0.010024626 -0.21318018 -0.203999 0.09903518 -0.1011143
-0.04934919 0.1873499 -0.12295953 -0.15000065 -0.18363488 -0.061585974 0.10324939 0.009238231
-0.08172859 -0.2843082 -0.09755285 -0.08086035 0.00091660686 0.17685074 -0.17325348 -0.15596709
-0.14922562 -0.21044208 -0.06179957 0.058693003 -0.047778472 0.15291926 -0.043072965 0.08167132
-0.14873977 -0.007996631 -0.0021705858 0.122777104 0.17390479 -0.15700924 -0.026084911 0.054492395
0.0074587367 -0.21484219 0.08984281 0.03487019 0.11131997 -0.16133212 0.2385266 0.21111739
0.12701583 -0.034025975 -0.12748379 -0.05824829 -0.047458228 0.09438033 0.2542901 0.2352696
-0.17758358 -0.18762009 -0.063080095 0.22701474 0.23690563 -0.20894337 -0.0891475 -0.0363921
-0.17778815 -0.0028093872 0.16358718 0.07478028 -0.21302056 0.12980074 0.039080426 -0.11757903
0.23121609 0.23785335 -0.09564234 0.12242307 0.054558307 0.04323683 0.10291469 0.0680815
0.0506001 -0.05753508 -0.05465333 0.14437568 0.2391761 -0.10359436 0.13755672 0.22781695
0.09414954 0.20979534 -0.027327862 0.118932955 -0.17614573 -0.037558094 0.21326071 0.009179254
-0.016969433 0.07663246 -0.20524976 -0.13184285 0.0022778693 -0.021018732 -0.06454101 -0.023551598
0.26417252 -0.081289746 0.23078918 0.120423935 0.23703735 0.034071594 -0.06509249 -0.21216957
0.06816425 0.052222945 0.1650257 0.12702563 0.2169416 -0.1433736 -0.20348169 -0.1857868
-0.029856931 -0.11918717 0.21470302 0.123005934 0.20053115 0.13938542 0.019894259 0.11521975
-0.059574205 -0.024590654 0.15989873 -0.16324686 0.1052685 -0.031943075 -0.18695502 -0.17021266
0.15920645 0.19581842 -0.20819603 -0.14938696 -0.22770517 -0.015043361 -0.25843996 -0.22715098
0.17454027 -0.122210614 0.1566388 0.025956575 -0.19817898 0.05354917 0.029498024 0.12184268
-0.13837609 0.11023739 0.07676003 0.008859082 -0.1698187 0.1925208 -0.21814182 -0.14102338
0.072142534 -0.06713329 0.19019143 0.103247106 -0.07572525 -0.1268205 0.10156759 -0.07782728
0.09482174 0.21292558 0.16254361 0.030831872 0.051935744 0.2231751 0.09074196 0.01588124
0.1909372 -0.19081193 0.19924477 -0.08746496 -0.10088856 -0.12109209 -0.18193062 -0.064039275
-0.21904805 -0.012253181 0.015071168 0.17653996 0.23404077 -0.21407 0.13256402 0.023427423
-0.15940751 0.10715542 -0.05336668 0.06592868 -0.15388763 -0.043116238 0.042183746 0.1766803
00000000: a696 12be 8609 1cbd 2577 61bd 1d3f c0bd
00000010: c539 34bb 751c 7cbd 01f0 3bbe 9929 41be
00000020: 74c4 a9bc ad94 213e b0e2 1c3d 760d 843c
00000030: bac2 0fbe d8e8 3d3e c3eb 22be 5ea0 3a3e
00000040: 958d 01be 2531 3ebe dd56 783d a783 d43c
00000050: 2cef c33d 4f18 34be 31c3 013e 49d6 92bd
00000060: 004a 433e 459d a6bd 1845 df3d d463 0ebe
00000070: d80c 7cbc dfaf ee3d 776f 38be efc5 6b3e
00000080: 5913 d3bb 2e89 6b3e 8123 2e3e 1f6b f93d
00000090: 4b5e 86bd 19c6 b93d 90ab 3fbe cd4f 3fbd
000000a0: 4447 783d ac26 b03b f85d 3fbe e346 5e3e
000000b0: 23af 983d 2e1c 3bbe f33e 8a3e 0664 ea3d
000000c0: 8ba7 15bd 0bb1 003e cc34 adbd 0476 953d
000000d0: a45d c03d eb1a febc 3f7c 3ebe 100f 2e3d
000000e0: 765b 263d fedd 0ebd 1341 98bd 543e 243c
000000f0: e84b 5abe 1de5 50be f5d2 ca3d 0415 cfbd
00000100: 6022 4abd a7d8 3f3e 35d2 fbbd c599 19be
00000110: c80a 3cbe 9341 7cbd 6b74 d33d f35b 173c
00000120: 5261 a7bd d890 91be cac9 c7bd 1c9a a5bd
00000130: 7248 703a 5c18 353e 5c69 31be d6b5 1fbe
00000140: 9ace 18be 217e 57be 8c21 7dbd 1368 703d
00000150: 5cb3 43bd de96 1c3e 476d 30bd 4b43 a73d
00000160: 3d4f 18be 4d04 03bc 6340 0ebb 9072 fb3d
00000170: 1914 323e 08c7 20be 06b0 d5bc 6b33 5f3d
00000180: 6b68 f43b 97ff 5bbe 82ff b73d 0bd4 0e3d
00000190: b9fb e33d 3f34 25be 5140 743e 282f 583e
000001a0: 7010 023e d25e 0bbd 1c8b 02be c295 6ebd
000001b0: 8f63 42bd 794a c13d 5032 823e 84ea 703e
000001c0: 78d8 35be 7b1f 40be 2330 81bd 8d76 683e
000001d0: 6497 723e 40f5 55be f792 b6bd e20f 15bd
000001e0: 190e 36be b21d 38bb 6683 273e 6726 993d
000001f0: 1022 5abe 7cea 043e cc12 203d 46cd f0bd
00000200: e9c3 6c3e d48f 733e 22e0 c3bd f2b8 fa3d
00000210: 8878 5f3d 1a19 313d f0c4 d23d 506e 8b3d
00000220: 0d42 4f3d e7a9 6bbd 2cdc 5fbd 38d7 133e
00000230: 94ea 743e 4829 d4bd abdb 0c3e d948 693e
00000240: 79d1 c03d 97d4 563e aede dfbc 1f93 f33d
00000250: 8c5f 34be 84d6 19bd 0461 5a3e 9564 163c
00000260: 7b03 8bbc 7bf1 9c3d fe2c 52be d001 07be
00000270: 4e48 153b 7a2f acbc 142e 84bd 48ef c0bc
00000280: 9f41 873e 3d7b a6bd 0054 6c3e d3a0 f63d
00000290: ebb9 723e a88e 0b3d 364f 85bd fb42 59be
000002a0: b399 8b3d bae7 553d 7ffc 283e 0213 023e
000002b0: f025 5e3e 87d0 12be 815d 50be e53e 3ebe
000002c0: 8696 f4bc 6718 f4bd 1cdb 5b3e 89ea fb3d
000002d0: 0a58 4d3e 0dbb 0e3e 49f9 a23c 55f8 eb3d
000002e0: 1504 74bd 5772 c9bc 7ebc 233e 2f2a 27be
000002f0: 0397 d73d bed6 02bd 2371 3fbe 3a4c 2ebe
00000300: 0407 233e a084 483e 5731 55be e5f8 18be
00000310: 8b2b 69be 6e78 76bc 3e52 84be 449a 68be
00000320: afba 323e 8f49 fabd ec65 203e e2a2 d43c
00000330: 6eef 4abe 6056 5b3d d7a5 f13c a888 f93d
00000340: 76b2 0dbe 24c4 e13d 5d34 9d3d af25 113c
00000350: f4e4 2dbe 2c24 453e 9260 5fbe 6f68 10be
00000360: 77bf 933d 2e7d 89bd 8bc1 423e 3873 d33d
00000370: d715 9bbd 3cdd 01be ab02 d03d e963 9fbd
00000380: e731 c23d 2a09 5a3e d571 263e 1f93 fc3c
00000390: 93ba 543d 0388 643e ecd6 b93d 6019 823c
000003a0: 0b85 433e 3464 43be d206 4c3e d420 b3bd
000003b0: a99e cebd 21ff f7bd 054c 3abe 0627 83bd
000003c0: 224e 60be 91c1 48bc 0fed 763c e4c6 343e
000003d0: 62a8 6f3e 2b35 5bbe ddbe 073e deea bf3c
000003e0: b93b 23be 4d74 db3d 0597 5abd 9e05 873d
000003f0: b894 1dbe a79a 30bd ddc8 2c3d aeeb 343e

Predict/layer_conv3/Conv2D i1 [16, 3, 3, 8]
127 -76 -62 45 -32 101 81 -5
27 49 59 -68 -113 -97 -19 -86
113 -31 30 112 28 -125 56 8
37 -10 47 74 -82 6 -50 82
50 23 -34 43 119 -59 -32 -31
-11 81 -110 -84 -5 -2 33 99
116 -35 -127 89 94 119 8 52
52 99 25 -34 98 -43 4 -86
101 -63 -7 -30 -106 79 -73 -17
35 116 -12 -76 110 -85 -69 27
9 27 48 72 96 1 -14 47
83 -38 -67 -51 -88 -90 38 0
1 93 121 127 22 -88 34 121
-36 66 13 10 -73 73 69 -83
-95 -26 -65 37 35 -23 -92 -36
112 -30 107 84 -26 -84 74 121
110 61 -9 -74 -24 107 -28 -22
73 76 -18 48 -116 -5 54 -19
70 80 -79 -60 52 38 -21 103
-57 74 -46 -19 80 67 33 66
-21 -35 -30 54 -60 -80 98 59
75 -37 48 -9 -13 -49 -22 -71
-49 57 37 55 74 -1 1 116
50 46 24 20 -42 -71 22 -10
85 -31 121 -60 69 1 -49 53
-52 -72 127 -13 30 32 36 -25
-22 51 70 86 -44 25 52 55
-5 34 33 -127 27 -50 -73 -80
-110 -66 38 -115 -121 60 78 -43
-72 5 -115 -62 -64 30 -112 -124
33 65 82 50 -90 16 -9 -13
37 -109 -25 49 -37 31 -90 46
00000000: 7fb4 c22d e065 51fb 1b31 3bbc 8f9f edaa
00000010: 71e1 1e70 1c83 3808 25f6 2f4a ae06 ce52
00000020: 3217 de2b 77c5 e0e1 f551 92ac fbfe 2163
00000030: 74dd 8159 5e77 0834 3463 19de 62d5 04aa
00000040: 65c1 f9e2 964f b7ef 2374 f4b4 6eab bb1b
00000050: 091b 3048 6001 f22f 53da bdcd a8a6 2600
00000060: 015d 797f 16a8 2279 dc42 0d0a b749 45ad
00000070: a1e6 bf25 23e9 a4dc 70e2 6b54 e6ac 4a79
00000080: 6e3d f7b6 e86b e4ea 494c ee30 8cfb 36ed
00000090: 4650 b1c4 3426 eb67 c74a d2ed 5043 2142
000000a0: ebdd e236 c4b0 623b 4bdb 30f7 f3cf eab9
000000b0: cf39 2537 4aff 0174 322e 1814 d6b9 16f6
000000c0: 55e1 79c4 4501 cf35 ccb8 7ff3 1e20 24e7
000000d0: ea33 4656 d419 3437 fb22 2181 1bce b7b0
000000e0: 92be 268d 873c 4ed5 b805 8dc2 c01e 9084
000000f0: 2141 5232 a610 f7f3 2593 e731 db1f a62e

Predict/layer_conv4/Conv2D i1 [32, 3, 3, 16]
-28 -4 102 27 22 -51 12 -72
16 48 5 20 29 -28 -61 -70
-90 -51 29 -83 97 -30 51 20
22 -60 -68 37 -38 44 -40 -32
-31 -57 -24 -9 25 -61 -87 11
-53 -62 24 -44 53 -21 93 -31
-101 -72 94 -35 53 -44 -70 -105
-14 -89 111 44 56 127 12 -40
-80 98 -64 57 -64 -18 71 -6
23 55 75 61 -69 116 110 -61
36 -93 44 -61 -16 -24 6 112
-69 55 -90 35 1 -37 4 26
-48 20 -35 -33 40 -76 -43 72
-15 53 67 78 96 47 -53 40
-6 92 85 102 88 85 -104 -68
123 -28 92 -22 7 100 -15 -11
-17 20 -45 -28 59 -113 -88 33
73 -23 -13 -27 -93 -50 100 16
13 68 -65 -41 20 -23 73 -86
-12 32 75 16 -37 78 74 32
-15 -15 -24 -87 50 70 47 -56
75 -39 85 86 -18 -8 4 -30
-47 58 -47 40 -17 -28 -13 50
32 -31 -21 22 49 -51 -37 92
-29 53 -74 -21 -8 27 61 -9
-17 -15 37 -37 -82 0 57 22
34 -27 42 -17 -70 46 -56 -62
56 -59 -35 63 91 57 -4 -3
-76 -66 40 111 40 -56 76 -14
-80 57 56 19 62 76 111 11
84 33 -78 38 -8 16 19 -1
8 67 55 28 -3 64 -5 -55
00000000: e4fc 661b 16cd 0cb8 1030 0514 1de4 c3ba
00000010: a6cd 1dad 61e2 3314 16c4 bc25 da2c d8e0
00000020: e1c7 e8f7 19c3 a90b cbc2 18d4 35eb 5de1
00000030: 9bb8 5edd 35d4 ba97 f2a7 6f2c 387f 0cd8
00000040: b062 c039 c0ee 47fa 1737 4b3d bb74 6ec3
00000050: 24a3 2cc3 f0e8 0670 bb37 a623 01db 041a
00000060: d014 dddf 28b4 d548 f135 434e 602f cb28
00000070: fa5c 5566 5855 98bc 7be4 5cea 0764 f1f5
00000080: ef14 d3e4 3b8f a821 49e9 f3e5 a3ce 6410
00000090: 0d44 bfd7 14e9 49aa f420 4b10 db4e 4a20
000000a0: f1f1 e8a9 3246 2fc8 4bd9 5556 eef8 04e2
000000b0: d13a d128 efe4 f332 20e1 eb16 31cd db5c
000000c0: e335 b6eb f81b 3df7 eff1 25db ae00 3916
000000d0: 22e5 2aef ba2e c8c2 38c5 dd3f 5b39 fcfd
000000e0: b4be 286f 28c8 4cf2 b039 3813 3e4c 6f0b
000000f0: 5421 b226 f810 13ff 0843 371c fd40 fbc9

Predict/layer_conv5/Conv2D i1 [64, 3, 3, 32]
-42 -65 -51 -45 79 -68 4 66
15 38 -59 -86 -6 -37 81 -45
-18 0 13 57 21 50 69 -65
-59 -91 75 68 -13 16 -57 -12
-57 43 -78 -33 6 84 23 -27
75 20 65 -9 93 -6 39 -10
44 -10 68 -6 80 37 106 -40
41 15 -24 102 80 -84 -27 -19
-5 4 -28 85 97 -20 3 -49
-42 37 -57 9 103 48 7 -34
21 127 70 70 -57 64 -75 -85
-52 -47 33 47 77 -22 16 31
44 -11 -45 -68 19 5 -29 5
84 39 -90 -56 109 17 -59 -66
-16 53 4 -82 -29 14 16 -22
-17 -84 49 -70 -40 5 72 23
-52 43 -30 63 24 31 -42 -53
-28 71 70 -14 51 -14 -19 30
27 2 76 1 -85 -49 26 14
34 -43 28 38 76 -61 52 -62
-13 20 -48 11 87 34 44 100
-38 92 -70 54 62 75 4 11
26 113 -21 13 37 -18 11 8
-7 -10 -59 53 29 -65 -60 -8
-36 93 1 13 4 -65 -69 -85
34 -5 -44 -32 34 19 74 41
-72 20 -14 -39 64 -25 66 40
17 -42 -60 59 -50 -25 50 -21
-16 -48 9 18 -52 5 -44 -6
-38 -53 15 -65 78 -1 20 13
-87 12 12 6 37 50 68 -30
-20 7 -68 -12 88 46 -3 -53
00000000: d6bf cdd3 4fbc 0442 0f26 c5aa fadb 51d3
00000010: ee00 0d39 1532 45bf c5a5 4b44 f310 c7f4
00000020: c72b b2df 0654 17e5 4b14 41f7 5dfa 27f6
00000030: 2cf6 44fa 5025 6ad8 290f e866 50ac e5ed
00000040: fb04 e455 61ec 03cf d625 c709 6730 07de
00000050: 157f 4646 c740 b5ab ccd1 212f 4dea 101f
00000060: 2cf5 d3bc 1305 e305 5427 a6c8 6d11 c5be
00000070: f035 04ae e30e 10ea efac 31ba d805 4817
00000080: cc2b e23f 181f d6cb e447 46f2 33f2 ed1e
00000090: 1b02 4c01 abcf 1a0e 22d5 1c26 4cc3 34c2
000000a0: f314 d00b 5722 2c64 da5c ba36 3e4b 040b
000000b0: 1a71 eb0d 25ee 0b08 f9f6 c535 1dbf c4f8
000000c0: dc5d 010d 04bf bbab 22fb d4e0 2213 4a29
000000d0: b814 f2d9 40e7 4228 11d6 c43b cee7 32eb
000000e0: f0d0 0912 cc05 d4fa dacb 0fbf 4eff 140d
000000f0: a90c 0c06 2532 44e2 ec07 bcf4 582e fdcb

Predict/layer_conv6/Conv2D i1 [128, 3, 3, 64]
5 39 -4 12 81 -34 41 66
18 -25 -77 1 -39 -95 53 -73
-43 5 37 83 46 -47 -24 -25
-42 86 -103 29 -22 -65 -41 -83
62 -48 -5 -13 -59 2 47 25
-9 -85 -93 -9 -89 20 -111 -127
-47 12 -13 -16 -33 13 -87 9
27 83 -19 -67 -33 -44 76 -1
-6 7 -16 90 -71 30 93 -7
20 -14 -94 -23 69 -30 -64 50
-76 -68 5 -8 -35 -4 -26 -37
-54 74 -87 -74 82 -58 -43 95
-42 -87 71 36 -79 -23 -59 85
-57 -117 46 -82 -42 59 46 -121
50 78 -54 23 13 -67 -41 108
-52 50 -52 74 -58 -46 -47 69
87 -3 5 0 90 80 -32 23
31 6 55 6 -51 18 -63 72
60 -5 -30 -17 -19 59 -62 -36
-6 -33 -40 20 16 36 1 -19
11 -61 -9 98 66 -90 59 -57
66 -89 34 50 -63 -6 28 -95
92 55 90 57 62 -37 -70 82
-27 49 -57 35 -17 35 -54 85
65 -11 -53 4 27 22 49 82
43 -43 -54 -29 3 24 -12 -63
13 75 -57 90 -50 -38 -75 35
81 45 -84 47 60 45 35 93
-20 35 49 4 49 -87 59 -62
-28 82 24 71 60 -13 -63 -7
-19 -105 -3 -31 -37 82 41 15
2 -66 31 81 93 -65 -56 -53
00000000: 0527 fc0c 51de 2942 12e7 b301 d9a1 35b7
00000010: d505 2553 2ed1 e8e7 d656 991d eabf d7ad
00000020: 3ed0 fbf3 c502 2f19 f7ab a3f7 a714 9181
00000030: d10c f3f0 df0d a909 1b53 edbd dfd4 4cff
00000040: fa07 f05a b91e 5df9 14f2 a2e9 45e2 c032
00000050: b4bc 05f8 ddfc e6db ca4a a9b6 52c6 d55f
00000060: d6a9 4724 b1e9 c555 c78b 2eae d63b 2e87
00000070: 324e ca17 0dbd d76c cc32 cc4a c6d2 d145
00000080: 57fd 0500 5a50 e017 1f06 3706 cd12 c148
00000090: 3cfb e2ef ed3b c2dc fadf d814 1024 01ed
000000a0: 0bc3 f762 42a6 3bc7 42a7 2232 c1fa 1ca1
000000b0: 5c37 5a39 3edb ba52 e531 c723 ef23 ca55
000000c0: 41f5 cb04 1b16 3152 2bd5 cae3 0318 f4c1
000000d0: 0d4b c75a ceda b523 512d ac2f 3c2d 235d
000000e0: ec23 3104 31a9 3bc2 e452 1847 3cf3 c1f9
000000f0: ed97 fde1 db52 290f 02be 1f51 5dbf c8cb
