v3/dwt_spark_tflite.tflite (tflite, 83840 bytes, 28 tensors)

Predict/layer_conv3/BiasAdd/ReadVariableOp/resource f4 [32]
00000000: 6f20 7fbe 0797 cebd 8bca cbbd 3138 b43d
00000010: de03 993c 0ea2 05bc 8ca7 b43b 9a5b 6abe
00000020: a3fc 00be a631 cebd 0b96 8e3d 685b 48be
00000030: 1596 773d 571a b33d 5871 663d 701d d1bc
00000040: 6b06 2a3d ba7e 99bd cd24 96be 656d 13be
00000050: dbb7 24bd ac9f 08bd ae7a 24be 2068 fa3c
00000060: ae3a 8e3d ff1c 46be 9b30 6a3e b3e2 1b3e
00000070: f5bb c3bd 9192 96bb ffc1 fc3d 904d 8b3d
-0.24914716 -0.100874 -0.099507414 0.0879978 0.018678602 -0.008156313 0.005513137 -0.22886506
-0.12596373 -0.100680634 0.06962212 -0.19566119 0.060445864 0.08745258 0.056260437 -0.025526732
0.041510027 -0.07494874 -0.29324952 -0.143972 -0.0402144 -0.0333554 -0.16062424 0.030567229
0.06944786 -0.19346999 0.22870104 0.15223198 -0.09557334 -0.004595109 0.12341689 0.06801903

Predict/op/BiasAdd/ReadVariableOp/resource f4 [4]
00000000: b013 253e bf34 d0bb 5bae be3d 2b65 30be
0.16120791 -0.006353944 0.093105994 -0.17226093

Predict/spark1/expand1x1/BiasAdd/ReadVariableOp/resource f4 [32]
00000000: e9d5 e93c b088 7bba 2d70 ffbc 7620 f93a
00000010: 5faa 48be 1a8b b1bc 8140 ca3d e050 41be
00000020: eeaa 85be 0000 0000 7504 183d 10e3 31be
00000030: f71d 23bd 0b39 78bc 45c7 2e3e 1b1b c73c
00000040: 0000 0000 52d1 6ebc 354d 91bc ab41 633d
00000050: 3caa ee3c becc d73c ab14 4fbb cac1 cb3c
00000060: fcfc a9bc 06ec 37be ee08 2cbe 3d63 043e
00000070: dc67 c5bd f1aa adbd aa9d 04be b3a6 1fbe
0.028544383 -0.0009595258 -0.03118142 0.0019006866 -0.19596241 -0.021672774 0.098755844 -0.18878508
-0.26106972 0.0 0.037113626 -0.17371774 -0.0398235 -0.015150319 0.17068203 0.024304917
0.0 -0.014576273 -0.01773701 0.055482548 0.029133908 0.026342746 -0.0031598012 0.02487268
-0.020750515 -0.1796113 -0.16800281 0.12928481 -0.0963895 -0.0847987 -0.12950769 -0.15590934

Predict/spark1/expand3x3/BiasAdd/ReadVariableOp/resource f4 [32]
00000000: 2f95 3fbe 179a 0bbe b242 18be 9dd4 05be
00000010: c0ff 803d 679e 28be 216c f3bd eb1f 9c3d
00000020: 7b11 103e 6988 c73c d6e6 e43d f735 cfbd
00000030: 5cc8 06be 3b18 65bd 4b41 b73c b312 633d
00000040: 7fd0 003e f12f 2cbd 697e 9b3e 8ba0 58bd
00000050: b167 843d 90a0 1c3e 80a7 3abc 0e9e 863c
00000060: 512d 81bd 5ccf e83c f99d 5c3e b3c3 bbbb
00000070: f3a9 953b 8984 87bd e769 6e3d e739 dfbc
-0.18709253 -0.13633 -0.14869192 -0.13069387 0.062987804 -0.16466676 -0.11885858 0.07623275
0.14069168 0.024357038 0.11176841 -0.10117715 -0.13162369 -0.05593131 0.022370001 0.055437755
0.12579535 -0.042037908 0.3036988 -0.05288748 0.0646509 0.15295625 -0.011392474 0.016432788
-0.063074715 0.02841919 0.21544637 -0.0057301163 0.0045673787 -0.06617076 0.058206465 -0.02724929

Predict/spark1/squeeze1x1/BiasAdd/ReadVariableOp/resource f4 [8]
00000000: 2890 2bbd bbc3 893d f676 dabd c77b ca3b
00000010: 8fb6 20bd aaaf 65be b3cb 2d3d 1ff0 ff3b
-0.041885525 0.06726786 -0.10667221 0.006179306 -0.0392366 -0.22430292 0.04243059 0.007810607

Predict/spark2/expand1x1/BiasAdd/ReadVariableOp/resource f4 [64]
00000000: f104 3d3e b215 aa3d 7cd8 fbbd b553 26be
00000010: a12b 42be c8e1 93bd 16b5 e8bd 4b0f 823c
00000020: 0fcc f63d f841 bbbc c93b 3ebe a982 29be
00000030: acab 113e bf33 fabd 5d5a 62be aa49 053c
00000040: e938 40be db07 1a3c 9770 d63d 4469 a83c
00000050: 3875 193d e0c3 d43d ade6 53bc f5cf 82be
00000060: 3e60 a7ba 8486 e0bb 5f12 53be e4d9 773d
00000070: 568a cabd ca10 8c3d d510 10be 5562 d9bd
00000080: e6b9 37be 0805 40be 06ca f83a 2188 d4bd
00000090: b932 06be 22bc 2cbc 7125 3bbe 1463 57be
000000a0: bb2b d03d de5a 8d3d 0353 373d 4e04 1c3d
000000b0: 447a 7a3e 00ef 2bbc 730b 28be 48be 403d
000000c0: b071 41bd 33fb 493e 6117 0d3e b46e 1fbe
000000d0: 34fc edbc 73bd 653d 56e9 03be 49d3 d63d
000000e0: 98f6 07bd 77fe 03be 6d78 adbd e79a f33d
000000f0: ec69 2fbe 7f70 de3d 806b 40be fe53 cc3d
0.18458916 0.08304919 -0.122971505 -0.16242869 -0.18961956 -0.07220799 -0.113626644 0.015876433
0.1205064 -0.022858605 -0.18577494 -0.16553749 0.14225644 -0.12216901 -0.22104783 0.008135239
-0.1877171 0.009401287 0.104706936 0.020558007 0.037465304 0.10388923 -0.012933415 -0.25549284
-0.0012769771 -0.006851973 -0.20612477 0.06051053 -0.09889667 0.0683914 -0.14068921 -0.106144585
-0.17942008 -0.1875192 0.0018981106 -0.10377527 -0.13105287 -0.010542901 -0.18276002 -0.21033889
0.10164591 0.06902097 0.0447569 0.038090043 0.24460703 -0.010493994 -0.16410618 0.047056466
-0.04722756 0.19724731 0.1377845 -0.15569574 -0.029050924 0.056088876 -0.1288198 0.10489518
-0.033194155 -0.1289004 -0.08470235 0.1189478 -0.1713025 0.10861301 -0.18791008 0.09976958

Predict/spark2/expand3x3/BiasAdd/ReadVariableOp/resource f4 [64]
00000000: b55f f0bc 9b16 5e3d ff6d 563d 9a0a e03d
00000010: c1b0 17be e47e 04bc 6143 da3c dd50 02bc
00000020: e717 353d 4ac8 c43c e8e5 98bd 9767 84bd
00000030: af28 c0bd d17a ab3d c7a1 563c 2896 33be
00000040: 9e14 f4bc 440c d3bd a543 2d3e ace0 69bd
00000050: f500 9c3d ae0d c33d 5a80 97bd 845b 33bd
00000060: c9c9 233b b2af a43b b7f8 2ebd 38d0 bbbd
00000070: 0c91 1dbb 98b4 e83d 15a7 9abd 310a 8bbd
00000080: 321d f7bd 4fa5 013d 2b83 79bc d207 fdbc
00000090: e1de 423c 0a03 f7bb ef05 a1bd c6dc 7b3d
000000a0: 19d1 1fbd 6397 0d3d a9dc d43d f3a0 883d
000000b0: e1f7 56bd 7e65 0fbd d418 763d a161 6fbd
000000c0: 5793 55bc bc5d 7c3d 289a 0bbc 0478 363d
000000d0: c2f7 8abd 67ec e7bd 6452 5d3c f043 c23c
000000e0: 334d 2cbe 5f94 553d 44e0 b9bd 08a3 fd3d
000000f0: 2b4d 2e3d 68eb f6bc 1340 98bd 4f6c a2bb
-0.029342512 0.054220777 0.052350994 0.10939522 -0.1481352 -0.008086894 0.026643457 -0.00795385
0.04421225 0.024021287 -0.07465726 -0.06465071 -0.0938276 0.08373035 0.013100094 -0.17537749
-0.029794987 -0.10305074 0.16920336 -0.05709903 0.0761737 0.095240936 -0.07397528 -0.043788448
0.00249921 0.0050258273 -0.04271766 -0.09170574 -0.0024042754 0.113625705 -0.075513996 -0.06789053
-0.120661154 0.03165179 -0.015229027 -0.030887518 0.011893959 -0.007538204 -0.0786246 0.061489843
-0.03901777 0.0345682 0.1039365 0.066713236 -0.05248249 -0.0350089 0.06008227 -0.058442716
-0.013035617 0.06161283 -0.00852064 0.04454805 -0.06785537 -0.11324387 0.013508413 0.023714036
-0.16826324 0.05214345 -0.090759784 0.12384611 0.04255406 -0.030141547 -0.07434096 -0.004956759

Predict/spark2/squeeze1x1/BiasAdd/ReadVariableOp/resource f4 [16]
00000000: 6271 50be d3a9 fdbc 72b5 e3bd 250c a3bd
00000010: 7a26 15be 8f20 eabd 4a71 8fbd 6488 aabd
00000020: 2d8b 33bc a6c6 0abe 4f5c aebd 469f 1a3d
00000030: 5a0a 133e 1582 2cbe b6e1 0d3e 2d50 573d
-0.20355752 -0.030964768 -0.11118592 -0.07961301 -0.14565459 -0.11431991 -0.0700403 -0.08326796
-0.010958475 -0.13552341 -0.085137 0.03774955 0.14359418 -0.16846497 0.13855633 0.052566696

Predict/spark3/expand1x1/BiasAdd/ReadVariableOp/resource f4 [128]
00000000: bdfd 4d3d 6322 353d 91a7 91bc 2e47 9a3c
00000010: 1614 99bd a219 0cbe b498 40bd 2391 9abd
00000020: 84e5 24bd b7e3 d8bd 180a 0dbe 0f93 3fbe
00000030: 84c4 133e c1b4 eaba 098c f0bd 9279 0abd
00000040: 6637 4a3d a0e3 a1bd ad9e 10be 0d37 393e
00000050: a944 9ebd be9b d43b a8ff 39bb 4826 e63d
00000060: 013b adbd c4fb e2bd 7c12 673c 4a05 2ebb
00000070: ebca 9cbd cb95 a4bd 4f83 82bc 0869 063c
00000080: ffe5 57bd 4e55 0bbd 3f62 703d be3e 01be
00000090: b90f 50bd f544 87bd 602b 93bc 3b57 02be
000000a0: 4f29 dbbd 7ce2 e7bb 2e20 34be a9a6 e4bd
000000b0: e16f e2bd 723c 4fbb b49a c13d 2de5 dd3c
000000c0: 2f2a cabd d158 afbd 5ef9 6e3b cab1 1bb9
000000d0: 4b42 9cbd 54da 65bc 6cd9 223b 1b8d f43d
000000e0: 074c 45be e3e9 053d fd3c 3f3c f75e 4e3d
000000f0: 1784 a3bd 6d50 86bc 4ac0 8abd 4e89 02be
00000100: 825f 093d 6268 ffbb 33ad ccbd ad79 8f3d
00000110: 4532 07be ed55 85bd a8c0 f03d 1004 94bd
00000120: e5f4 f9bd 7574 e8bc 2c3e b0bc 181c 45bc
00000130: a202 c53d 23ab 093d dab7 253a 45f6 9dbd
00000140: f11b df3c 3aff cfbd 4a57 f8bd 283c 363d
00000150: 9ee0 a9bd 7aa3 2f3d aaa7 d1bc f35b 9f3d
00000160: 86bb 0d3d eba9 debd c282 24bd 201e 9b3d
00000170: a5ce afbd f95f c3bd 1d61 dd3c ad98 573c
00000180: 63ce 463c 10e0 acbd 34dd 8c3d 2bde 22bd
00000190: 285e be3d f7db 0cbc 2d8a 0f3d ac74 463d
000001a0: e302 bcbd 0ac3 3abd 5ac3 09be f003 9d3c
000001b0: 7afd 8a3c 9f65 003e 0bdc 68bd c271 f8bd
000001c0: 56f5 76bd a56d 94bc d23c 04be 3e5d 10be
000001d0: 5d77 a9bd 2b88 3e3c eba6 0bbe 238c 313e
000001e0: 2edc ad3c 637b c1bd 92de bfbd 5d56 78bd
000001f0: 64a4 ddbc fadf a0bd 34e2 8abc d2ad 3b3d
0.05029081 0.044222247 -0.017780097 0.01883277 -0.07474534 -0.13681653 -0.04702063 -0.07547214
-0.040257946 -0.10590308 -0.13773382 -0.18708442 0.14430434 -0.0017906652 -0.117454596 -0.033807345
0.04936924 -0.07904744 -0.1412303 0.18087406 -0.0772794 0.0064882925 -0.0028381143 0.1123777
-0.0845852 -0.11083177 0.014103528 -0.0026553445 -0.07655891 -0.08036383 -0.015931753 0.008203752
-0.052709576 -0.0340169 0.058687445 -0.1262159 -0.050796244 -0.066049494 -0.017965019 -0.12728588
-0.10701238 -0.0070765596 -0.175904 -0.111646004 -0.110564955 -0.0031621722 0.094533354 0.027086819
-0.09871327 -0.08561862 0.0036464552 -0.00014848183 -0.07629832 -0.014029104 0.0024848832 0.11940976
-0.19267283 0.032693755 0.011672256 0.050383534 -0.079841785 -0.016395772 -0.067749575 -0.1274769
0.03353835 -0.007794426 -0.09993973 0.0700563 -0.1320277 -0.0651053 0.11755496 -0.07227337
-0.12204913 -0.028375844 -0.02151402 -0.012030624 0.09619643 0.033610474 0.00063216465 -0.07712988
0.027235003 -0.101561025 -0.12126024 0.044490963 -0.082947955 0.042880513 -0.025592644 0.0778121
0.034602664 -0.10872253 -0.040163763 0.07574105 -0.08584336 -0.0953979 0.027023846 0.013158959
0.012134167 -0.08441174 0.06878129 -0.039762657 0.09295303 -0.008597366 0.035043884 0.04845111
-0.09180238 -0.04559616 -0.13453427 0.019166917 0.01696657 0.12538765 -0.056850474 -0.121310726
-0.060292564 -0.018118689 -0.12913826 -0.14098069 -0.0827472 0.011629145 -0.13637893 0.17338614
0.021223154 -0.09447362 -0.09368624 -0.060629237 -0.027055927 -0.0785522 -0.016953565 0.045820065

Predict/spark3/expand3x3/BiasAdd/ReadVariableOp/resource f4 [128]
00000000: 8bc4 6bbe fd5b 1c3e 9c49 a6bd ec13 2dbd
00000010: 1b45 a8bd 909a 86be ffc9 903c ffba b3bc
00000020: 82d0 153d 316e 823b 18d9 75ba 2f07 15bd
00000030: 115e c83b f145 3ebd e82d a6bd 3f80 27be
00000040: 41ee cfbb d8cd 23bd 20f5 633d a9e0 513d
00000050: 9fcc 8bbd 5b5f b1bd 2523 ec3c 4cae c03b
00000060: c93c 11be 15f4 923c f583 533c 6ea0 8e3c
00000070: 8c32 1cbc c3ce 44bc 9f99 30be 28b6 1ebd
00000080: a09e 39bd 2f18 90bc d2c1 debd 4a96 05bd
00000090: f54f 4bbb 09cf 62be 6d93 46bc 3862 1fbd
000000a0: 9799 43bc e577 09bd 494e fdbb ccb3 bb3d
000000b0: be52 7cbd fad1 d0bd 4d9c 2cbd a0b0 a7bc
000000c0: 48ec ec3c 710c 66bc 0018 a2bd 7bc8 1f3d
000000d0: cdc1 42bc 04c2 76bc 9105 95bc b963 103d
000000e0: 1ef3 1bbd f5fd 9abc 27e4 78be eb2d e1bc
000000f0: e0fa d4bc 1081 34be b4c6 48bd 385f fb3c
00000100: 76ec b0bd 27aa 50be 5f28 f6bd 148d 9cbc
00000110: a668 04bd ce3d 3b3e 3a8b 13be 4839 6cba
00000120: ec97 00be 9106 d7bc 0b9d 123d d8d9 bdbd
00000130: 0da2 183d e351 e8bd 69b6 12be b821 83bd
00000140: e1b5 52bd e40a bebd 69a5 13bd c572 7bbd
00000150: 17fa 263d c1db 3abe 7b8a 163e 740b 5e3c
00000160: a790 a7bd 15f2 3cbc 5864 c93c a538 78be
00000170: eee7 98bb 9c8f 6d3b 8fda 05be 7dc5 24bd
00000180: d8ae 873b ac94 d9bd 3189 94bd 5ed9 e8bc
00000190: 862c 36be 1c0a e4bc b1f9 06bd dfdb babd
000001a0: d1af afbd 5d09 4fbe f588 59bc c30b acbc
000001b0: f84b 393d 2cf8 9abc 73f6 4ebe c0df 7c3d
000001c0: 7ea5 a33d 90ab a8bc 3d4f 45bd 72d4 a53c
000001d0: 217b bdbc 7dde 2abd 0186 f7bd f689 cc3d
000001e0: ba40 4ebe f25a 79bd b625 17be 79a5 ebbc
000001f0: 90d2 84bc d470 623c b94e 09bd 50a4 acbd
-0.23024194 0.15269466 -0.081195086 -0.042255327 -0.08216306 -0.26289797 0.017674444 -0.021939753
0.0365758 0.003980421 -0.0009378358 -0.036383804 0.006114729 -0.04645342 -0.08114225 -0.16357516
-0.0063455408 -0.03999123 0.05565369 0.051239643 -0.06826138 -0.08660766 0.028825352 0.005880153
-0.14183344 0.017938653 0.012909879 0.017410483 -0.009533536 -0.012012186 -0.17246102 -0.038747936
-0.045317292 -0.017589657 -0.10876812 -0.03261403 -0.0031023 -0.2214929 -0.01212011 -0.038912028
-0.011938474 -0.033561606 -0.0077302796 0.09165153 -0.061602347 -0.101963 -0.042141248 -0.020469964
0.028921261 -0.014041052 -0.07914734 0.039009552 -0.011887026 -0.015060905 -0.01819113 0.035251353
-0.03807365 -0.018919924 -0.24305783 -0.027487716 -0.025998533 -0.17627358 -0.049017623 0.030685052
-0.08638851 -0.20377408 -0.12019419 -0.01911024 -0.032326363 0.18285295 -0.1440858 -0.0009011221
-0.12557954 -0.026248248 0.0357943 -0.09270066 0.03726392 -0.11343744 -0.14327396 -0.06402916
-0.051442984 -0.09279421 -0.03604642 -0.06138875 0.040765848 -0.18247892 0.14701264 0.013552535
-0.08181887 -0.011532326 0.02458398 -0.24240358 -0.00466632 0.0036248928 -0.13071655 -0.040227402
0.004140716 -0.1062406 -0.0725273 -0.028423961 -0.17790422 -0.027836852 -0.032952968 -0.09123968
-0.08578456 -0.20218416 -0.013277282 -0.021001702 0.045238465 -0.018917166 -0.202112 0.061736822
0.079905495 -0.02058962 -0.04817127 0.020242903 -0.023130002 -0.041716088 -0.12086106 0.099872515
-0.20141879 -0.060877748 -0.1476048 -0.028765427 -0.016213685 0.013820846 -0.03352234 -0.084297776

Predict/spark3/squeeze1x1/BiasAdd/ReadVariableOp/resource f4 [32]
00000000: 1dd4 d5bd 809f e2bb 3c07 ac3d c8fb 3dbd
00000010: 4ebb 083d 47d6 213d 0938 27be 3083 3f3d
00000020: 24a2 b8bd bdc3 a2bc 0f2a 433e d3e7 a8bc
00000030: 420b 2bbc 0ab5 933d 94da 7b3d 0f2e fdbd
00000040: 5e53 17be c24d 343d eb4d 17be 5944 20be
00000050: 7815 fe3c ce17 993b d01f 083e df8d 6c3d
00000060: 9b82 53bd 965a a33d 3915 08bd 91be a23d
00000070: d04a 2bbe c9d2 e83c 2326 fabd d7f6 edbd
-0.10440848 -0.0069159865 0.08399817 -0.046382695 0.033381753 0.03951099 -0.1632997 0.04675597
-0.09015301 -0.019868726 0.19059013 -0.020618355 -0.010439696 0.07212265 0.06148775 -0.123623006
-0.14777896 0.044019468 -0.14775817 -0.15651073 0.031016096 0.004672027 0.13293386 0.057752486
-0.051638227 0.07976262 -0.033223365 0.07946504 -0.16727757 0.028420823 -0.12214305 -0.116193466

Predict/op/MatMul f4 [4, 256]
00000000: 6ff8 023d 1421 02bf c34b 623e 13ca 81bd
00000010: 41df 27be 8bfa c6be b05b fa3c ff18 a13c
00000020: 4418 62be 06e9 9cbe fd4d bd3d f0f7 0c3b
00000030: 0c6a a93e 1e43 953e bf1c 9b3d 1f17 423c
00000040: 531d 333e 8f1c 42be ecc0 b1be 0423 813e
00000050: ddcf 2d3e a2d1 3e3e 0a6a a23e 034f dd3d
00000060: b236 e73c d9db 583e d4f3 dfbe 8590 c93d
00000070: 6eb7 f13d b37b d53d c55a babc 7760 0ebf
00000080: 611f 003e 1112 8dbe 2279 833e de6f 00be
00000090: 4e62 5e3e bd6e 06be 7d06 bbbd c76a cebe
000000a0: 639d 8a3e b14d 06be 7ec3 8ebe f426 5abd
000000b0: 523c 65be 63e2 bf3b 0b02 e23d 5c9d ffbe
000000c0: ee67 893d 0921 e9ba 0018 04bf 44d6 eb3c
000000d0: 4e86 463e a15c dc3d 1936 ddbe 5462 453e
000000e0: 9d78 11be a648 403e ead0 593c 1326 163e
000000f0: e861 073e b7f8 5dbe 17e5 8abe fdfa 0fbd
00000100: 48c6 4a3e 67e9 053e 1425 ffbd cc17 ccbe
00000110: aca0 a13c fd20 5bbe e31c 803e 18aa 92bd
00000120: 3a9f e43d 9681 1b3e 1075 0c3e abd0 8739
00000130: 15fc 833e 1436 03bd a0af d4be 4724 67bd
00000140: 8f5c 023e 3f69 b6be 3b03 6cbc 481e 2f3e
00000150: 79c4 6fbd d1db 09bf 53b8 1bbe 6e06 33bb
00000160: 4d93 bcbe 8933 3fbb 0025 ac3d aee2 4a3e
00000170: 1335 013e 4a5d 453d 5ffa e13d 455e e1be
00000180: 909c 14bf ff40 083e 4419 1bbf 3294 8c3e
00000190: 6322 653e 342e dfbe 669e 423e 708e a93d
000001a0: c403 f73d 4ecf 69be 829d a7bd 4a38 03bf
000001b0: 29c5 d5bd 569e 5b3e be89 d3bc 1765 c0be
000001c0: 112e 0c3e 51fc 143e bc45 aa3d 6e0c 133e
000001d0: 5141 35be 8535 db3d fba9 a9be 0595 983e
000001e0: eefb dfbe 2839 1e3e 76df b73d b0dd 15bd
000001f0: b372 913b 7644 2f3c f805 543e 65c2 c43d
00000200: 3541 21bf 1bb5 9f3e 7b5a 823e 6fd3 8b3e
00000210: bb98 e5be 894c ebbe 9e48 3ebf 51c6 de3d
00000220: d3e4 1fbf d78e edbe bbb5 8d3c d95b c9bb
00000230: 763e 8b3e e21f 3abf 7422 ac3e 6827 dd3e
00000240: f5de c03e 46db 22bf 9615 0abf 3153 533c
00000250: 56a5 243e 612b 1f3e ce47 1c3d f696 813e
00000260: 6eff 9d3d 902a 843e 37f7 753e c9aa 80bd
00000270: 24a1 853e e6ac 253e 54db 2ebf be66 45be
00000280: e9b8 363f ea07 963d 8f40 c03d 1884 e1bd
00000290: 0c8b 3a3e 7fb1 03bf 67fb b33e 287f a6bc
000002a0: c5b4 d2bd ea41 f5be 237e 963e 7dd3 973d
000002b0: 0567 debe f22a 673e a296 3bbf 7e6e c83e
000002c0: dc4f 383e 61b7 57be a0e3 83be 026e 513c
000002d0: 2c83 333e b931 0fbf 0fe5 3fbf c7e1 02bf
000002e0: 4e26 c9bc 8c3a 083e 9147 fcbe 3b55 813e
000002f0: 98aa 31bb ca06 35bf 26a3 aabd 7aaa 2b3e
00000300: 6330 3d3e 9fd3 25bf a66d 13bf 433d f4be
00000310: fafd 22bf 2c5a cf3e ca4c 033e cf3a 6ebb
00000320: eee9 99be 84d1 803e 413c c3be 3385 c1be
00000330: dbba 063d 9e1d db3e e36e e43d b0d8 25bf
00000340: 874a 473e eb81 453e dd79 513e 3446 d4be
00000350: 684c da3d 5086 06be 0878 b03e cc7f 09bf
00000360: ddb5 573e 939f 9dbd ed23 f6bd 545f 06bf
00000370: 0461 543e 6206 5d3e 5f02 52bd 8f0c 07bf
00000380: 321b 26bf 1636 e53d 19e0 a93e 316b 873d
00000390: f244 2cbf 9d58 06bf 7120 553e f8bd d63e
000003a0: ade0 d43d 85d7 02bf 3965 b3bd d00a bc3d
000003b0: 4aef ce3e 7b73 84be beea 03bf 8043 9abe
000003c0: cbe7 293e 1aff ffbe 784e 0fbf 2df9 29bd
000003d0: 9b1d 26bf 47fd f33e bfa4 fcbe d131 683e
000003e0: 992d afbe 8327 2b3d 9b5d 403e ba3e bdbd
000003f0: 3b83 febe 1527 c9be 1b60 913e c54b 6ebd
0.031975206 -0.50831723 0.22099213 -0.06337371 -0.16393758 -0.38863024 0.030561298 0.01966524
-0.22079569 -0.30646533 0.09243391 0.0021510087 0.3308872 0.2915277 0.07573842 0.011846333
0.17491655 -0.18956207 -0.347175 0.25222027 0.16973825 0.18634656 0.31721526 0.10806086
0.028224323 0.21177615 -0.43740714 0.09842018 0.118025646 0.104239844 -0.02274836 -0.55615944
0.1251197 -0.27552846 0.25678355 -0.12542674 0.21717188 -0.13128181 -0.09132097 -0.4031584
0.27073202 -0.13115574 -0.27883524 -0.053259805 -0.22386292 0.005855845 0.11035546 -0.49924743
0.06709276 -0.0017786335 -0.5159912 0.028788693 0.1938717 0.10759855 -0.43205336 0.1927579
-0.14206167 0.18777713 0.013294438 0.14662962 0.13220942 -0.21676908 -0.27127907 -0.03515147
0.19802201 0.13077317 -0.12458244 -0.39861906 0.019729935 -0.21399303 0.2502204 -0.07161349
0.111631826 0.15186152 0.13716531 0.00025904676 0.2577826 -0.032033995 -0.4154024 -0.05643108
0.12730621 -0.3562717 -0.014405067 0.17101395 -0.05853698 -0.5385104 -0.15207033 -0.0027317065
-0.36831132 -0.0029175004 0.08405495 0.19813034 0.12617902 0.04818467 0.110340826 -0.44017234
-0.58051395 0.13306044 -0.6058543 0.27456814 0.22376399 -0.43589938 0.19005737 0.08279121
0.12061265 -0.22832987 -0.08184339 -0.51257765 -0.10437996 0.21447119 -0.025822517 -0.37577125
0.13689448 0.14549376 0.08314082 0.1436021 -0.17700697 0.107035674 -0.33137497 0.29801193
-0.43746895 0.15451491 0.08978169 -0.03658837 0.004438722 0.010697475 0.20705402 0.0960739
-0.62990123 0.3119286 0.25459656 0.2730975 -0.44843087 -0.4595683 -0.74329555 0.108776696
-0.62458533 -0.4639804 0.01729857 -0.0061449823 0.2719609 -0.727049 0.33620036 0.43194127
0.37670103 -0.63615835 -0.5393919 0.012898252 0.16078696 0.15543891 0.038154416 0.25310487
0.07714735 0.25813723 0.24020086 -0.06282575 0.26099503 0.16179237 -0.6830342 -0.19277474
0.713759 0.07325728 0.093873136 -0.11011523 0.18217105 -0.5144271 0.35152742 -0.020324305
-0.10288385 -0.4790185 0.2939311 0.07413385 -0.43437973 0.22574976 -0.7327672 0.391468
0.17999214 -0.21066047 -0.25759602 0.012782576 0.17530507 -0.55935246 -0.7495889 -0.5112576
-0.024554398 0.13303584 -0.4927335 0.25260338 -0.0027109738 -0.70713484 -0.08331899 0.1676425
0.1847549 -0.64776033 -0.57589185 -0.4770299 -0.6366879 0.40498483 0.12822261 -0.003635097
-0.30061287 0.25159848 -0.38131908 -0.37796935 0.032893043 0.42796034 0.111539625 -0.64783764
0.19462024 0.19287841 0.20456643 -0.4145981 0.106591046 -0.13137174 0.34466577 -0.5371063
0.21065469 -0.07696452 -0.12018571 -0.5248921 0.20740134 0.21584466 -0.051271793 -0.5275354
-0.64885247 0.11191957 0.33178785 0.06612242 -0.672927 -0.52478963 0.20813157 0.4194181
0.10394416 -0.51110107 -0.08759541 0.0918175 0.40416938 -0.25869355 -0.51530063 -0.30129623
0.16592328 -0.49999315 -0.5597911 -0.0414974 -0.64888924 0.47654173 -0.4934444 0.22675253
-0.34214476 0.04178573 0.18785708 -0.0924048 -0.49709496 -0.3928763 0.28393635 -0.05817773

Predict/layer_conv3/Conv2D f4 [32, 3, 3, 1]
00000000: 39f4 003c 421a 563c b508 65bd 9745 623d
00000010: b5fb ff3d ae38 47bd 6e22 02be 8b73 ad3d
00000020: a059 01bd 21b5 42bc 783a 183d ea76 ef3d
00000030: 62c6 813d bfe6 0fbe 0c3c 163e 7f6d 4ebe
00000040: 012a c93c 6ab9 b03d d645 f93d cb72 703d
00000050: 8743 10bd fb8b 8a3d 442a ce3d 335e 0c3e
00000060: 1d4c 0a3e 67d8 013e d6af 073e 1d6f d93d
00000070: eb97 e23b a296 0f3e 23b9 b73d 6f66 75bd
00000080: 351f 4c3e 6b8c fcbd 6d0b 35bf 9314 81be
00000090: 0895 ba3d 3fee 3bbc de62 a83d 48ce 203e
000000a0: 69c4 6dbe e7c7 973c 704e 38be ab12 eb3d
000000b0: 9c3c acbc 62eb 28be e7ed 643d d556 573d
000000c0: 3901 14be a102 7c3e cc1c 8abd 636a 01bd
000000d0: 9818 dc3d 7b30 3bbd 65a6 2fbd c7fb e6bd
000000e0: 49a4 f4bd 12a1 b93b 1b58 acbc fd0d 8d3c
000000f0: ceb7 bc3d 9988 cf3d b019 a13d 8353 0d3e
00000100: c5da b93d 35bd e43d e50d 323e 886a 19bc
00000110: 99e5 463d 4077 31bd 71ad 333d 6ead 1d3d
00000120: 7313 9cbd ba49 fc3c 3978 6e3d 3c8a 9ebd
00000130: 377c 713c 0242 343e 92be 013d ed34 70bc
00000140: b7ae 0e3e 2c28 fc3d 8960 56be ec83 de3d
00000150: 07e4 0d3d 95cb 29be 1961 a1bd 6e12 0c3e
00000160: 5da4 15bd 612b 213e 7e02 5b3e 3be6 fc3c
00000170: a543 723a 3203 693c a4e6 58bd 54c9 bbbd
00000180: 5ed2 fabd 2b07 213e c98c 34be 4be3 4b3c
00000190: 9177 263e fbd3 7bbd 2887 ef3d 0ee8 de3c
000001a0: 9225 9dbc acdd d53d cbe8 c73d bb79 a53d
000001b0: 9a91 1b3e 83db 3abd 8fef 493d 297e 213e
000001c0: a195 263d fc96 54be 8b34 1b3e 6ed6 adbd
000001d0: 932e 00be 8f31 023d 7ac1 32bc d213 9dbd
000001e0: fdc5 e33c c7ac 6abd 5de3 dc3c e306 cc3b
000001f0: 9a20 a8bc 74cf 033e 835b 113e 88ab 4bbe
00000200: 2b3d ca3d 2489 00be d0e3 9cbc 13ea 153e
00000210: 3886 4f3d 27ad 39be 6b74 a1bd da37 efbd
00000220: f4cf 2e3e bb05 233e 7d2c 82bd dfb3 f03d
00000230: 686c 3e3e 8239 8ebe d397 08be 912b 17bc
00000240: c00e 69be 867f d9bd e8ed 17bd 11d7 363d
00000250: 79d4 3f3e ceb7 a13b 38b6 693d ac09 613e
00000260: a5b6 2dbe 5b36 09bd f011 203b 2724 823b
00000270: aa11 3f3e 47be 793d f21e 4dbe 24f0 1e3e
00000280: cbec bfbc ffc8 e8bd 5378 523e c9e1 c53d
00000290: 7dd8 7b3d 5066 603d 6e49 47bd fc40 e63c
000002a0: 6278 93bd e40c 7ebd 244f 58bd 1026 e2bb
000002b0: a947 e93d 5849 053e f758 8c3d 75a8 663e
000002c0: 2306 633e 959d 1a3d 8104 653e eed1 173e
000002d0: f084 34bf 4bd2 5abc 7462 fdbe f39c d3bc
000002e0: 0216 99be b50e 87be 312b 073e 0490 5b3e
000002f0: d2d0 973e 5646 8dbc f385 dd3d 70bd 05be
00000300: 0617 58be 1c39 dd3d 80fa 43bd fa8c b3bd
00000310: d8ad 373e 3f13 fd3d 3989 fcbd 1892 de3d
00000320: 0673 bb3d 5d4d 09bd ac50 eb3d 7aae 793b
00000330: a84d ed3b d6b2 843d af46 acbd 8f8b c0bd
00000340: 9523 863d abc8 f83d 7eb5 64be ec95 29bd
00000350: d1a7 313e ae8c 04bd 4580 d63d 1b61 3e3c
00000360: 2a68 cebd c977 d2be 756c c0be e44a 13bc
00000370: 6707 173e 4046 8fbe fed8 ad3d 364d 963e
00000380: 209a 9ebd 2020 383e 08f6 963d 4a60 1e3e
00000390: 9d47 1e3e 1e13 463e 9d93 ccbb aa26 84bc
000003a0: d505 2f3e 01b0 483d 7f20 01bd fae4 823d
000003b0: f7ab 95bd fc99 f13d 44c6 4bbd 3011 813c
000003c0: b446 29be ab49 c5bc 9f86 823d 18fb 31be
000003d0: a63f bbbd d5fb ddbb 420c c13d 30d1 15be
000003e0: 4d5c 8fbe 3c79 5b3d 550a 5c3d 9c4b 19bc
000003f0: 828f 0a3d 0f44 983c 5a0e 03be ce68 50bc
0.007870727 0.013067784 -0.055916507 0.055242147 0.12499181 -0.04863804 -0.12708446 0.08469304
-0.031579614 -0.011884005 0.037165135 0.11692603 0.06336667 -0.14052866 0.14671344 -0.20158957
0.024556162 0.08629115 0.12171523 0.058703225 -0.03522065 0.067649804 0.10066655 0.13707809
0.13505597 0.12680207 0.1325067 0.10616896 0.0069150827 0.14022306 0.08970859 -0.05991214
0.1993378 -0.1233147 -0.7072056 -0.2521101 0.09110457 -0.0114703765 0.082219824 0.1570369
-0.23219456 0.018527938 -0.17998672 0.1147817 -0.021024995 -0.16496041 0.055890944 0.052573044
-0.14453591 0.24610378 -0.06743774 -0.0315956 0.107468784 -0.04570053 -0.042883296 -0.112784915
-0.119453974 0.005664953 -0.021038106 0.017218584 0.092147455 0.10133476 0.078662276 0.13801388
0.0907493 0.11168901 0.17388113 -0.009363778 0.048558805 -0.043326616 0.04386658 0.038495474
-0.07620897 0.030796874 0.058220122 -0.0774121 0.014739088 0.17603305 0.031675883 -0.014661056
0.13933836 0.1231235 -0.20935263 0.10865006 0.034641292 -0.16581567 -0.07879848 0.13678905
-0.036533702 0.15739204 0.2138767 0.030871501 0.0009241647 0.014221953 -0.05295433 -0.0916926
-0.122471556 0.1572539 -0.1763183 0.012444328 0.16256548 -0.061481457 0.11695701 0.027210262
-0.019182954 0.10442671 0.097611986 0.08079859 0.15192261 -0.0456195 0.049300727 0.15770783
0.04067004 -0.20760721 0.15156762 -0.08488165 -0.12517767 0.031785544 -0.010910386 -0.07669796
0.02780437 -0.05729368 0.026963884 0.006226407 -0.020523358 0.12872106 0.14195065 -0.19889653
0.09874948 -0.12552315 -0.019151598 0.14640073 0.05066511 -0.18132459 -0.07883533 -0.11680575
0.17071515 0.15920155 -0.06356142 0.11753058 0.18596041 -0.2777825 -0.13339166 -0.009226696
-0.22759533 -0.10620026 -0.03709212 0.044638697 0.18733396 0.0049352413 0.057058543 0.21976346
-0.16964205 -0.033499103 0.0024424754 0.003971595 0.18659082 0.06097248 -0.20031336 0.15521294
-0.023428341 -0.11366462 0.20553713 0.09662206 0.061485756 0.054785073 -0.048654012 0.028107159
-0.072006956 -0.062024012 -0.05280985 -0.00690151 0.11390621 0.1301626 0.06852906 0.22525199
0.2217031 0.03774794 0.22365 0.14826176 -0.70515347 -0.013355802 -0.49489176 -0.025831675
-0.29899603 -0.26378408 0.1320007 0.21441656 0.29651505 -0.017245453 0.108165644 -0.13060546
-0.21102533 0.108019084 -0.047846317 -0.087671235 0.1793741 0.123571865 -0.12330861 0.10867709
0.09152798 -0.033521045 0.11489996 0.003809838 0.0072419234 0.06479423 -0.08411919 -0.09401619
0.065497555 0.121476494 -0.22334859 -0.041402742 0.17349173 -0.032360725 0.10473684 0.011619831
-0.100784615 -0.41107014 -0.37582746 -0.008990023 0.14748918 -0.27983284 0.084886536 0.29355782
-0.07744241 0.17981005 0.073711455 0.15466419 0.15457006 0.1934323 -0.006243183 -0.016131718
0.17092068 0.048995975 -0.03152513 0.0639133 -0.0730819 0.11796948 -0.049749628 0.015755266
-0.16530877 -0.02408298 0.06373333 -0.17380941 -0.09142999 -0.0067744055 0.09426166 -0.1463058
-0.28000107 0.053582415 0.05372079 -0.009356406 0.033828266 0.01858714 -0.12798443 -0.0127203

Predict/spark1/squeeze1x1/Conv2D f4 [8, 1, 1, 32]
00000000: 17d6 b53d 6cb5 e2bd 1029 9f3e 73eb 68bd
00000010: 2591 e8bd 1bd4 97bd 35ac 2a3e d2e9 c5bd
00000020: b439 053e 4141 4d3f 092e 103f 7291 533e
00000030: 88ee ea3e db2e 9c3e e51d 413d e379 43bd
00000040: e3d0 033f d4ce 133f 6539 c9bd 3ba6 873d
00000050: 8eec 79be 9514 75be 57ee 263e c066 0ebe
00000060: 7323 08bf 2ff4 783d 222a 1bbe d221 2fbe
00000070: a905 06be 8d0a 453f 5958 953e 0b82 683d
00000080: fb1f f53d 7098 11bf 2f0d 8f3e 9d14 a83e
00000090: faa4 923b f262 3fbf 65b6 dabe 5277 0f3d
000000a0: b0fb d03b 396c 3abe b75b 133f e0b5 a93e
000000b0: 0373 483e 19fb 083e 32d7 d93d 076f 13bf
000000c0: 099c b6be 87ec c83d 43cf e73e 4698 b6be
000000d0: 549e b7be f759 1fbf 1565 c8be 1168 443e
000000e0: c790 f9bd 3d00 bcbc 17ee a23b e5c4 37be
000000f0: cb0f 773d c729 5e3e 42e3 273d 756e ec3d
00000100: 17ce c53c b016 1f3e 2e05 1c3e 085a b93c
00000110: db72 a2be 5896 ad3d 0984 7c3e 5084 a73e
00000120: 04e2 993e 04bc a5be 33e7 04bf d28f c73e
00000130: c4fa 13be e7b6 d73d 73a2 e6be 926e de3d
00000140: 2612 04be 398a 91bd 51be 2d3e d4d5 5d3e
00000150: 900e ffbe 16e6 893d 1d22 9a3e 156a 92bd
00000160: 2ad7 8a3d ebe1 e73e 5a15 2abe 75c1 dcbe
00000170: 632c 163e 7e6a 5ebf 83b9 4cbc e775 b2be
00000180: 397a 36bc acef 22be 08f5 b6bc 178a 613d
00000190: b4dd 87be 024e 083d 9fed 38be be6a b63e
000001a0: d821 85bd 79fc 2dbe c2ff a6be 01c9 973e
000001b0: 95ff d3bd 0e60 1bbe e0ac 933e 051b ad3e
000001c0: da07 1f3e a129 853e 7f0b 563e 9028 bcbe
000001d0: aa24 07bd 1038 7d3e efe4 afbe 6b74 283c
000001e0: 9d08 843e 9619 82be 1537 6cbd f26e bcbe
000001f0: 79c2 9abe 0033 52bc c6fc 79be 0376 a1be
00000200: 7a8d e0bb 84ab 143f fa83 d6bd dbfd 9a3e
00000210: 8a14 a13d d7ca dd3e 272a fc3e 4f46 9b3c
00000220: 93e0 913e 6e82 733e 7553 bf3e 7c90 18be
00000230: 7e57 8b3e 81e3 babd 8c42 c23e 2e90 693f
00000240: 8943 183f 0c24 4e3d 87da 3cbe 2780 8cbd
00000250: c201 523e ec8c 1d3f 7997 1a3e 1447 1c3f
00000260: 0168 793e d5c6 193d d1b9 7cbd 4321 4e3d
00000270: d6be 3e3e 7260 b63d 810d c83e e457 dc3e
00000280: 1a02 9c3e 1858 8e3e deef 283e 0647 5ebf
00000290: d0fa 843e b185 7b3d 8485 b0be f4c9 893e
000002a0: daca c8be 8a27 b03e 7180 aabe e977 6d3e
000002b0: 5e73 173d 0884 a8be a3f0 b0be 7270 d83d
000002c0: ac22 04be 413d 5b3e da1b a73e 4591 f33d
000002d0: 88ed 113e 9c2e 98bd a862 5cbe 1b51 353e
000002e0: 6521 b03e ead5 813e 749b 88bc 0c2f c53e
000002f0: 6578 843c 4532 c73e e45b 92be 2159 8e3e
00000300: 53bd ac3e 698a be3e df2c 86be a84e 443f
00000310: 3898 8abd 59b4 c43d 5162 77bd 1bb5 afbd
00000320: a393 a83d d376 89bd 67b6 c13e 3240 58be
00000330: 3c0d de3e 9777 823c be4c c6bd bdf5 343f
00000340: c40e 673e 3f76 7d3e 77b4 aa3e 4bab bebe
00000350: b5f4 fdbe 13df cf3d 8322 c23e ffb5 26be
00000360: ce37 6bbe e2ff d93d 8264 ec3e 66e9 b23e
00000370: afa7 94be 4235 16be 9781 96bc bea0 403e
00000380: f4bc 9a3e df10 393d a827 93be 5894 7d3c
00000390: cdae 1b3f d09f 023f 34cd d03e 4ffd 6a3e
000003a0: 8d0c 1a3e fe76 123f e1e2 c13d 7422 b63e
000003b0: c18b bc3e 30bc 1c3e 123d 693c 9a33 d53e
000003c0: 86da 083f 0987 1c3f 7353 203f 142e bfbd
000003d0: 73ef c53c 2135 523e d93d aa3e ada9 343e
000003e0: 4689 b7be 4c87 7bbd 4a92 f53d e2be c0bd
000003f0: 6115 593e ee00 4f3e 6b11 8c3e 274a fa3d
0.08878725 -0.1106976 0.31086016 -0.056865167 -0.11355809 -0.07413503 0.16667254 -0.09663738
0.13010293 0.80177695 0.56320244 0.20660952 0.4588511 0.30504498 0.04714765 -0.047723662
0.5149061 0.5773747 -0.098254 0.06623503 -0.24406645 -0.23933633 0.16301857 -0.13906384
-0.5317909 0.060779747 -0.15152791 -0.17102745 -0.13088097 0.76969224 0.29168966 0.056764644
0.119689904 -0.56873226 0.27939746 0.32828227 0.004475233 -0.74760354 -0.4271728 0.035025902
0.0063776597 -0.18205346 0.5756182 0.33146572 0.19575123 0.13377036 0.106367484 -0.5759129
-0.3566592 0.09810739 0.45275316 -0.3566305 -0.35862982 -0.6224665 -0.3913962 0.19180323
-0.12185817 -0.022949332 0.00497223 -0.17946203 0.060317796 0.21695624 0.040988214 0.115445055
0.024146123 0.15535998 0.15236351 0.022625938 -0.31728253 0.084759414 0.24659742 0.32718134
0.3005525 -0.32370007 -0.5191528 0.38976914 -0.14451128 0.10532933 -0.45045814 0.10860933
-0.12897548 -0.07106442 0.16967131 0.216636 -0.49815798 0.067333385 0.3010415 -0.0714914
0.067793205 0.4528955 -0.16609707 -0.43116346 0.1466537 -0.86881244 -0.012495401 -0.34855577
-0.011137539 -0.1591174 -0.022333637 0.055063333 -0.26536334 0.03327752 -0.18059395 0.35628313
-0.06500596 -0.16990842 -0.32617003 0.2964554 -0.10351483 -0.1517336 0.2884283 0.33809677
0.15530339 0.26008323 0.20902823 -0.36749697 -0.03299395 0.24728417 -0.3435435 0.010281662
0.2578782 -0.25410146 -0.057669718 -0.36803395 -0.30226496 -0.012829542 -0.24412832 -0.31535348
-0.006852803 0.5807421 -0.10474391 0.302718 0.07865246 0.43318817 0.4925091 0.018954424
0.2849165 0.23780224 0.3736836 -0.14898866 0.2721519 -0.09125424 0.37941396 0.91235626
0.5947805 0.050327346 -0.18442737 -0.068603806 0.20508483 0.61543155 0.15096845 0.61045957
0.2435608 0.037543137 -0.061700646 0.05032469 0.18627486 0.08905114 0.39072803 0.43035805
0.30470353 0.27801585 0.16497752 -0.86827123 0.25972605 0.061406795 -0.34476864 0.2691189
-0.39217263 0.34405166 -0.33301118 0.23190273 0.036975257 -0.32913232 -0.3455859 0.10568322
-0.12903851 0.21410085 0.32638437 0.11892942 0.14250767 -0.07430765 -0.2152201 0.1770672
0.34400478 0.25358516 -0.016675688 0.38512456 0.01617069 0.3890554 -0.28585732 0.27802375
0.33738193 0.37214974 -0.2620611 0.7668252 -0.06767315 0.09604711 -0.060396496 -0.08579465
0.082312845 -0.06712117 0.37834474 -0.21118239 0.43369472 0.015926166 -0.09682606 0.70687467
0.22564226 0.24752139 0.3334081 -0.3724006 -0.4960076 0.1014997 0.37916955 -0.16280364
-0.22970507 0.10644509 0.4617043 0.34943694 -0.29034182 -0.14668754 -0.01837234 0.18811318
0.30222285 0.045182105 -0.28741193 0.015477262 0.608136 0.51025105 0.40781558 0.22948192
0.1504385 0.5721282 0.09467102 0.3557316 0.36825374 0.15306163 0.014235752 0.4164093
0.5345844 0.6114355 0.62627333 -0.093349606 0.02416203 0.2052808 0.3325031 0.17642851
-0.3584692 -0.061408326 0.11990793 -0.09411408 0.21199562 0.20215198 0.2735704 0.12221175

Predict/spark1/expand1x1/Conv2D f4 [32, 1, 1, 8]
00000000: 948e 993e f6f6 f03d 428a 54be d262 9b3e
00000010: 4ca2 083e 083d e0bd d2d3 503d 5b66 a63e
00000020: 4a68 adbe 9f99 70be 952e 92be df35 2c3e
00000030: 79be acbe 3483 b4be 3593 d53d 1c07 303e
00000040: 409d e43e e905 c5be 1977 733e 041d 3bbd
00000050: 4773 bbbd 260c a3be 597e 32be 0319 60be
00000060: 62d4 20bd 0d67 d8bd bf5b 1bbe 5a71 743e
00000070: 3fd0 21be e9ce b6be 3d2b b1be 843f 2cbd
00000080: f677 a83e cd7b f7be b98a ffbd 8940 85be
00000090: f067 efbd 4410 303e 0fbb 3ebe 29f3 493e
000000a0: 673f 8fbe c02d 93bd 9fe1 dcbd 4cc8 9cbe
000000b0: f88d 16bd 4f9d 09bd 0807 31bc 9481 cc3d
000000c0: 5576 c03e 2ced a23e 5ebf 1fbe 90a0 bc3e
000000d0: 7687 39bd 90c8 1bbe dfe5 b9bc 213d 05bd
000000e0: 0c33 bc3d a141 71be e8c9 aabd 8737 bc3d
000000f0: f928 80be 447d ab3e 271e 073e 1b91 5c3e
00000100: f462 99be 4609 56bd 0916 7a3e 9b42 0b3e
00000110: cb15 863e cd77 353d 76d9 ffbe 9318 c93d
00000120: 48b3 f4bd 60f1 8bbe cc7b 89be 6976 14be
00000130: 302d a8be 2c91 a7bd 6828 213e 3f69 92be
00000140: 05da 903e 3b7a 26be 0703 3dbe 72d6 5a3e
00000150: 3032 203e 44a8 a2bd 96d1 e2bd b082 193f
00000160: d2e7 143e 3e9c 81be 31b4 993d 15c8 b03e
00000170: a707 eabd 5ca4 c13d 5776 93bc 462e 73be
00000180: ee4a a43e bb02 bebe 4672 48be 4faa ae3e
00000190: 8b6c 2ebe 711b 0a3e f0e6 f1be 1da2 9c3e
000001a0: 3d31 7abe 73e8 9e3e ec51 b2be 6f14 88be
000001b0: d252 c9be 7331 1d3e 39b7 71bd 2465 61be
000001c0: 9669 333e d62e 45be 03e1 213e 3065 97be
000001d0: 5a65 1ebf f2ef a3be 63fa c3bc f489 babe
000001e0: 7353 d63e 150a 98be 537f a8be 0a7a 63be
000001f0: b545 2d3e 6bb4 853e 2ae4 3fbf adc6 17bd
00000200: b4e0 95be 2c57 173e a328 31be 7e71 5ebe
00000210: 194f 76be 4038 fdbc 823c 99be 1f12 bcbe
00000220: c41b 2e3e 84f7 ecbd b2f1 7fbe f68e 6b3e
00000230: 36c4 62be 9cfb c1be 2820 14be b50a 50be
00000240: ee77 75be 2957 81be c5f0 f5bd 3f22 29bd
00000250: 51b5 b9be 4fe1 43be e8f6 50be dc82 a13e
00000260: f740 9b3e 579b 953e d514 babd a26e 96bd
00000270: 8c69 e73c 4511 80be e3dd 14bf 0ff8 f2bd
00000280: 8eb4 c63e 3423 423f 032f bfbe 34f7 003e
00000290: 3935 21be fdaa 3cbe afc7 1d3e 081b 97be
000002a0: d58e aa3e 67e6 6cbf 8ffe df3e f189 46be
000002b0: edb5 a6be bc60 95be cfba f0be 1f87 cc3e
000002c0: 73c0 29be 8030 053d 1894 21be 4b13 303d
000002d0: f226 6abe 50cc a3bd d8da b2bd e533 65be
000002e0: d47f 9bbe 9025 5dbe 5a5e 703d fd91 3d3e
000002f0: 52eb 613e e8aa 25bf b51b b63e 5781 d23d
00000300: 82d1 cebd 8356 57bd 3ec7 ac3e fe03 c03d
00000310: df96 cdbe 0c80 1fbe fadd 43be c9b0 46be
00000320: c036 cc3d 9804 a43d f861 883d f8e9 c6bd
00000330: 48f2 be3e 4ee9 1e3d 575a 0cbf 903a 98be
00000340: e251 263d 6a71 f7bd b066 b83e 5bf0 173e
00000350: 807c 733d 12b6 073d bf81 b03e ac1d a4bd
00000360: 98b2 b9be 61f3 1c3f 411c a5be c5cb 50bc
00000370: 2862 793e 2ce8 923d a3ea 8f3e 0840 893e
00000380: 9641 cfbb db93 1fbf c5a5 cf3e e08a 333e
00000390: 9df6 57b7 2075 8e3e 64a2 4cbd f61e 17bd
000003a0: 62b5 b53d 66e2 7b3d 4378 74bd 9598 09be
000003b0: 91ea ce3d 833b 413e 2bc8 673e 3166 e23e
000003c0: 35f7 cc3e e3f0 943e fdc7 fbbd 9252 85be
000003d0: 3e64 983e 2781 a6bd bf20 893d 30d7 c03e
000003e0: d5e0 973d 4ab8 f3be 397c b83e 43fd 803e
000003f0: d791 3a3e 06c5 3d3e a942 3cbf 882b a13d
0.2999159 0.11765854 -0.20755866 0.3034883 0.13343161 -0.10949141 0.050983258 0.32499966
-0.3386863 -0.23496102 -0.28551164 0.16817425 -0.3373907 -0.3525635 0.10428468 0.17190212
0.44651222 -0.38481072 0.23775901 -0.04568197 -0.09152847 -0.31845206 -0.1743101 -0.21884541
-0.039265044 -0.105665304 -0.15171717 0.23871365 -0.15802096 -0.35704735 -0.346033 -0.04205276
0.32904023 -0.4833664 -0.12477631 -0.260258 -0.116897464 0.17193705 -0.18626045 0.19721664
-0.2797806 -0.071864605 -0.10785221 -0.30621564 -0.036756486 -0.033597287 -0.010804899 0.099856526
0.3759028 0.31821573 -0.15600345 0.3684125 -0.0452952 -0.15213227 -0.022692619 -0.032529
0.09189424 -0.23560192 -0.08339292 0.091902785 -0.2503126 0.33494008 0.13195096 0.21539728
-0.29958308 -0.052254938 0.24422468 0.13599627 0.26188502 0.044303704 -0.49970597 0.0981914
-0.11948258 -0.27332592 -0.26852262 -0.14498295 -0.32846975 -0.08181986 0.1573807 -0.2859592
0.28291336 -0.16257565 -0.18458186 0.21370867 0.15644145 -0.0794225 -0.110751316 0.5996504
0.14541557 -0.25314516 0.07505072 0.3452765 -0.11427241 0.09455177 -0.018000765 -0.2374812
0.32088417 -0.37111458 -0.19574842 0.3411431 -0.17033593 0.1348703 -0.47246504 0.30592433
-0.24432845 0.3103672 -0.34828126 -0.2657809 -0.39321 0.15350895 -0.059012625 -0.22011238
0.17520747 -0.19256148 0.15808491 -0.29569387 -0.618734 -0.32019 -0.023923105 -0.36433375
0.41860542 -0.29695192 -0.3290964 -0.22214523 0.16921122 0.2611421 -0.74957526 -0.037054706
-0.29272997 0.14779347 -0.17300658 -0.21722981 -0.24053611 -0.030910611 -0.29928976 -0.36732575
0.17002779 -0.11570647 -0.24994543 0.23003754 -0.22145161 -0.37887275 -0.14465392 -0.20316584
-0.23971531 -0.2526181 -0.12008814 -0.041292425 -0.36271146 -0.19128917 -0.20406687 0.3154515
0.30323002 0.29220077 -0.09086005 -0.0734532 0.02824857 -0.25013176 -0.5815107 -0.1186372
0.38809627 0.75834966 -0.37340555 0.125943 -0.15742959 -0.18424602 0.15408204 -0.2951281
0.33312097 -0.92539066 0.437489 -0.19388558 -0.32560673 -0.29175365 -0.47017524 0.3994684
-0.1657732 0.032516956 -0.1577915 0.04298715 -0.22866419 -0.07997954 -0.087331474 -0.22383077
-0.30370963 -0.2159636 0.05868373 0.18512721 0.22062424 -0.6471391 0.35568014 0.10278576
-0.10098554 -0.05257274 0.3374576 0.093757614 -0.40154168 -0.1557619 -0.19127646 -0.19403376
0.0997138 0.08008689 0.06659311 -0.09712595 0.3729422 0.038796715 -0.5482535 -0.2973218
0.040605433 -0.12082179 0.36015844 0.14837782 0.059444904 0.03313262 0.34473988 -0.08013472
-0.3626907 0.61308867 -0.3224812 -0.012743895 0.2435385 0.071731895 0.281087 0.26806664
-0.006324957 -0.62334985 0.4055616 0.17533445 -1.2872418e-05 0.27823734 -0.049959555 -0.03689476
0.08872487 0.061495207 -0.059685003 -0.13437112 0.10103334 0.18870358 0.22634952 0.4421859
0.40032354 0.29090032 -0.12294004 -0.2603956 0.2976398 -0.081301026 0.06695699 0.37664175
0.0741593 -0.4760154 0.36032274 0.25193223 0.18219696 0.1853219 -0.73539215 0.07869631

Predict/spark1/expand3x3/separable_conv2d/depthwise f4 [8]
00000000: 0000 0000 0000 0000 0000 0000 0000 0000
00000010: 0000 0000 0000 0000 0000 0000 0000 0000
0.0 0.0 0.0 0.0 0.0 0.0 0.0 0.0

Predict/spark1/expand3x3/separable_conv2d/depthwise1 f4 [1, 3, 3, 8]
00000000: d9e6 943e db76 ca3e dbe9 6dbe ba86 313d
00000010: 4bea ba3e 848c 7cbd 0c3d 243f f35b 35bf
00000020: 19b2 21bd 96ab 27be 9dd0 1abe 6064 a3bd
00000030: 9f8b adbe eeb5 74be 0723 82be 2408 ac3b
00000040: c57c b9be 0c2d 57be a02d 70be c699 063e
00000050: 816b d83c 4a64 5cbe 70f6 ab3d 00b0 513e
00000060: 68d8 a63e 5758 fbbd 6412 96be da78 4f3c
00000070: d9f2 1f3d 946a 813e 37fa b93d 4efb 34bf
00000080: 32b6 a5be 77ab 40be e84f aebe 694e 733e
00000090: 1f46 94be ca6b 0b3e 91d5 4abd 80d9 bb3d
000000a0: df9e 0ebe 323a c1be 0b8f 813e fc72 a23d
000000b0: 2435 dabe a4f9 ca3d 3e11 f23d bd73 983d
000000c0: c091 123e efa5 f93e 0c20 b93d 31cd 75be
000000d0: 31bb 2bbd 8644 993e 0a99 b33e 4b55 66be
000000e0: 948a 10be 1b99 88be ea09 53bd 5a21 5bbe
000000f0: 8efd a2be d8ee 0cbe 6d73 1d3e cc28 ca3e
00000100: 2bbd bfbe 0e94 0fbd 74fb 853e 13f9 4a3e
00000110: 86fd 68be 46e8 893e 8355 933e a18e e93d
0.29082373 0.39543805 -0.2323374 0.043341376 0.36506876 -0.061657444 0.6415565 -0.7084343
-0.039476488 -0.16374049 -0.15118642 -0.079781294 -0.33895585 -0.23897526 -0.2541735 0.005249994
-0.36228004 -0.21013278 -0.23454905 0.13144597 0.02641845 -0.21522632 0.083966136 0.20477295
0.3258698 -0.12272709 -0.29310906 0.012663091 0.039049957 0.25276625 0.09080928 -0.7069596
-0.32365566 -0.18815409 -0.3404534 0.2376038 -0.28959748 0.13615337 -0.04952008 0.09172344
-0.13927792 -0.37739712 0.25304446 0.07932088 -0.42618668 0.099108964 0.11819695 0.0744395
0.14313412 0.4875941 0.090393156 -0.24004056 -0.041926567 0.29935092 0.35077697 -0.22493474
-0.14115363 -0.2667931 -0.051523127 -0.21399441 -0.31834072 -0.13762987 0.15376063 0.3948425
-0.3744901 -0.035053305 0.26168406 0.19821577 -0.22752962 0.26935023 0.28776178 0.114041574

Predict/spark1/expand3x3/separable_conv2d f4 [32, 1, 1, 8]
00000000: 6f43 90be 50e8 91bc 7a63 b53b 46fc c03e
00000010: 2d61 5f3e 9d31 a83e d29c 09bf 3d55 4fba
00000020: 2a92 053b be2a 673e 76bc 6e3f 8ef7 083d
00000030: 8982 94be ef77 f63e 1640 803b ab94 89be
00000040: e2e1 1bbe 9f72 eebe d9aa cf3e 209b 7e3e
00000050: 282c 1dbe e426 bbbb d330 4e3e 4ec9 e9bd
00000060: 1ff4 813e 9645 83be ab62 323e 7c6a 7c3e
00000070: 92ee 3fbd 9e23 34be b138 95be 1030 753d
00000080: ddba 1fbf 1acf c93e 1e69 a6be 1cdc f53c
00000090: 426e 3a3e 02c0 e93e 6dfb ecbd d5c8 ddbd
000000a0: 3a88 953e 46b0 1abf 0ab7 5bbe a8a3 b73e
000000b0: 610e 533e 8756 753e df85 e8be 478b 3bbe
000000c0: 7aeb b33d 0e7e 0bbf b907 4fbe 1abf 823c
000000d0: ed10 8ebe 9318 da3e 5b21 0bbf cecf babb
000000e0: a34c e63e 77f1 40be 51ce 213e d43b 13be
000000f0: e7d5 04be 1bf5 fa3e e8a7 d83d ffb3 1cbe
00000100: d50c 143e 986a a93e 9c49 88be 6caf 913e
00000110: 2c70 c43e 2078 cdbd 51ea 443e 3592 b83e
00000120: 659e dd3e dfa0 c4bd 67a9 cb3c dedf be3e
00000130: 2adb b0bd 3e6e 613e 54c6 01bd 226b d9be
00000140: 52c2 7cbe 087c 343f eddb 1fbe 6f16 573e
00000150: f9fa 6ebe cdc1 1c3e c126 723e 8213 2d3e
00000160: fc6d 05bf ee92 f23e d0f4 58be d4b4 9ebe
00000170: e316 94bc 5e61 023f 0414 33be d39e 2d3e
00000180: da56 ac3e 2b5c e2bd 14a7 81be aa60 33be
00000190: 2ac5 be3d 2238 163d ab0c 1dbf 608a e73d
000001a0: 53e1 893d 345f ee3d c03d 693c c740 f5bd
000001b0: 3cf7 e0be 181a 6fbd dfe1 473e c57d e9be
000001c0: 15ba c5be eda1 b33e e5b8 eb3e 4ba4 90be
000001d0: d4ba 84be 8ee2 dc3e cabc 14bf 429c 52be
000001e0: 60eb 6bbe 1c8b 15bf aaba f23e 559d 40b9
000001f0: 6b50 99bd fc7f d83c 2d74 babe 265e 98be
00000200: 93d9 ea3b 66ee 383e 7d61 a43c 701f 213e
00000210: d1c6 2d3e 87bc f93d 85b9 7fbe ff59 01bf
00000220: 677c 92be 0516 cebe e298 ccbe b287 183e
00000230: 566f 23be a83f cf3e ffd7 01be 305b 313c
00000240: 1282 38be 1036 563e 4fc8 393b 3550 9d3e
00000250: 5509 e43e a577 0d3e e79c 0ebf a393 a6be
00000260: 9af0 6fbe 5364 d83d 0719 29bd 02d8 b03e
00000270: ab18 443e 59eb 0bbd 891e adbc c096 cf3c
00000280: 4a6b aa3e 251f 2c3f c183 0f3f 040f 863d
00000290: a832 bb3e 40c8 153f dcd6 f13e 68fd a0bd
000002a0: edbd c1bd eda2 893e 053d 0a3e ee03 723e
000002b0: 5f19 293e 6574 713e 064d 66be fa64 ee3d
000002c0: e728 dd3d 8116 eb3d cdf0 0f3d 7b72 96be
000002d0: 2bb7 f2be cc65 963e cd2e ba3e 8ccc 763f
000002e0: 410f 12bf eee7 3b3f 7cd7 273f 3160 3f3d
000002f0: 458c 103b b30e b03d e55f 823d 9e51 043f
00000300: b92e 053e 6676 353f 52b8 ea3e baec 2abe
00000310: 7d1a 07be 9c05 7b3d ae7a 2bbd d704 f7be
00000320: 4d30 523d dc89 863e 2764 f13d 4213 7c3e
00000330: f84d 6abe d3ec d3be 85b4 7c3d 5b79 e1be
00000340: 6f40 82bc 0ebf 54be 924a 323e b6b4 c5be
00000350: 4dde dbbe 2981 5e3c 951a 843e a649 b1be
00000360: 9c7d ebbe d8e2 a63e ea40 c93d deb4 fdbd
00000370: aea5 00be 4dce b3be 3043 9a3e 95d9 aa3f
00000380: 5620 1f3e 8d2a 85be 532f a2bd 747e 70be
00000390: b7e5 ffbc 7a40 923e 565d 2dbe c0f9 0f3e
000003a0: 3c4f 0bbe 5fc6 ce3d 8f57 babe a23c ef3d
000003b0: 5c86 48bc a86e 83bb 3499 f1be 7a25 5d3e
000003c0: 1deb 803e bbc4 46be d2f3 abbc 3653 383d
000003d0: 4a1d 0d3f 9c8c 613e 2be9 863e 63c2 e7be
000003e0: 0b01 e1bd 3481 31be aaf4 8ebe 4059 8bbe
000003f0: da98 0a3f 80f6 5b3e 1434 213e 4549 483e
-0.28176448 -0.01781097 0.00553554 0.3769247 0.21814413 0.32850352 -0.53754914 -0.0007909125
0.002038131 0.22574899 0.9325632 0.03343921 -0.2900584 0.48138377 0.0039138896 -0.26871237
-0.15222886 -0.46571824 0.40560034 0.24863863 -0.15348876 -0.0057114232 0.20135812 -0.11415349
0.25381562 -0.25639027 0.17420451 0.24649996 -0.046858378 -0.17591712 -0.29144815 0.05986029
-0.62394506 0.39415818 -0.32502073 0.030012183 0.18206123 0.45654303 -0.11571393 -0.10829321
0.29205495 -0.6042522 -0.21456543 0.35867047 0.20610954 0.23958789 -0.45414636 -0.18314849
0.08785148 -0.5448922 -0.2021779 0.015960265 -0.27747288 0.42596874 -0.5434777 -0.005701042
0.44980344 -0.18842112 0.1580136 -0.14378291 -0.12972222 0.49015126 0.105789006 -0.15303038
0.1445802 0.33089137 -0.2661866 0.2845415 0.3836683 -0.10032678 0.1923001 0.36049047
0.43284908 -0.09600996 0.02486105 0.37280172 -0.08635552 0.2201471 -0.03168328 -0.42464548
-0.24683502 0.70501757 -0.15611239 0.21004651 -0.23337926 0.15308304 0.23647596 0.16901973
-0.5212095 0.47377723 -0.21187139 -0.30997336 -0.01807732 0.5092982 -0.17488104 0.16955118
0.33660012 -0.11052736 -0.25322783 -0.17517343 0.0931495 0.036674626 -0.61347455 0.1130569
0.0673243 0.11639252 0.014235914 -0.11975246 -0.43938625 -0.058374494 0.19519757 -0.45603767
-0.38618532 0.35084477 0.460395 -0.28250346 -0.2592379 0.43141598 -0.5810057 -0.2056742
-0.23039007 -0.5841539 0.47408038 -0.00018369158 -0.07486042 0.026428215 -0.3641676 -0.2975933
0.00716705 0.18059692 0.020066017 0.15734649 0.16970374 0.12194162 -0.24973114 -0.5052795
-0.28610536 -0.40251175 -0.3996039 0.14895514 -0.1596044 0.40478253 -0.12680052 0.010824963
-0.18018368 0.2091906 0.0028348153 0.30725256 0.4453837 0.13815172 -0.55708164 -0.32534513
-0.23431626 0.1056601 -0.041283634 0.345398 0.19150035 -0.034159992 -0.021132724 0.025340438
0.3328498 0.6723502 0.56060416 0.06545833 0.36562085 0.5850868 0.47234237 -0.078608334
-0.094600536 0.26882115 0.1349984 0.23634312 0.16513585 0.23579557 -0.2249032 0.116403535
0.10798817 0.11478902 0.035141755 -0.29384217 -0.4740537 0.2937454 0.3636383 0.96405864
-0.57054526 0.7340077 0.6556318 0.046722595 0.0022056263 0.08596554 0.06365947 0.5168704
0.13006105 0.70883787 0.4584375 -0.16691867 -0.13193698 0.061284646 -0.041865043 -0.4824588
0.051315594 0.26277053 0.11786681 0.24616721 -0.22881305 -0.4139162 0.061695594 -0.440379
-0.015899865 -0.20776007 0.17411259 -0.38614434 -0.4294304 0.013580599 0.2580153 -0.34626502
-0.4599427 0.32594943 0.098268345 -0.12388013 -0.12563202 -0.35118333 0.30129385 1.3347651
0.15539679 -0.26009026 -0.07919183 -0.23485738 -0.031237466 0.28564817 -0.16930136 0.14060116
-0.13604444 0.1009643 -0.36394927 0.11681487 -0.012239065 -0.004010994 -0.47187197 0.21596327
0.25179377 -0.19410984 -0.020990286 0.04500123 0.55122817 0.22026294 0.26349768 -0.45265493
-0.10986527 -0.17334443 -0.2792104 -0.2721653 0.5413948 0.21480751 0.15742522 0.195592
