v3/DWT_Recons_L6_TFLite.tflite (tflite, 708204 bytes, 20 tensors)

Predict/fc0/BiasAdd/ReadVariableOp/resource f4 [64]
-0.0009381132 -0.019759525 0.028674899 -0.0021846963 0.0033333893 -0.0023846354 -0.00065435836 0.0
0.013201589 0.0012890556 0.0 -0.0024014255 -0.008610787 -0.012844309 0.0006524778 0.014698588
-0.00031621143 -0.025917033 0.0065703723 -0.023726026 -0.0073524225 -0.0066112266 0.025973128 -0.0015733561
-0.0020434242 0.0 -0.024102584 0.009752239 0.032486517 0.0 0.015148896 -0.012175969
-0.02617958 0.010965339 -0.0028405143 -0.01687516 0.028691169 0.015006745 -0.0015502821 -0.011142262
-0.0019406483 0.00571166 0.0012639053 -0.013574289 -0.0007732906 -0.018120809 -0.001357333 -0.010841436
-0.012740832 0.0 0.00048399117 0.0067331623 -0.0008180334 0.0 -0.0029283995 -0.006976836
-0.010665076 -0.009328488 -0.0056995424 0.01847867 0.026578587 0.0025343362 -0.014037428 -0.0168923
00000000: b6eb 75ba bade a1bc 9fe7 ea3c 1f2d 0fbb
00000010: fe74 5a3b 8b47 1cbb 3f89 2bba 0000 0000
00000020: 7a4b 583c 87f5 a83a 0000 0000 3c61 1dbb
00000030: 4214 0dbc f070 52bc 0b0b 2b3a 59d2 703c
00000040: 2ec9 a5b9 f54f d4bc 474c d73b 155d c2bc
00000050: 97ec f0bb fda2 d8bb 99c5 d43c 1239 ceba
00000060: f8ea 05bb 0000 0000 c872 c5bc dbc7 1f3c
00000070: 9510 053d 0000 0000 1333 783c b77d 47bc
00000080: 8f76 d6bc f7a7 333c ec27 3abb c73d 8abc
00000090: be09 eb3c dade 753c d632 cbba 098e 36bc
000000a0: 5a5d feba e028 bb3b a0a9 a53a b266 5ebc
000000b0: a7b6 4aba 1772 94bc 8ae8 b1ba 47a0 31bc
000000c0: ecbe 50bc 0000 0000 32c0 fd39 dca1 dc3b
000000d0: 4b71 56ba 0000 0000 64ea 3fbb f19d e4bb
000000e0: 92bc 2ebc 84d6 18bc 3ac3 babb 9460 973c
000000f0: 56bb d93c 1b17 263b 3efd 65bc b961 8abc

Predict/fc1/BiasAdd/ReadVariableOp/resource f4 [32]
-0.011942286 0.021603601 -0.0004172002 0.0018448269 0.021306774 0.059110098 -0.011457722 -0.015467061
0.010898747 0.026572663 0.018911282 0.0077552362 -0.044058956 0.014938884 0.011701249 0.030469742
-0.036120974 0.028196821 0.032723017 0.02854895 0.017179469 0.057332218 -0.032485213 -0.019385122
-0.03235992 -0.012266466 -0.0049053524 -0.04410594 0.069231465 0.0260942 -0.015797688 0.04157248
00000000: 94a9 43bc 09fa b03c aabb dab9 1ece f13a
00000010: 8b8b ae3c 6e1d 723d 2bb9 3bbc 8e69 7dbc
00000020: a890 323c eaae d93c d5eb 9a3c a31f fe3b
00000030: 2a77 34bd 39c2 743c 98b6 3f3c ae9b f93c
00000040: 96f3 13bd 05fd e63c 9208 063d 7ddf e93c
00000050: f5bb 8c3c 30d5 6a3d 370f 05bd 8ccd 9ebc
00000060: d68b 04bd 4af9 48bc 14bd a0bb 6ea8 34bd
00000070: 3ac9 8d3d 81c3 d53c 276a 81bc e847 2a3d

Predict/fc2/BiasAdd/ReadVariableOp/resource f4 [32]
0.06438265 -0.012920387 0.08301507 0.04153872 -0.028405251 0.046851266 -0.0028328646 -0.0071399133
-0.01949992 -0.072644405 -0.017268512 0.04495483 -0.055148166 0.06414546 -0.0016525764 0.1117283
-0.012709355 0.070007764 0.06495547 -0.0073492113 -0.02947205 0.02494797 0.03360227 0.07434429
0.0065670293 -0.057406902 0.023901062 -0.008345975 0.030335475 0.053232137 -0.03682136 0.06977095
00000000: 0ddb 833d 08b0 53bc ce03 aa3d 8124 2a3d
00000010: 21b2 e8bc 1de7 3f3d 95a7 39bb eff5 e9bb
00000020: 4cbe 9fbc 97c6 94bd b276 8dbc 8e22 383d
00000030: 0be3 61bd b25e 833d 439b d8ba cfd1 e43d
00000040: e63a 50bc 3b60 8f3d 6007 853d a7d1 f0bb
00000050: 5e6f f1bc af5f cc3c 89a2 093d d241 983d
00000060: 3c30 d73b 8023 6bbd 29cc c33c 8ebd 08bc
00000070: 1a82 f83c f109 5a3d ffd1 16bd 12e4 8e3d

Predict/layer_conv1/BiasAdd/ReadVariableOp/resource f4 [4]
0.029895969 -0.0018521252 -0.07040156 0.008387948
00000000: 64e8 f43c 02c3 f2ba b12e 90bd 9b6d 093c

Predict/layer_conv2/BiasAdd/ReadVariableOp/resource f4 [8]
-0.01967356 0.027836405 0.014619211 -0.026611432 -0.02783878 0.012698092 0.02060586 -0.027707953
00000000: 722a a1bc 2c09 e43c 6a85 6f3c 3800 dabc
00000010: 270e e4bc a80b 503c 9fcd a83c cafb e2bc

Predict/layer_conv3/BiasAdd/ReadVariableOp/resource f4 [16]
-0.010697169 -0.002539581 -0.02549715 0.023304189 0.020847818 0.022296656 0.015347185 -0.0232224
0.020773944 0.009332261 -0.031253505 0.011909613 0.023759948 0.038271405 0.020989738 0.026623601
00000000: 2e43 2fbc 196f 26bb 66df d0bc 6de8 be3c
00000010: 0bc9 aa3c 7aa7 b63c c272 7b3c e73c bebc
00000020: 1e2e aa3c 57e6 183c ad03 00bd 8a20 433c
00000030: 39a4 c23c 7ac2 1c3d acf2 ab3c bd19 da3c

Predict/layer_conv4/BiasAdd/ReadVariableOp/resource f4 [32]
-0.011157327 0.03661114 -0.0137293665 -0.021075796 0.029174792 0.011811654 -0.032369297 -0.025946638
0.033956103 0.01504427 -0.028196286 0.026598047 0.025538756 0.027866771 0.03309784 0.011621957
0.024866669 0.014813342 -0.015475114 0.014458871 -0.0095286025 -0.022479745 0.023435526 -0.027514372
0.001607243 -0.031774975 0.003640618 -0.0009713273 0.028133627 -0.03431396 -0.0070192707 -0.018587487
00000000: 39cd 36bc 90f5 153d 23f1 60bc 26a7 acbc
00000010: f9ff ee3c ab85 413c ab95 04bd 0b8e d4bc
00000020: 8e15 0b3d 3e7c 763c e6fb e6bc 26e4 d93c
00000030: a736 d13c db48 e43c 9a91 073d 056a 3e3c
00000040: 2fb5 cb3c a9b3 723c 558b 7dbc e7e4 6c3c
00000050: db1d 1cbc 7127 b8bc dcfb bf3c d265 e1bc
00000060: 20aa d23a 7a26 02bd 6f97 6e3b aca0 7eba
00000070: 7e78 e63c cb8c 0cbd e901 e6bb c944 98bc

Predict/layer_conv5/BiasAdd/ReadVariableOp/resource f4 [64]
0.029849581 0.02060667 -0.03326556 0.008019019 -0.0063948804 -0.031371873 -0.020399304 0.044338208
-0.019281238 0.019744921 -0.011139667 0.020739788 -0.025297496 0.01689674 0.0042322446 -0.012599272
0.019228904 0.006687944 0.04097385 0.03584275 -0.019030377 -0.01898168 0.012700232 0.021055946
0.030663714 0.033780333 -0.016738253 0.009903575 0.0 0.0120312255 -0.043669377 -0.03160582
0.019624902 -0.015739793 0.0013434693 0.0033758434 -0.03747212 -0.008327265 0.02165334 -0.014402225
-0.0006917866 0.029615907 -0.017613126 -0.041477453 -0.008117691 -0.029378332 0.0043851645 0.015522923
-0.030604828 -0.031727426 -0.031488713 -0.021371182 -0.012156575 0.00227441 0.043096922 0.008776323
-0.032591574 0.043347113 0.020147989 -0.02550981 -2.2339396e-05 -0.0026099766 -0.007285163 0.02939255
00000000: 1c87 f43c 52cf a83c 7841 08bd 3462 033c
00000010: 258c d1bb cb7f 00bd 711c a7bc fb9b 353d
00000020: b0f3 9dbc 1ac0 a13c 2683 36bc 7de6 a93c
00000030: b23c cfbc 086b 8a3c a4ae 8a3b 2d6d 4ebc
00000040: ef85 9d3c 8a26 db3b 32d4 273d d9cf 123d
00000050: 98e5 9bbc 787f 9bbc a214 503c 857d ac3c
00000060: 7832 fb3c 3f5d 0a3d a91e 89bc 9b42 223c
00000070: 0000 0000 9e1e 453c a9de 32bd 1b75 01bd
00000080: 67c4 a03c bdf0 80bc 5917 b03a 413d 5d3b
00000090: 5e7c 19bd 156f 08bc 5862 b13c 4ff7 6bbc
000000a0: 0359 35ba 0f9d f23c 6749 90bc 43e4 29bd
000000b0: 1000 05bc d4aa f0bc 6db1 8f3b dc53 7e3c
000000c0: fab6 fabc 9ef4 01bd 4ffa 00bd 9e12 afbc
000000d0: 5f2c 47bc 450e 153b 6686 303d 91ca 0f3c
000000e0: be7e 05bd be8c 313d 650d a53c f3f9 d0bc
000000f0: 7d65 bbb7 240c 2bbb 60b8 eebb a5c8 f03c

Predict/layer_conv6/BiasAdd/ReadVariableOp/resource f4 [128]
-0.009819878 0.014247848 -0.028413046 0.04379868 0.008249514 0.01168434 0.027393896 -0.007206502
0.015091535 -0.016337462 -0.023599807 -0.007631863 0.039193016 -0.020662865 0.023683947 -0.011675808
0.032168034 -0.0042432924 0.007558906 0.024418289 -0.011966561 -0.025972327 0.0124016395 0.034931377
-0.01197298 0.015462604 0.018756812 0.005419715 0.009458101 -0.0029065928 0.027526885 0.0028336283
-0.017006492 0.035702437 0.03155373 -0.04015311 -0.00063388766 0.0282338 -0.03480988 -0.013697813
-0.0017016586 0.020258408 0.012475277 0.0050120964 -0.01437448 -4.460282e-05 0.015865698 -0.003460458
0.023644803 0.035115026 0.0043934067 -0.0059689055 0.032637075 -0.010571669 -0.015617351 0.012044945
0.03620538 -0.019099213 -0.014069786 0.007066619 -0.013853807 0.02445863 -0.007535973 0.033260245
0.03731325 0.045404747 0.04010655 -0.031728767 -0.008250435 0.009780125 -0.020267876 -0.00015897657
0.010976906 0.01976039 -0.022966178 0.008574569 0.016595844 -0.0013550292 0.0 -0.028995015
0.0 0.026917223 -0.022174567 0.0046349927 -0.030284915 0.008619277 0.0012975873 -0.01364831
-0.020875337 0.0025910528 0.021018947 -0.020500548 -0.027479153 -0.0004232755 -0.017249908 0.038729828
-0.0035202892 0.013204116 -0.01906658 0.008927798 0.006005237 0.039854906 -0.0410605 0.015662752
0.01622014 0.0058467803 0.0392846 0.007284616 -0.018952826 -0.0050289137 0.025440654 -0.031076314
0.0053103897 -0.0022607835 0.008037113 -0.0013805726 0.014863885 -0.002200506 -0.0006910312 -0.0010964226
-0.027591085 -0.03515116 0.032157574 0.022213228 0.0054637156 0.0043961518 -0.0006185257 0.008072596
00000000: 8ee3 20bc ce6f 693c 7ac2 e8bc 3f66 333d
00000010: f828 073c ad6f 3f3c 2a69 e03c 8524 ecbb
00000020: 7c42 773c 24d6 85bc 6254 c1bc b514 fabb
00000030: db88 203d 2b45 a9bc d604 c23c e34b 3fbc
00000040: a1c2 033d 510b 8bbb b3b0 f73b dd08 c83c
00000050: 650f 44bc ebc3 d4bc 3f30 4b3c 3414 0f3d
00000060: 512a 44bc dd56 7d3c e3a7 993c dd97 b13b
00000070: 27f6 1a3c 897c 3ebb 1080 e13c 65b4 393b
00000080: 3351 8bbc b83c 123d 7c3e 013d 9677 24bd
00000090: 7b2b 26ba 924a e73c ce94 0ebd cb6c 60bc
000000a0: 300a dfba f6f4 a53c 1b65 4c3c 833c a43b
000000b0: f082 6bbc ea13 3bb8 c8f8 813c dac8 62bb
000000c0: bfb2 c13c c6d4 0f3d 91f6 8f3b cf96 c3bb
000000d0: 74ae 053d cb34 2dbc ebdf 7fbc 2958 453c
000000e0: 184c 143d f475 9cbc f684 66bc 198f e73b
000000f0: 14fb 62bc 775d c83c 53f0 f6bb e53b 083d
00000100: c7d5 183d 54fa 393d c446 243d 06f6 01bd
00000110: d52c 07bc d13c 203c d108 a6bc f3b2 26b9
00000120: 7bd8 333c 8be0 a13c 9123 bcbc 597c 0c3c
00000130: 02f4 873c 3c9b b1ba 0000 0000 f486 edbc
00000140: 0000 0000 8281 dc3c 70a7 b5bc 23e1 973b
00000150: 1218 f8bc de37 0d3c ce13 aa3a 299d 5fbc
00000160: c102 abbc a7ce 293b ed2f ac3c c4f0 a7bc
00000170: f61b e1bc 13eb ddb9 ae4f 8dbc 2ba3 1e3d
00000180: a7b4 66bb 1456 583c 8431 9cbc e645 123c
00000190: 94c7 c43b e63e 233d 0e2f 28bd 2c4f 803c
000001a0: 19e0 843c 5996 bf3b e4e8 203d cab3 ee3b
000001b0: f542 9bbc 96c9 a4bb eb68 d03c c193 febc
000001c0: c702 ae3b a729 14bb 18ae 033c 54f4 b4ba
000001d0: a787 733c 5d36 10bb 5226 35ba d6b5 8fba
000001e0: b306 e2bc aafa 0fbd a9b7 033d 84f8 b53c
000001f0: f808 b33b 980d 903b 8f24 22ba ec42 043c

Predict/op/BiasAdd/ReadVariableOp/resource f4 [4]
0.028354466 -0.059294883 0.044423986 -0.053958472
00000000: a047 e83c 31df 72bd edf5 353d 8f03 5dbd

Predict/fc0/MatMul f4 [64, 1152]
0.009571073 -0.016026579 -0.019717313 -0.048137132 0.05781701 -0.03571834 -0.0035506617 0.032313075
-0.033255495 -0.0194797 0.055066213 -0.029855374 -0.041337844 -0.042676672 0.045070678 0.06038954
0.018199272 0.004189262 0.053435314 -0.07028456 0.017813157 0.034026857 0.063462056 -0.06591124
-0.016881919 -0.0029677667 0.008754268 0.062498026 0.05389218 0.035788313 -0.06726629 -0.053173605
-0.013988486 0.050490398 0.005543928 -0.05637765 -0.04852742 0.05554929 0.009077203 -0.03788504
-0.028803367 -0.011810699 -0.033921108 -0.029714696 0.06246083 -0.06518823 -0.0433497 0.008087864
0.0093489075 -0.022885457 -0.05855552 0.010484267 -0.01753463 0.058846503 -0.041182917 0.010383636
0.051115334 -0.030562159 0.052043766 0.056526337 -0.029352235 0.05693263 0.050769594 -0.06302246
0.013245186 -0.010286027 0.027681824 -0.036163528 -0.013594464 -0.03499072 0.042026225 0.022728208
-0.058404367 0.023692831 0.035723366 -0.061353173 0.026381094 0.00016698986 -0.029610027 0.023829935
0.0364244 0.011044991 -0.000877267 -0.010205649 0.033780273 -0.027412396 -0.06330154 -0.044266384
0.02021592 -0.05790666 -0.0015041637 -0.04579821 0.02390502 0.00012139976 0.010344666 0.012685185
0.034569517 -0.053101487 -0.03320539 -0.042198587 -0.036519323 0.03669315 -0.015058441 0.011290475
-0.06989408 0.06587336 -0.046545234 0.046964806 0.017189527 0.047787245 -0.041172083 -0.032630306
-0.055920906 0.04258462 0.058705322 0.0063175927 -0.063744396 0.023672096 -0.004390026 0.053487346
-0.036469907 0.062574424 0.0052651823 -0.01891967 -0.021139342 0.020247158 -0.033667736 0.03786532
0.024290241 0.032206785 0.01892666 0.036419287 -0.011501916 0.04354619 -0.0616344 -0.059578255
0.0654079 0.01202592 -0.009248146 -0.033335432 0.034702152 0.032776598 0.014955644 -0.043542556
-0.070131876 -0.0032956994 0.025588624 0.031196382 -0.018090142 -0.03216342 0.0004326515 -0.017361594
0.044349957 0.020937305 0.05746646 -0.0040497384 -0.06751511 -0.021668583 0.062146917 0.026241591
0.009051144 0.01314687 -0.0641038 -0.06892732 -0.030841902 0.0007319525 0.043320283 0.003595108
0.042858656 0.004420942 -0.004376585 -0.05010151 0.055171397 -0.009500332 0.03702995 0.011966004
0.01883385 0.04462418 0.058113363 0.0053639403 -0.051643606 0.028400538 0.045446627 0.058704942
-0.058208015 0.031204065 -0.020235334 -0.043212343 0.0015128294 -0.05208612 -0.060033888 -0.06674952
0.06572313 -0.011260541 -0.050168492 0.029347904 -0.04238053 -0.008555994 -0.04258381 -0.0581077
-0.0030913563 -0.046309046 -0.0060275313 0.046880595 -0.045133397 -0.017145913 -0.047638714 -0.04100459
0.06225332 -0.0017463575 -0.053669836 0.0669347 -0.018300802 -0.0694343 0.015572028 -0.009237738
-0.06124561 0.06355699 0.015499986 0.0066819303 0.004843515 0.025774807 -0.007152734 0.0053036488
-0.048076235 -0.07089646 -0.038022723 0.034714118 -0.07002674 -0.047454797 -0.02571214 -0.06980797
0.056372028 -0.07002607 -0.020168325 0.060427375 -0.024658263 0.06736818 -0.042997044 -0.0053308774
0.05137122 -0.018571809 -0.067549035 0.034966987 -0.040668122 -0.06314078 -0.006258307 -0.02452645
0.017861236 0.0462676 -0.06547084 -0.007008595 0.017004544 0.06230455 0.053650282 -0.05618369
00000000: fdcf 1c3c 2c4a 83bc 3486 a1bc 712b 45bd
00000010: 87d1 6c3d 654d 12bd 38b2 68bb b75a 043d
00000020: ea36 08bd e493 9fbc 1c8d 613d 4293 f4bc
00000030: df51 29bd bccd 2ebd 089c 383d 065b 773d
00000040: a416 953c 1446 893b fdde 5a3d 5af1 8fbd
00000050: e6ec 913c bf5f 0b3d 65f8 813d 79fc 86bd
00000060: f34b 8abc dd7e 42bb 106e 0f3c eefd 7f3d
00000070: 0cbe 5c3d c496 123d e9c2 89bd 91cc 59bd
00000080: f62f 65bc 05cf 4e3d d7a9 b53b 40ec 66bd
00000090: b0c4 46bd a787 633d 8db8 143c 582d 1bbd
000000a0: 0af5 ebbc a981 41bc dcf0 0abd 3c6c f3bc
000000b0: edd6 7f3d 6881 85bd 748f 31bd f682 043c
000000c0: 292c 193c 487a bbbc ead7 6fbd 34c6 2b3c
000000d0: c9a4 8fbc 0809 713d 6baf 28bd 2020 2a3c
000000e0: 505e 513d 7e5d fabc d82b 553d 2988 673d
000000f0: 1974 f0bc 3032 693d c7f3 4f3d eb11 81bd
00000100: 5602 593c b986 28bc fec4 e23c 3520 14bd
00000110: 51bb 5ebc 6e52 0fbd b123 2c3d 8230 ba3c
00000120: 6b39 6fbd 7817 c23c aa52 123d 774d 7bbd
00000130: 2a1d d83c 001a 2f39 ba90 f2bc ff36 c33c
00000140: c031 153d 0df6 343c 64f8 65ba 9835 27bc
00000150: 2f5d 0a3d f68f e0bc 3da4 81bd ab50 35bd
00000160: db9b a53c 892f 6dbd 5c27 c5ba e796 3bbd
00000170: 76d4 c33c 0098 fe38 ad7c 293c 86d5 4f3c
00000180: c498 0d3d f280 59bd 6002 08bd 6dd8 2cbd
00000190: 4995 15bd 8e4b 163d aeb7 76bc affb 383c
000001a0: a124 8fbd 9de8 863d 37a6 3ebd 2b5e 403d
000001b0: 0dd1 8c3c 8fbc 433d 0fa4 28bd 5ba7 05bd
000001c0: 520d 65bd 366d 2e3d fe74 703d cf03 cf3b
000001d0: 6c8c 82bd fceb c13c 35da 8fbb 8c15 5b3d
000001e0: 7861 15bd 0527 803d 8d87 ac3b 6cfd 9abc
000001f0: 6a2c adbc 5edd a53c 2ee7 09bd aa18 1b3d
00000200: 54fc c63c 43eb 033d 150c 9b3c 642c 153d
00000210: 8872 3cbc 7d5d 323d 5a74 7cbd 5408 74bd
00000220: 94f4 853d 5d08 453c 8985 17bc bc8a 08bd
00000230: d823 0e3d c140 063d 8408 753c ae59 32bd
00000240: 4da1 8fbd a9fc 57bb 3c9f d13c 8e8f ff3c
00000250: c731 94bc cabd 03bd 80d5 e239 e739 8ebc
00000260: 4da8 353d b684 ab3c f361 6b3d abb3 84bb
00000270: 5d45 8abd 5082 b1bc c48d 7e3d 9bf8 d63c
00000280: 404b 143c f865 573c da48 83bd c429 8dbd
00000290: 28a8 fcbc 80e0 3f3a 9c70 313d e79b 6b3b
000002a0: 8f8c 2f3d 8ddd 903b 7569 8fbb 3e37 4dbd
000002b0: 67fb 613d 48a7 1bbc b8ac 173d 0f0d 443c
000002c0: 7249 9a3c d8c7 363d 4708 6e3d fec3 af3b
000002d0: 3f88 53bd 3fa8 e83c 3e26 3a3d 9874 703d
000002e0: 876b 6ebd ab9f ff3c 92c4 a5bc 6dff 30bd
000002f0: 224a c63a 4158 55bd 18e6 75bd f9b3 88bd
00000300: d999 863d 227e 38bc 7a7d 4dbd 046b f03c
00000310: 3597 2dbd 712e 0cbc 5c6c 2ebd 5702 6ebd
00000320: 5a98 4abb 8eae 3dbd 9982 c5bb de05 403d
00000330: ccdd 38bd 9675 8cbc d020 43bd 6ef4 27bd
00000340: 56fd 7e3d 09e6 e4ba e7d4 5bbd 0f15 893d
00000350: 90eb 95bc 9233 8ebd d221 7f3c e259 17bc
00000360: addc 7abd 2b2a 823d a7f3 7d3c 18f4 da3b
00000370: 59b6 9e3b b025 d33c 7b61 eabb 3bca ad3b
00000380: 96eb 44bd 2a32 91bd b7bd 1bbd 6430 0e3d
00000390: 2e6a 8fbd f65f 42bd 44a2 d2bc 7bf7 8ebd
000003a0: 5be6 663d d469 8fbd 0b38 a5bc b282 773d
000003b0: 2000 cabc 54f8 893d ab1d 30bd a4ae aebb
000003c0: a16a 523d e823 98bc 2657 8abd 8b39 0f3d
000003d0: 9e93 26bd f44f 81bd 7c12 cdbb b2eb c8bc
000003e0: ba51 923c 1883 3d3d 9315 86bd 5ba8 e5bb
000003f0: 1d4d 8b3c 0e33 7f3d 66c0 5b3d de20 66bd

Predict/fc1/MatMul f4 [32, 64]
0.11422098 -0.028717974 -0.05322624 -0.037685752 -0.046644546 -0.065802135 -0.1455176 -0.14810646
0.035833783 -0.044348728 -0.09553915 -0.23213814 0.022855064 0.066242814 0.18366621 -0.18901365
-0.01941055 -0.23285536 -0.15533462 0.033696078 -0.076925516 -0.15232565 -0.09153854 0.10472244
0.16308479 0.102092445 -0.036929965 -0.030975547 0.09052076 0.08000678 0.1425617 0.018925445
0.0029678731 -0.22868092 0.1784153 0.011886296 -0.07230087 -0.023648242 0.081704795 -0.0847795
-0.11859538 -0.14736558 0.07218017 0.07754104 0.20728254 -0.19433354 0.06809735 -0.004247648
-0.20713438 0.1440717 -0.19107033 0.022569945 0.20934182 -0.11414933 -0.23080969 -0.066253655
-0.17054649 -0.008282877 0.1579479 0.11550913 0.10011732 0.09807406 -0.14018424 0.019585669
-0.1210987 -0.26863256 -0.024195751 0.08507169 -0.17178272 0.09193053 0.24880646 0.2205931
0.08953912 0.14956777 -0.08458614 0.040490154 -0.058453333 0.1854657 -0.16518918 -0.17186071
-0.09780424 0.107219554 0.062417623 -0.14277036 -0.047855187 0.012199307 0.24456789 -0.024126984
0.24146692 -0.1319707 0.009520965 0.1015057 0.108620524 0.21808767 -0.03494819 -0.077310264
0.17780909 -0.14624575 -0.13811524 0.048985306 0.14826377 -0.04797185 -0.09951048 -0.25234044
-0.18034537 0.18962552 0.20181833 -0.123481795 -0.09167332 -0.15336844 -0.17697144 -0.18813303
-0.016480165 -0.14350086 0.18353917 -0.15726039 -0.04688184 0.016433239 0.0824076 0.11436368
-0.09646694 -0.06259115 0.16001783 0.20274529 0.22094561 -0.24157052 -0.2507286 -0.18396878
-0.20772451 -0.19272713 -0.24566616 0.11902028 -0.08954361 -0.24379963 -0.13610232 0.2201016
-0.021958165 0.016222633 -0.025754094 0.027671581 -0.15852135 -0.062540114 -0.24966657 -0.037566245
0.03449726 -0.028716924 0.08631276 -0.20554958 -0.033799008 -0.09919749 0.13125327 -0.20683277
0.08952659 0.2283628 -0.16308823 0.14788829 -0.05775868 -0.15794146 -0.014640451 0.07810947
-0.11530212 0.054885663 -0.0656032 -0.049513835 -0.14689788 -0.010983948 -0.23795712 0.19493468
-0.15233403 -0.122052886 0.20594145 -0.1796321 -0.014361143 0.05539503 -0.17416817 -0.11162072
-0.15971506 0.12401283 -0.226173 -0.2136402 0.13242209 -0.10602939 -0.17711446 0.060984053
-0.22589783 0.060936477 -0.09812771 -0.22498378 -0.21276659 -0.08925338 -0.21134272 -0.079154186
0.16644776 -0.0912209 0.19546282 -0.018196784 -0.08796154 0.03459087 -0.20894098 -0.00094622374
0.124879315 -0.013041872 0.028296113 0.032166276 0.12945709 0.009759124 0.23933032 -0.2139251
-0.025334395 -0.110492714 0.013356941 0.27028412 0.06839568 -0.0090703 0.029244443 -0.08611405
-0.18069457 -0.1315893 0.17978422 0.2786564 -0.115703546 0.0506593 0.11433244 0.15755922
0.051496137 0.06631599 -0.1743826 0.059640937 -0.16706452 -0.22092138 0.070406556 -0.124294646
0.09165197 0.011679335 -0.04071043 -0.24651885 -0.040549006 -0.22572364 -0.15071805 -0.18790808
0.0826295 0.188604 -0.18918774 -0.04126492 0.15380976 0.11815727 -0.17509791 -0.15159008
-0.07167883 -0.1942023 0.055530977 0.0062889345 0.21575452 0.26506093 0.037112124 0.17931001
00000000: b0ec e93d f541 ebbc c203 5abd 605c 1abd
00000010: 5a0e 3fbd 45c3 86bd 9102 15be 38a9 17be
00000020: 72c6 123d 03a7 35bd 08aa c3bd 9fb5 6dbe
00000030: 8b3a bb3c 50aa 873d ff12 3c3e cb8c 41be
00000040: e002 9fbc a371 6ebe 0a10 1fbe e604 0a3d
00000050: 208b 9dbd 41fb 1bbe 8f78 bbbd b878 d63d
00000060: b3ff 263e d815 d13d e043 17bd 6ec0 fdbc
00000070: f362 b93d 98da a33d b2fb 113e 8909 9b3c
00000080: a680 423b 552b 6abe 80b2 363e bdbe 423c
00000090: 7b12 94bd f5b9 c1bc d854 a73d e0a0 adbd
000000a0: 22e2 f2bd 01e7 16be 32d3 933d d6cd 9e3d
000000b0: e041 543e 5fff 46be a076 8b3d db2f 8bbb
000000c0: 091b 54be 8887 133e f1a7 43be 9be4 b83c
000000d0: b45d 563e 20c7 e9bd 6059 6cbe ffaf 87bd
000000e0: bda3 2ebe e7b4 07bc 18bd 213e 0d90 ec3d
000000f0: 4f0a cd3d 0edb c83d 758c 0fbe 2072 a03c
00000100: 9802 f8bd 358a 89be 2b36 c6bc 113a ae3d
00000110: cfe7 2fbe 1346 bc3d 1fc7 7e3e 28e3 613e
00000120: 4960 b73d 4b28 193e 803b adbd 01d9 253d
00000130: c36c 6fbd b8ea 3d3e 5a27 29be 41fc 2fbe
00000140: 974d c8bd ed95 db3d 9fa9 7f3d 6532 12be
00000150: cd03 44bd 9adf 473c 0170 7a3e f4a5 c5bc
00000160: 1b43 773e 5423 07be d2fd 1b3c 38e2 cf3d
00000170: 7074 de3d 6052 5f3e d525 0fbd d854 9ebd
00000180: 9613 363e 72c1 15be 156e 0dbe d1a4 483d
00000190: 75d2 173e 217e 44bd 27cc cbbd c432 81be
000001a0: 75ac 38be 312d 423e 77a9 4e3e 06e4 fcbd
000001b0: 39bf bbbd 9e0c 1dbe 0038 35be f2a5 40be
000001c0: 6901 87bc e4f1 12be b1f1 3b3e de08 21be
000001d0: 2c07 40bd 009f 863c 51c5 a83d 8137 ea3d
000001e0: 7690 c5bd ca2f 80bd b7db 233e 769c 4f3e
000001f0: 913f 623e 435e 77be 805f 80be 5062 3cbe
00000200: bcb5 54be 435a 45be e98f 7bbe e8c0 f33d
00000210: a462 b7bd 9ca6 79be 685e 0bbe 5062 613e
00000220: 9ce1 b3bc 54e5 843c 40fa d2bc 83af e23c
00000230: 6c53 22be 0815 80bd 98a8 7fbe 10df 19bd
00000240: 004d 0d3d c13f ebbc bfc4 b03d 977b 52be
00000250: d470 0abd 0e28 cbbd 4267 063e f8cb 53be
00000260: b859 b73d f0d7 693e 9a00 27be 0770 173e
00000270: 5e94 6cbd 68bb 21be 81de 6fbc dcf7 9f3d
00000280: 8523 ecbd cacf 603d f85a 86bd 05cf 4abd
00000290: 666c 16be 04f6 33bc 08ab 73be f59c 473e
000002a0: 74fd 1bbe ddf6 f9bd 51e2 523e 7af1 37be
000002b0: 004b 6bbc e6e5 623d 2459 32be 6799 e4bd
000002c0: 588c 23be 70fa fd3d e599 67be 7fc4 5abe
000002d0: a899 073e f025 d9bd 7e5d 35be 6aca 793d
000002e0: c351 67be 8798 793d 2ef7 c8bd 2662 66be
000002f0: 7cdf 59be 7aca b6bd 3a6a 58be 971b a2bd
00000300: 4871 2a3e 06d2 babd 6827 483e 6c11 95bc
00000310: 2e25 b4bd 28af 0d3d a0f4 55be 000c 78ba
00000320: bac0 ff3d 93ad 55bc 40cd e73c c9c0 033d
00000330: 6690 043e bce4 1f3c 0213 753e 2e0f 5bbe
00000340: 148a cfbc 014a e2bd 12d7 5a3c ae62 8a3e
00000350: 0913 8c3d 989b 14bc 0b92 ef3c 905c b0bd
00000360: ff07 39be 58bf 06be 5b19 383e 0dac 8e3e
00000370: fbf5 ecbd 2080 4f3d 2027 ea3d 3457 213e
00000380: 9ded 523d aed0 873d 5a91 32be 0e4a 743d
00000390: f612 2bbe 3739 62be 5031 903d 318e febd
000003a0: 07b4 bb3d ae5a 3f3c fbbf 26bd 706f 7cbe
000003b0: b716 26bd 1924 67be d555 1abe fa6a 40be
000003c0: a839 a93d 6821 413e 6eba 41be 6805 29bd
000003d0: 4e80 1d3e 70fc f13d de4c 33be 6e3a 1bbe
000003e0: 5acc 92bd f8dc 46be 7374 633d 6813 ce3b
000003f0: c1ee 5c3e 11b6 873e e202 183d 0b9d 373e

Predict/fc2/MatMul f4 [32, 32]
0.10588475 -0.12935156 -0.09144745 0.08380251 0.20169957 -0.00046655722 -0.28566054 0.19648023
-0.006497758 0.23705368 0.28995228 0.035430275 -0.25326797 0.2142636 -0.11625799 -0.0802311
0.11272058 0.2060952 -0.33236918 -0.29898974 -0.20399447 0.18645482 -0.11205439 0.30266288
0.21254541 -0.15612778 0.21048898 -0.30926037 0.27257138 0.19329907 -0.30599564 0.16108447
0.072156765 0.02484604 0.19855595 0.117297925 0.14852953 0.038750302 0.1606283 -0.32250914
-0.044932637 -0.2309385 0.1950997 0.24781932 0.014702832 -0.30817896 0.19988458 -0.021638699
-0.18559013 -0.15109512 -0.2363284 0.2533653 -0.15210772 -0.29402006 -0.306072 0.17837277
-0.27724048 -0.18307559 0.1770059 -0.23512748 -0.1482268 0.13351668 -0.2658557 0.1594884
0.09537663 0.060690682 -0.2072356 -0.17214708 -0.067622006 0.26618934 -0.14786023 0.036038574
0.32390752 0.15181834 -0.12422504 -0.22269689 -0.07990817 0.21074334 -0.29857263 0.35129702
-0.24593261 0.20380956 -0.18664476 0.006583671 -0.059231855 0.032865934 -0.12107814 0.063590825
0.018152071 -0.1331004 -0.094884485 0.09441888 0.17195283 0.34105647 -0.0013441449 -0.070256285
-0.26242036 0.30172288 0.27456456 0.11571325 0.2164627 -0.015997821 -0.11748986 -0.22453249
-0.1902355 -0.25366956 -0.091470584 -0.117160395 0.18116066 0.042894993 0.0020291645 0.17545845
-0.17461345 -0.18763562 -0.22806264 -0.083780475 -0.029187212 0.25599143 -0.11544953 0.12578978
-0.1384462 0.06763928 0.31295103 -0.21464834 0.35785827 0.005445711 -0.16981395 0.21698508
-0.25271508 -0.1932179 0.23387046 0.17371508 -0.20101976 -0.2573153 0.09268117 0.062435456
0.26041827 -0.21746527 0.25104216 0.10523308 -0.015658608 0.02598922 0.24942352 0.15576267
-0.2691726 -0.17785026 -0.25265712 -0.20062591 0.047584336 -0.21895811 0.15012571 0.0022918424
-0.2879525 -0.1902385 -0.19058922 0.014647259 -0.013565801 0.14628918 -0.19061334 -0.24333094
0.11086484 -0.025359377 -0.107207924 0.1975377 0.06287124 0.017832333 -0.14926368 -0.12152719
-0.08377468 -0.36241627 0.104077175 0.2579964 0.026010286 -0.24121875 -0.1611768 -0.19088553
0.10959222 0.12896033 -0.26390558 0.22394119 0.37388244 -0.057791922 -0.18997256 -0.17165747
-0.24339536 0.121305 0.214362 -0.19786252 0.25330302 0.16077669 -0.09431706 0.23236346
-0.10786605 -0.20764697 0.052478198 0.21316396 -0.18312788 0.24595451 0.061661262 -0.18744473
-0.26730326 0.078292295 0.18725379 0.21807405 0.1770871 0.01806477 0.14799649 -0.029893985
0.22982258 -0.02666161 0.0073861354 0.035594065 -0.08879436 0.001468825 -0.057021055 -0.08880528
-0.2942111 0.053784005 -0.29982597 0.22240321 0.13922706 -0.23345555 -0.26733446 -0.069121316
0.29004756 -0.13900848 -0.038440242 0.23135605 -0.17177929 0.06828551 0.3690795 0.11742563
0.06500662 0.28214368 -0.24467288 0.14809725 -0.03548317 0.23459008 -0.15542202 -0.11149821
-0.19936094 0.1358573 -0.037871137 0.32105622 0.03091551 -0.11282099 -0.19955194 -0.22721589
-0.16313465 -0.16053608 0.25220174 -0.11900405 -0.15172765 -0.08455706 0.071250215 -0.24140687
00000000: 1bda d83d bc74 04be cd48 bbbd a6a0 ab3d
00000010: 558a 4e3e 409c f4b9 1942 92be 1d32 493e
00000020: 25eb d4bb 33be 723e a074 943e 561f 113d
00000030: 57ac 81be eb67 5b3e ab18 eebd 3450 a4bd
00000040: 0cda e63d 9f0a 533e 4b2c aabe 2f15 99be
00000050: ede3 50be 03ee 3e3e c67c e5bd a1f6 9a3e
00000060: 81a5 593e f6df 1fbe 6c8a 573e 6057 9ebe
00000070: 7a8e 8b3e 31f0 453e 76ab 9cbe 54f3 243e
00000080: edc6 933d ec89 cb3c 4052 4b3e e539 f03d
00000090: 2018 183e a3b8 1e3d bf7b 243e eb1f a5be
000000a0: 490b 38bd 247b 6cbe 37c8 473e 59c4 7d3e
000000b0: 26e4 703c a2c9 9dbe 8bae 4c3e a443 b1bc
000000c0: 570b 3ebe aeb8 1abe 1200 72be 19b9 813e
000000d0: 20c2 1bbe cc89 96be 78b5 9cbe 5aa7 363e
000000e0: 77f2 8dbe 2b78 3bbe 0941 353e 42c5 70be
000000f0: c4c8 17be 99b8 083e 3d1e 88be ed50 233e
00000100: d354 c33d cb96 783d 9235 54be 5347 30be
00000110: 687d 8abd f849 883e ac68 17be 2f9d 133d
00000120: 35d7 a53e 4476 1b3e b369 febd a70a 64be
00000130: e5a6 a3bd 1acd 573e 83de 98be 34dd b33e
00000140: c2d5 7bbe 74b3 503e ce1f 3fbe d6bb d73b
00000150: 1a9d 72bd 6e9e 063d d1f7 f7bd e83b 823d
00000160: a7b3 943c 794b 08be cc52 c2bd b05e c13d
00000170: 6714 303e f49e ae3e 052e b0ba 87e2 8fbd
00000180: f65b 86be 6c7b 9a3e ba93 8c3e 12fb ec3d
00000190: 66a8 5d3e dd0d 83bc 869e f0bd d8eb 65be
000001a0: 18cd 42be fae0 81be ee54 bbbd caf1 efbd
000001b0: 2e82 393e a9b2 2f3d bbfb 043b 61ab 333e
000001c0: decd 32be 8d23 40be 4189 69be 1995 abbd
000001d0: 051a efbc 4f11 833e ce70 ecbd 09cf 003e
000001e0: d7c4 0dbe 7686 8a3d 1e3b a03e c6cc 5bbe
000001f0: 3339 b73e ef71 b23b b5e3 2dbe 5631 5e3e
00000200: df63 81be eada 45be bd7b 6f3e 5ee2 313e
00000210: 20d8 4dbe d5be 83be a0cf bd3d 52bc 7f3d
00000220: 8b55 853e 37af 5ebe 9988 803e 7184 d73d
00000230: 7b46 80bc 58e7 d43c e168 7f3e 4080 1f3e
00000240: fed0 89be 611e 36be 465c 81be e170 4dbe
00000250: cbe7 423d 8e36 60be 8eba 193e bc32 163b
00000260: 836e 93be e2cd 42be d229 43be 0ffb 6f3c
00000270: 1843 5ebc d5cc 153e 2530 43be bf2b 79be
00000280: 1b0d e33d 78be cfbc d48f dbbd 5347 4a3e
00000290: a3c2 803d 1d15 923c 94d8 18be 3fe3 f8bd
000002a0: 0f92 abbd a08e b9be 6a26 d53d 1b18 843e
000002b0: 8613 d53c 0c02 77be 880b 25be 7f77 43be
000002c0: e371 e03d 2d0e 043e a21e 87be d750 653e
000002d0: 856d bf3e 39b7 6cbd 2b88 42be fac6 2fbe
000002e0: a23c 79be c16e f83d b681 5b3e 799c 4abe
000002f0: efb0 813e a5a2 243e 4e29 c1bd b0f0 6d3e
00000300: e0e8 dcbd 68a1 54be 61f3 563d a747 5a3e
00000310: e085 3bbe 80db 7b3e 8590 7c3d 83f1 3fbe
00000320: f9db 88be b657 a03d 75bf 3f3e ce4e 5f3e
00000330: 5256 353e 92fc 933c 648c 173e 3be4 f4bc
00000340: 9c56 6b3e 7369 dabc 6507 f23b 15cb 113d
00000350: d1d9 b5bd 9785 c03a e98e 69bd 8bdf b5bd
00000360: d6a2 96be 9e4c 5c3d ca82 99be abbd 633e
00000370: 8a91 0e3e f90e 6fbe 10e0 88be 7a8f 8dbd
00000380: 1d81 943e 3d58 0ebe 8473 1dbd 9ae8 6c3e
00000390: e9e6 2fbe 46d9 8b3d fdf7 bc3e d97c f03d
000003a0: 3122 853d 2375 903e 878b 7abe cea6 173e
000003b0: cd56 11bd 6238 703e f326 1fbe 2c59 e4bd
000003c0: 4625 4cbe 2d1e 0b3e c41e 1bbd 7b61 a43e
000003d0: 8642 fd3c b10e e7bd 5857 4cbe 48ab 68be
000003e0: c50c 27be 9263 24be 9620 813e 65b8 f3bd
000003f0: 7e5e 1bbe 402c adbd a2eb 913d 5d33 77be

Predict/op/MatMul f4 [4, 32]
0.43326312 -0.16937737 0.25399098 0.16710354 -0.13814682 -0.19687933 -0.38758856 -0.38360643
0.07059732 -0.3240385 0.1499991 0.2485599 0.17379934 0.36688545 0.33470294 -0.03900335
0.15279771 0.27504754 0.14883251 -0.3673394 0.01014077 0.32973328 0.16808337 0.28829256
0.21324836 -0.2684332 0.09675835 -0.19493207 -0.050383173 0.24247687 -0.3420558 -0.42479038
-0.38683593 0.23137866 -0.10506736 -0.2903812 -0.26048377 0.2835117 -0.21088271 -0.16958968
-0.24673916 -0.5271874 0.38723877 0.40976983 -0.3630205 0.17086183 0.05598673 -0.142609
-0.00661138 0.37781894 0.058237635 0.02959208 0.2965648 0.45225856 0.21548195 0.36585885
-0.22974326 -0.17597824 -0.5648472 -0.2682866 -0.0052054743 0.013403181 -0.25132498 0.3262661
0.28722316 0.2068768 0.39010078 0.15843096 -0.34065175 0.32934326 -0.09432439 -0.014102146
0.3852385 -0.30516782 0.13903992 0.23599117 -0.2953504 0.043704517 -0.28564182 -0.030800514
-0.32990104 0.3650405 0.39540666 -0.3900496 0.019690147 0.11105894 0.09509704 0.28671876
-0.18058074 0.08243942 -0.41683787 0.33301553 0.4223023 -0.05869964 -0.4841631 0.2550743
-0.0031760582 -0.2337074 -0.2649798 0.29440248 -0.20540735 -0.36868197 -0.17266107 0.41335407
0.33618364 0.19964486 -0.013307715 -0.4816823 -0.19753613 0.3819463 -0.20413423 -0.30797455
-0.2618779 -0.38334984 -0.31433275 0.017144883 -0.38806581 -0.25665787 0.05476145 -0.5030981
0.43023017 -0.11443178 0.27924877 0.28104812 0.10905881 0.29854342 -0.2491278 -0.21248156
00000000: aad4 dd3e 4371 2dbe 1b0b 823e 311d 2b3e
00000010: 5c76 0dbe bc9a 49be 0272 c6be 1068 c4be
00000020: 5495 903d 60e8 a5be 5d99 193e 7d86 7e3e
00000030: 74f8 313e 69d8 bb3e 2f5e ab3e fac1 1fbd
00000040: 0177 1c3e 08d3 8c3e 8d67 183e e913 bcbe
00000050: 7925 263c cdd2 a83e 0c1e 2c3e 159b 933e
00000060: c75d 5a3e 1470 89be 3e29 c63d 469c 47be
00000070: 965e 4ebd db4b 783e f021 afbe 207e d9be
00000080: 5c0f c6be 87ee 6c3e 8e2d d7bd d8ac 94be
00000090: 215e 85be 7228 913e a3f1 57be eba8 2dbe
000000a0: 31a9 7cbe c1f5 06bf 2944 c63e 5acd d13e
000000b0: d3dd b9be 67f6 2e3e 5752 653d 1808 12be
000000c0: 46a4 d8bb 7c71 c13e 968a 6e3d 176b f23c
000000d0: 57d7 973e 6f8e e73e 4da7 5c3e da51 bb3e
000000e0: d141 6bbe a433 34be d399 10bf dc5c 89be
000000f0: af92 aabb 0499 5b3c abad 80be 5a0c a73e
00000100: ea0e 933e 83d7 533e 4abb c73e ba3b 223e
00000110: e869 aebe ae9f a83e 252d c1bd b00c 67bc
00000120: fb3d c53e f53e 9cbe 7b60 0e3e aba7 713e
00000130: 2b38 97be 8203 333d a53f 92be 5c51 fcbc
00000140: cae8 a8be 97e6 ba3e be72 ca3e 95b4 c7be
00000150: 3b4d a13c df72 e33d 3dc2 c23d cdcc 923e
00000160: 28ea 38be 00d6 a83d c66b d5be 0381 aa3e
00000170: 0238 d83e 096f 70bd 3ae4 f7be 1999 823e
00000180: 6a25 50bb fe50 6fbe 6fab 87be ecbb 963e
00000190: 4e56 52be e2c3 bcbe 10ce 30be 25a3 d33e
000001a0: 4320 ac3e b46f 4c3e 9a08 5abc 109f f6be
000001b0: e946 4abe 778e c33e 9008 51be d7ae 9dbe
000001c0: dc14 86be 6e46 c4be 39f0 a0be 6d73 8c3c
000001d0: 90b0 c6be a968 83be 8b4d 603d 09cb 00bf
000001e0: 2147 dc3e 365b eabd b2f9 8e3e 8ae5 8f3e
000001f0: 3a5a df3d afda 983e 5c1b 7fbe c494 59be

Predict/layer_conv1/Conv2D f4 [4, 3, 3, 1]
0.051207796 0.04969704 -0.15070203 0.09557309 -0.28695977 0.31049773 -0.17732905 -0.04835583
-0.12015275 -0.3316666 -0.13233519 -0.23840238 -0.29647756 0.018408276 -0.294698 0.15815462
-0.17960669 -0.16478169 0.050697774 0.3262469 -0.033354383 0.1315129 0.15249528 -0.033222627
-0.2401064 0.30280435 -0.08635563 -0.024241593 0.09031718 -0.27949944 0.046161547 -0.22005405
-0.1487981 -0.3104755 0.11687229 -0.34061003
00000000: 44bf 513d 208f 4b3d a251 1abe d3bb c33d
00000010: 64ec 92be 8ff9 9e3e bf95 35be c310 46bd
00000020: a512 f6bd 34d0 a9be e082 07be c11f 74be
00000030: e8cb 97be f4cc 963c a8e2 96be 49f3 213e
00000040: d1ea 37be 88bc 28be 78a8 4f3d d509 a73e
00000050: 9b9e 08bd 51ab 063e b927 1c3e 7314 08bd
00000060: 74de 75be 2c09 9b3e 38db b0bd 4e96 c6bc
00000070: 37f8 b83d 8d1a 8fbe e413 3d3d d955 61be
00000080: 875e 18be a5f6 9ebe bd5a ef3d 7064 aebe

Predict/layer_conv2/Conv2D f4 [8, 3, 3, 4]
-0.1431528 -0.03809502 -0.055045266 -0.09387038 -0.0027500254 -0.061550576 -0.18353273 -0.18863524
-0.020723559 0.15779372 0.038302124 0.0161197 -0.14039126 0.18545854 -0.15910248 0.18225238
-0.12651666 -0.18573435 0.060629714 0.025941683 0.09567103 -0.17587398 0.12672116 -0.07169778
0.19071198 -0.081354655 0.109018505 -0.13905269 -0.015383922 0.116546385 -0.1801127 0.23024724
-0.0064415154 0.23001549 0.17005731 0.12178635 -0.06560954 0.09070987 -0.1871779 -0.046706963
0.06061484 0.005375704 -0.1868819 0.21706729 0.0745528 -0.18272468 0.2700115 0.11444859
-0.036536735 0.12567537 -0.08457336 0.072979 0.093928605 -0.031018695 -0.18602084 0.042494833
0.040614568 -0.034879677 -0.07434287 0.010024626 -0.21318018 -0.203999 0.09903518 -0.1011143
-0.04934919 0.1873499 -0.12295953 -0.15000065 -0.18363488 -0.061585974 0.10324939 0.009238231
-0.08172859 -0.2843082 -0.09755285 -0.08086035 0.00091660686 0.17685074 -0.17325348 -0.15596709
-0.14922562 -0.21044208 -0.06179957 0.058693003 -0.047778472 0.15291926 -0.043072965 0.08167132
-0.14873977 -0.007996631 -0.0021705858 0.122777104 0.17390479 -0.15700924 -0.026084911 0.054492395
0.0074587367 -0.21484219 0.08984281 0.03487019 0.11131997 -0.16133212 0.2385266 0.21111739
0.12701583 -0.034025975 -0.12748379 -0.05824829 -0.047458228 0.09438033 0.2542901 0.2352696
-0.17758358 -0.18762009 -0.063080095 0.22701474 0.23690563 -0.20894337 -0.0891475 -0.0363921
-0.17778815 -0.0028093872 0.16358718 0.07478028 -0.21302056 0.12980074 0.039080426 -0.11757903
0.23121609 0.23785335 -0.09564234 0.12242307 0.054558307 0.04323683 0.10291469 0.0680815
0.0506001 -0.05753508 -0.05465333 0.14437568 0.2391761 -0.10359436 0.13755672 0.22781695
0.09414954 0.20979534 -0.027327862 0.118932955 -0.17614573 -0.037558094 0.21326071 0.009179254
-0.016969433 0.07663246 -0.20524976 -0.13184285 0.0022778693 -0.021018732 -0.06454101 -0.023551598
0.26417252 -0.081289746 0.23078918 0.120423935 0.23703735 0.034071594 -0.06509249 -0.21216957
0.06816425 0.052222945 0.1650257 0.12702563 0.2169416 -0.1433736 -0.20348169 -0.1857868
-0.029856931 -0.11918717 0.21470302 0.123005934 0.20053115 0.13938542 0.019894259 0.11521975
-0.059574205 -0.024590654 0.15989873 -0.16324686 0.1052685 -0.031943075 -0.18695502 -0.17021266
0.15920645 0.19581842 -0.20819603 -0.14938696 -0.22770517 -0.015043361 -0.25843996 -0.22715098
0.17454027 -0.122210614 0.1566388 0.025956575 -0.19817898 0.05354917 0.029498024 0.12184268
-0.13837609 0.11023739 0.07676003 0.008859082 -0.1698187 0.1925208 -0.21814182 -0.14102338
0.072142534 -0.06713329 0.19019143 0.103247106 -0.07572525 -0.1268205 0.10156759 -0.07782728
0.09482174 0.21292558 0.16254361 0.030831872 0.051935744 0.2231751 0.09074196 0.01588124
0.1909372 -0.19081193 0.19924477 -0.08746496 -0.10088856 -0.12109209 -0.18193062 -0.064039275
-0.21904805 -0.012253181 0.015071168 0.17653996 0.23404077 -0.21407 0.13256402 0.023427423
-0.15940751 0.10715542 -0.05336668 0.06592868 -0.15388763 -0.043116238 0.042183746 0.1766803
00000000: a696 12be 8609 1cbd 2577 61bd 1d3f c0bd
00000010: c539 34bb 751c 7cbd 01f0 3bbe 9929 41be
00000020: 74c4 a9bc ad94 213e b0e2 1c3d 760d 843c
00000030: bac2 0fbe d8e8 3d3e c3eb 22be 5ea0 3a3e
00000040: 958d 01be 2531 3ebe dd56 783d a783 d43c
00000050: 2cef c33d 4f18 34be 31c3 013e 49d6 92bd
00000060: 004a 433e 459d a6bd 1845 df3d d463 0ebe
00000070: d80c 7cbc dfaf ee3d 776f 38be efc5 6b3e
00000080: 5913 d3bb 2e89 6b3e 8123 2e3e 1f6b f93d
00000090: 4b5e 86bd 19c6 b93d 90ab 3fbe cd4f 3fbd
000000a0: 4447 783d ac26 b03b f85d 3fbe e346 5e3e
000000b0: 23af 983d 2e1c 3bbe f33e 8a3e 0664 ea3d
000000c0: 8ba7 15bd 0bb1 003e cc34 adbd 0476 953d
000000d0: a45d c03d eb1a febc 3f7c 3ebe 100f 2e3d
000000e0: 765b 263d fedd 0ebd 1341 98bd 543e 243c
000000f0: e84b 5abe 1de5 50be f5d2 ca3d 0415 cfbd
00000100: 6022 4abd a7d8 3f3e 35d2 fbbd c599 19be
00000110: c80a 3cbe 9341 7cbd 6b74 d33d f35b 173c
00000120: 5261 a7bd d890 91be cac9 c7bd 1c9a a5bd
00000130: 7248 703a 5c18 353e 5c69 31be d6b5 1fbe
00000140: 9ace 18be 217e 57be 8c21 7dbd 1368 703d
00000150: 5cb3 43bd de96 1c3e 476d 30bd 4b43 a73d
00000160: 3d4f 18be 4d04 03bc 6340 0ebb 9072 fb3d
00000170: 1914 323e 08c7 20be 06b0 d5bc 6b33 5f3d
00000180: 6b68 f43b 97ff 5bbe 82ff b73d 0bd4 0e3d
00000190: b9fb e33d 3f34 25be 5140 743e 282f 583e
000001a0: 7010 023e d25e 0bbd 1c8b 02be c295 6ebd
000001b0: 8f63 42bd 794a c13d 5032 823e 84ea 703e
000001c0: 78d8 35be 7b1f 40be 2330 81bd 8d76 683e
000001d0: 6497 723e 40f5 55be f792 b6bd e20f 15bd
000001e0: 190e 36be b21d 38bb 6683 273e 6726 993d
000001f0: 1022 5abe 7cea 043e cc12 203d 46cd f0bd
00000200: e9c3 6c3e d48f 733e 22e0 c3bd f2b8 fa3d
00000210: 8878 5f3d 1a19 313d f0c4 d23d 506e 8b3d
00000220: 0d42 4f3d e7a9 6bbd 2cdc 5fbd 38d7 133e
00000230: 94ea 743e 4829 d4bd abdb 0c3e d948 693e
00000240: 79d1 c03d 97d4 563e aede dfbc 1f93 f33d
00000250: 8c5f 34be 84d6 19bd 0461 5a3e 9564 163c
00000260: 7b03 8bbc 7bf1 9c3d fe2c 52be d001 07be
00000270: 4e48 153b 7a2f acbc 142e 84bd 48ef c0bc
00000280: 9f41 873e 3d7b a6bd 0054 6c3e d3a0 f63d
00000290: ebb9 723e a88e 0b3d 364f 85bd fb42 59be
000002a0: b399 8b3d bae7 553d 7ffc 283e 0213 023e
000002b0: f025 5e3e 87d0 12be 815d 50be e53e 3ebe
000002c0: 8696 f4bc 6718 f4bd 1cdb 5b3e 89ea fb3d
000002d0: 0a58 4d3e 0dbb 0e3e 49f9 a23c 55f8 eb3d
000002e0: 1504 74bd 5772 c9bc 7ebc 233e 2f2a 27be
000002f0: 0397 d73d bed6 02bd 2371 3fbe 3a4c 2ebe
00000300: 0407 233e a084 483e 5731 55be e5f8 18be
00000310: 8b2b 69be 6e78 76bc 3e52 84be 449a 68be
00000320: afba 323e 8f49 fabd ec65 203e e2a2 d43c
00000330: 6eef 4abe 6056 5b3d d7a5 f13c a888 f93d
00000340: 76b2 0dbe 24c4 e13d 5d34 9d3d af25 113c
00000350: f4e4 2dbe 2c24 453e 9260 5fbe 6f68 10be
00000360: 77bf 933d 2e7d 89bd 8bc1 423e 3873 d33d
00000370: d715 9bbd 3cdd 01be ab02 d03d e963 9fbd
00000380: e731 c23d 2a09 5a3e d571 263e 1f93 fc3c
00000390: 93ba 543d 0388 643e ecd6 b93d 6019 823c
000003a0: 0b85 433e 3464 43be d206 4c3e d420 b3bd
000003b0: a99e cebd 21ff f7bd 054c 3abe 0627 83bd
000003c0: 224e 60be 91c1 48bc 0fed 763c e4c6 343e
000003d0: 62a8 6f3e 2b35 5bbe ddbe 073e deea bf3c
000003e0: b93b 23be 4d74 db3d 0597 5abd 9e05 873d
000003f0: b894 1dbe a79a 30bd ddc8 2c3d aeeb 343e

Predict/layer_conv3/Conv2D f4 [16, 3, 3, 8]
0.16958559 -0.10154116 -0.08231747 0.06012898 -0.04206342 0.13437197 0.10788734 -0.0071483958
0.036614712 0.0653487 0.078616716 -0.09022374 -0.15126477 -0.12925716 -0.025635712 -0.11468509
0.15027969 -0.0418148 0.039841715 0.14955921 0.03689504 -0.16747564 0.07440291 0.010497697
0.049317695 -0.012931838 0.06278356 0.0983897 -0.10985631 0.007644735 -0.06729474 0.10965767
0.066583574 0.03013116 -0.044997234 0.057996165 0.1585288 -0.0784289 -0.042396635 -0.041791536
-0.014396383 0.10860791 -0.14731209 -0.112005055 -0.0071994876 -0.0024596772 0.043470327 0.13261193
0.15533331 -0.04734344 -0.16938272 0.11914721 0.12567398 0.1594708 0.011161729 0.06958107
0.06948463 0.13157468 0.03293394 -0.045578856 0.13128574 -0.056759335 0.0055292444 -0.11421156
0.13491896 -0.083463036 -0.0094150305 -0.040726624 -0.14103179 0.10559123 -0.097578235 -0.022090716
0.04915592 0.16491206 -0.016486397 -0.10770478 0.15676992 -0.12132294 -0.09871677 0.039108094
0.012824713 0.039118014 0.06865299 0.10288751 0.13630456 0.00074222556 -0.020325707 0.066923834
0.11838847 -0.053514883 -0.09537861 -0.0720083 -0.1249683 -0.12755549 0.054778468 0.00056147744
0.002113345 0.1318302 0.17232311 0.18089469 0.031609822 -0.12548378 0.048153166 0.17178942
-0.05128303 0.09457007 0.018150005 0.014461941 -0.103863865 0.104634576 0.09789764 -0.11885356
-0.13583417 -0.03722557 -0.0927355 0.052165467 0.05006733 -0.032714102 -0.13062455 -0.05091667
0.16018465 -0.04306784 0.15195024 0.11988571 -0.037577026 -0.11982186 0.10512729 0.17184542
0.15713257 0.08645972 -0.012429819 -0.10531402 -0.034360178 0.1517253 -0.039366964 -0.031010952
0.10440581 0.10803465 -0.026061384 0.067659825 -0.16526292 -0.007827944 0.07649849 -0.027101787
0.12486238 0.14091013 -0.14004932 -0.10598113 0.091518015 0.06700305 -0.037408654 0.18159932
-0.100195676 0.13061658 -0.081988305 -0.03336378 0.14112486 0.11826253 0.058060575 0.11618674
-0.03631655 -0.062478207 -0.052772608 0.095041275 -0.106446415 -0.14248303 0.17291868 0.10533717
0.13267231 -0.065059625 0.08519875 -0.015978668 -0.023298403 -0.08694404 -0.03942439 -0.12517013
-0.08604277 0.10135748 0.06582424 0.09660503 0.13100658 -0.0016547104 0.0014414226 0.2061342
0.08823674 0.08084879 0.041721676 0.03525228 -0.07378408 -0.12505496 0.03810753 -0.017617779
0.15138377 -0.05482323 0.21424717 -0.10619768 0.122305125 0.002112407 -0.0864549 0.09428617
-0.09239466 -0.12829846 0.22494066 -0.023571827 0.053482816 0.05674374 0.06362347 -0.04404127
-0.03817412 0.09117032 0.12413722 0.1521842 -0.078565024 0.044863388 0.092738196 0.09716138
-0.0069776527 0.05154321 0.05035714 -0.19477867 0.041725345 -0.076292805 -0.11142168 -0.12222187
-0.16805336 -0.10147274 0.05753778 -0.17565422 -0.18492168 0.09233941 0.11934453 -0.0652972
-0.10995674 0.0069601736 -0.17666414 -0.09477257 -0.098438844 0.04543448 -0.17243189 -0.19010796
0.051133692 0.10026501 0.12549841 0.07616774 -0.13830718 0.023864578 -0.013061804 -0.020647867
0.05713166 -0.16699274 -0.038891558 0.07461456 -0.0564654 0.04693291 -0.13872683 0.07080767
00000000: d8a7 2d3e d0f4 cfbd 1096 a8bd ce49 763d
00000010: b14a 2cbd ce98 093e 0af4 dc3d 173d eabb
00000020: 4ff9 153d 8ad5 853d cd01 a13d 39c7 b8bd
00000030: 27e5 1abe fd5b 04be fc01 d2bc 04e0 eabd
00000040: ebe2 193e ff45 2bbd 1131 233d 0d26 193e
00000050: 411f 173d bc7e 2bbe 8e60 983d 88fe 2b3c
00000060: 5a01 4a3d 0fe0 53bc ab94 803d 8a80 c93d
00000070: 58fc e0bd af80 fa3b d3d1 89bd 3394 e03d
00000080: f85c 883d 9fd5 f63c 054f 38bd 638d 6d3d
00000090: 6055 223e 559f a0bd 18a8 2dbd 9a2d 2bbd
000000a0: cfde 6bbc d36d de3d fbd8 16be e862 e5bd
000000b0: aee9 ebbb 8932 21bb f10d 323d 6ccb 073e
000000c0: b20f 1f3e 32eb 41bd aa72 2dbe 7403 f43d
000000d0: aeb0 003e 504c 233e afdf 363c 8580 8e3d
000000e0: f54d 8e3d 83bb 063e bde5 063d e5b0 3abd
000000f0: c56f 063e 7a7c 68bd aa2e b53b c0e7 e9bd
00000100: 3228 0a3e abee aabd 8041 1abc f6d0 26bd
00000110: a36a 10be 3740 d83d 19d7 c7bd 97f7 b4bc
00000120: b857 493d b5de 283e 7b0e 87bc 5394 dcbd
00000130: 4b88 203e 2978 f8bd 052c cabd cf2f 203d
00000140: bf1e 523c 363a 203d f099 8c3d b0b6 d23d
00000150: 6c93 0b3e ea91 423a 1982 a6bc 5d0f 893d
00000160: a775 f23d 6c32 5bbd dc55 c3bd 1679 93bd
00000170: 61ef ffbd e89d 02be 635f 603d 1d30 133a
00000180: 0c80 0a3b 7ffe 063e 7875 303e 753c 393e
00000190: 4d79 013d d27e 00be 413c 453d 91e9 2f3e
000001a0: 280e 52bd f4ad c13d 52af 943c c7f1 6c3c
000001b0: 94b6 d4bd a74a d63d 8f7e c83d 7f69 f3bd
000001c0: 1d18 0bbe d779 18bd 1cec bdbd 75ab 553d
000001d0: 6713 4d3d 39ff 05bd 71c2 05be 008e 50bd
000001e0: 7207 243e e767 30bd d898 1b3e a486 f53d
000001f0: 5eea 19bd 2a65 f5bd fa4c d73d 3ff8 2f3e
00000200: 5ce7 203e cb11 b13d 71a6 4bbc e0ae d7bd
00000210: 42bd 0cbd e15d 1b3e 413f 21bd ae0a febc
00000220: b7d2 d53d 4541 dd3d af7e d5bc 3c91 8a3d
00000230: af3a 29be c740 00bc 3eab 9c3d 9104 debc
00000240: d9b7 ff3d bf4a 103e 1769 0fbe a20c d9bd
00000250: cc6d bb3d e538 893d d139 19bd 2cf5 393e
00000260: 6433 cdbd 5ac0 053e 7ce9 a7bd 75a8 08bd
00000270: 0983 103e a033 f23d edd0 6d3d 50f3 ed3d
00000280: aac0 14bd 26e9 7fbd 1728 58bd 00a5 c23d
00000290: 9400 dabd 12e7 11be 9811 313e 04bb d73d
000002a0: 40db 073e fb3d 85bd af7c ae3d b2e5 82bc
000002b0: 4bdc bebc b80f b2bd 787b 21bd 992c 00be
000002c0: 3137 b0bd 8394 cf3d dcce 863d dcd8 c53d
000002d0: 9726 063e dee2 d8ba 1eee bc3a d814 533e
000002e0: 77b5 b43d 0d94 a53d 59e4 2a3d b264 103d
000002f0: 1c1c 97bd 680e 00be a416 1c3d 2953 90bc
00000300: 5904 1b3e 538e 60bd 9c63 5b3e 2b7e d9bd
00000310: 1c7b fa3d 4f70 0a3b 440f b1bd 1c19 c13d
00000320: 6939 bdbd ac60 03be d856 663e b419 c1bc
00000330: cc10 5b3d 206c 683d 064d 823d 9e64 34bd
00000340: 775c 1cbd 81b7 ba3d a83b fe3d 2dd6 1b3e
00000350: b3e6 a0bd acc2 373d 86ed bd3d 8cfc c63d
00000360: cba4 e4bb f91e 533d 4a43 4e3d 0f74 47be
00000370: 32e8 2a3d 673f 9cbd 0d31 e4bd 764f fabd
00000380: 2e16 2cbe f1d0 cfbd bcac 6b3d b3de 33be
00000390: 1c5c 3dbe 721c bd3d e86a f43d 8aba 85bd
000003a0: 0031 e1bd 2b12 e43b 72e7 34be 1f18 c2bd
000003b0: 4e9a c9bd 8119 3a3d fc91 30be a9ab 42be
000003c0: 9071 513d be57 cd3d a882 003e d5fd 9b3d
000003d0: 66a0 0dbe a67f c33c 2d01 56bc b725 a9bc
000003e0: e302 6a3d 2500 2bbe c14c 1fbd 85cf 983d
000003f0: 4348 67bd b93c 403d 680e 0ebe 9d03 913d
