v3/DWT_Com_+_Pre-Conv_Quantized.tflite (tflite, 151136 bytes, 23 tensors)

Predict/fc0/BiasAdd/ReadVariableOp/resource f4 [64]
000000 ac 6f 36 3a 1b a4 50 bb 10 7b a1 bc 6b 9d a4 3b
       0.00069593894 -0.0031836096 -0.019712001 0.0050236485
000010 85 dd c9 ba 46 6d 63 bb 6f 09 32 3c fc bc 82 bb
       -0.0015401101 -0.0034702583 0.010866507 -0.003989814
000020 00 00 00 00 13 3d ba 3b 72 df 63 bb 26 e7 6e bb
       0.0 0.00568355 -0.0034770635 -0.0036453693
000030 8e a1 ae ba 00 9e be ba 0e 77 6e bb 30 19 49 3c
       -0.0013323294 -0.0014542937 -0.003638688 0.012274072
000040 5a cb a5 b9 5e d9 43 bc 3e e7 1f 3b a2 13 61 bb
       -0.0003162276 -0.01195368 0.0024399306 -0.0034343977
000050 85 37 48 39 c4 d1 92 bc 55 cb a5 b9 ae 5d 09 3b
       0.00019094169 -0.01792229 -0.00031622747 0.0020960378
000060 c1 d3 38 bc 1a 45 f5 b9 4b 2a d8 bc c1 4e 07 3c
       -0.011280955 -0.00046781526 -0.026387354 0.0082585225
000070 af 34 b6 bb 33 32 62 bc fe a0 a6 ba 87 f0 cf 3b
       -0.0055604796 -0.013805914 -0.0012712774 0.0063458118
000080 a5 39 8c 3b e7 36 0d bc 28 7a 17 bb 5c 5c 12 3c
       0.0042793327 -0.008619047 -0.0023113582 0.008933153
000090 4f 1c 0b 3c ef 9e f3 38 08 5c a4 bc 44 00 e7 3b
       0.008490636 0.000116167466 -0.020063415 0.007049592
0000a0 ed 28 3c 3c f4 60 b1 bb fc 1e 25 39 f1 0f ed 3a
       0.011484367 -0.005413169 0.00015747169 0.0018086416
0000b0 4a 09 72 ba 00 00 00 00 32 cb 25 ba ad b4 62 3b
       -0.00092329516 0.0 -0.0006324529 0.0034592554
0000c0 3d ef 1b bb cf 18 2f bb 9a 55 6e 3b 6a 43 50 3b
       -0.002379372 -0.0026717668 0.003636694 0.0031778463
0000d0 48 7a d6 3b 11 87 a4 bb 00 12 8d bb 76 21 f6 ba
       0.006545339 -0.005020984 -0.0043051243 -0.0018778283
0000e0 10 8c 0d 3a 68 b2 63 ba 8c 53 98 bc 0b 14 d6 3b
       0.0005399594 -0.00086859474 -0.018594526 0.006533151
0000f0 19 df bd 3a 9d 43 20 bc 2c c7 9b ba d8 5e 72 bb
       0.0014486044 -0.009781745 -0.0011884919 -0.00369828

Predict/fc1/BiasAdd/ReadVariableOp/resource f4 [32]
000000 64 46 57 3b 41 0c 10 bc 65 ab 30 3d 5b 0b 7f 3d
       0.0032848353 -0.008791984 0.043132205 0.06226669
000010 b4 da ac 3c 93 33 b2 3c 74 08 cb 3b ba 4f ff 3c
       0.02110038 0.021753108 0.006196076 0.031165946
000020 90 85 5e bc fb 99 6a 3d 76 4a 1a 3d 8b 84 1c 3b
       -0.0135816485 0.057275753 0.037668668 0.0023882713
000030 16 ff c2 3c 10 3f 44 3d 63 ee 04 3d 8d c4 bb 3d
       0.023803275 0.047911704 0.032453906 0.091683485
000040 63 e5 33 3d 99 83 0f 3d ee 99 a3 3c c2 fa 1d 3d
       0.043919932 0.03503761 0.01997086 0.03856922
000050 84 4b cf 3c 46 58 5b 3c 1c 3c 3b 3d c7 10 6e 3d
       0.025304563 0.013387745 0.04571162 0.05812147
000060 de 27 a8 3d 00 bd 1c 3d e7 c5 20 3d 79 2f 08 3d
       0.08210729 0.038266182 0.039251234 0.0332484
000070 c1 dd 6b 3d d7 f3 55 3c 65 92 20 3a 9c 73 b3 3c
       0.057584528 0.013058624 0.000612533 0.021905713

Predict/fc2/BiasAdd/ReadVariableOp/resource f4 [32]
000000 ac d1 77 3d 77 13 75 3d 0c a1 4d 3b ca c9 30 3d
       0.060502693 0.059833016 0.003137651 0.04316119
000010 0f 35 fb 3d 1b d5 2c 3d 2c c4 5c 3d 44 58 eb bc
       0.122659795 0.04219542 0.05389802 -0.028728612
000020 90 31 14 bc 44 ba d3 3c 6c e9 51 3c a5 88 2b 3d
       -0.00904502 0.025845654 0.012812 0.04187836
000030 59 41 4d 3d 71 04 0a bd 08 65 87 3d 5c c2 89 bd
       0.05011115 -0.033695642 0.06611067 -0.06726524
000040 9f 87 28 3c 3c 25 f8 3c 4a cf 77 3c a3 88 93 3d
       0.010286241 0.030291192 0.015125105 0.07203796
000050 ee 41 d9 39 66 dc bb bc 5d 1b b3 bd 89 39 71 3c
       0.00041438587 -0.022932243 -0.087454535 0.01472319
000060 27 99 ea 3b 14 e7 4d bd 83 16 8a bd 78 81 48 3d
       0.0071593705 -0.0502692 -0.06742575 0.048951596
000070 6e 10 4e 3d 04 7f e7 3c 19 69 d5 3c 38 6f 2e 3c
       0.050308637 0.028258808 0.026051091 0.010646634

Predict/layer_conv1/BiasAdd/ReadVariableOp/resource f4 [4]
000000 e4 ae 38 3c 75 b4 92 3b e7 35 9e bc 23 a0 1b bc
       0.011272166 0.0044770786 -0.019312812 -0.009498629

Predict/layer_conv2/BiasAdd/ReadVariableOp/resource f4 [8]
000000 32 f3 b2 bc 02 44 8b 3b 3b 77 2c bc 20 21 63 3c
       -0.02184448 0.0042500505 -0.010526474 0.013862878
000010 b9 f6 61 3c 13 22 16 3c 5d d5 db bb 27 ec 1a bc
       0.013791733 0.009163397 -0.0067087845 -0.009455717

Predict/layer_conv3/BiasAdd/ReadVariableOp/resource f4 [16]
000000 3c b3 53 bb e8 c9 26 bc e7 51 bc bb d0 72 25 bc
       -0.0032302877 -0.010179974 -0.005747068 -0.010098174
000010 92 a6 6d 3c ef 2b 66 bc fd fe 9a bb 2d 55 a5 bb
       0.0145050455 -0.0140485605 -0.004730104 -0.005045554
000020 64 a1 fd bb 7d b8 d1 3c 53 3e 4b 3c c5 f2 01 3b
       -0.0077401865 0.025600666 0.012404996 0.001982854
000030 8b c2 13 bc 1f 28 af 3b b9 26 86 3b 5d 02 49 3b
       -0.009018551 0.005345359 0.0040939716 0.0030671575

Predict/layer_conv4/BiasAdd/ReadVariableOp/resource f4 [32]
000000 27 2e 46 3c 92 b5 99 3b 9b dd c5 3b be c9 d8 ba
       0.0120959645 0.0046908343 0.0060383803 -0.0016539616
000010 49 96 f8 bb f1 22 84 bc e7 e6 ac 3b df 8d 9f bc
       -0.0075862748 -0.016129943 0.005276549 -0.01947683
000020 8c 68 68 3a e2 ba 99 bc 81 18 63 bc e8 90 0b 3b
       0.00088656764 -0.01876587 -0.013860823 0.0021296088
000030 ab bb 4b bc 6d c8 2a bc 5b 12 c9 bc 34 3a 47 3c
       -0.01243488 -0.010423762 -0.024544885 0.012159873
000040 0c aa bd bb 42 59 fb 3a 40 74 3a b7 38 1f ad b9
       -0.0057880934 0.0019176381 -1.11135305e-05 -0.0003302039
000050 67 63 57 3a a2 68 50 bb 90 ee d2 bb 19 01 11 3c
       0.0008216411 -0.0031800647 -0.0064371303 0.008850359
000060 fc 62 49 3c 1a 35 1f bb 56 92 00 ba 69 95 ba 3b
       0.012291666 -0.0024293126 -0.0004904618 0.0056940806
000070 c3 9a 32 3c 78 8a 24 bc 4d 63 11 3b ee 80 a3 3a
       0.010901156 -0.010042779 0.0022184432 0.0012474337

Predict/layer_conv5/BiasAdd/ReadVariableOp/resource f4 [64]
000000 98 57 87 3b 77 c9 48 3c 57 6a c6 bc cf b2 6e 3c
       0.004130315 0.012255064 -0.024220629 0.0145689985
000010 0b b1 95 3c 26 f9 de 3b f0 d2 98 bc 0a c1 c9 bc
       0.018272897 0.006804603 -0.01865527 -0.024628181
000020 53 49 ca bc 86 a2 41 b9 a3 3f 83 bb 2f d5 9f bc
       -0.024693167 -0.00018466459 -0.004005389 -0.019510834
000030 a2 7b 14 bc 7e fb 3d 3c 88 04 58 bb ee 45 bc bc
       -0.0090626795 0.011595605 -0.0032961685 -0.022982564
000040 72 ad 08 3b 01 3f 4e bb a7 fe 9a bb 32 56 02 bc
       0.0020855335 -0.0031470659 -0.004730064 -0.007955121
000050 4a 17 71 bc f7 ff a0 bb 4c d9 91 ba 26 e1 17 bc
       -0.014715025 -0.004913326 -0.0011127382 -0.009269988
000060 ec aa dd ba f2 94 2c bb 26 08 2e ba 6e 99 6d 3c
       -0.0016911901 -0.0026333896 -0.00066387875 0.0145019125
000070 2c 66 2d bc 45 1c 56 bc 3d b2 ab bb cf 5d a9 bb
       -0.010583442 -0.013068263 -0.0052397535 -0.0051686536
000080 5a 39 9f bc e7 2a 05 b9 0f c2 4b bc ab c8 08 bc
       -0.019436527 -0.00012699851 -0.012436404 -0.008348624
000090 f7 50 45 bc 41 d2 6a 3b 3b ea d8 bb 0e ef da bb
       -0.012043229 0.0035830888 -0.0066197193 -0.0066813296
0000a0 ea 5c 0c bc 0b 50 76 bc a0 05 1e 3b 12 f3 a8 ba
       -0.008567074 -0.015033732 0.002411224 -0.0012889823
0000b0 ea e5 17 bc b4 2f 75 39 cf 4a 34 3c d2 3a 4d 3c
       -0.009271124 0.00023382792 0.011004164 0.012526231
0000c0 20 a5 21 bc f2 d0 77 3c 0e 02 32 ba e3 46 f1 3b
       -0.009866029 0.0151255 -0.00067904673 0.0073631867
0000d0 64 b5 12 3a 9c 67 70 3c 01 23 69 3c d3 94 2b bc
       0.00055964873 0.01467314 0.014229537 -0.010472494
0000e0 5a 6b 17 3c 3f 04 57 3b 8b e2 21 bc e9 b1 63 3b
       0.009241903 0.0032808927 -0.009880672 0.0034743494
0000f0 13 2d 38 bc c4 3f 4f 3b 02 c5 95 bb 4a 97 6a ba
       -0.011241215 0.00316237 -0.0045706043 -0.00089489354

Predict/layer_conv6/BiasAdd/ReadVariableOp/resource f4 [128]
000000 3b de 20 bb 0c 3a b6 b9 e6 cf 64 39 e2 98 8b 3b
       -0.0024546522 -0.00034756993 0.00021821223 0.0042601684
000010 d6 b3 ab 3b ea c8 d3 b9 8e 8a 1c 39 c4 02 50 bc
       0.005239944 -0.0004039475 0.00014928935 -0.012695972
000020 d6 c7 a6 3b 14 10 f8 bb 1d 77 06 3a b5 9b b8 bb
       0.0050897403 -0.007570276 0.00051294436 -0.005633796
000030 68 57 5c bb 57 f2 28 bc 86 e9 bb 3b f6 3f ec bb
       -0.0033621434 -0.010311685 0.0057346253 -0.007209773
000040 3e 29 91 3b 28 11 cc bb c8 16 eb b9 38 54 90 ba
       0.0044299653 -0.006227631 -0.00044839666 -0.0011011427
000050 2e 35 84 3a 92 22 8b 3c 42 f5 cc 3b bc 82 e9 3a
       0.001008665 0.016984258 0.006254823 0.0017815451
000060 8f b7 8f 3b e1 22 66 3b 8c 06 71 3b dc 8a 2f 3b
       0.0043858956 0.0035116004 0.0036777584 0.0026785647
000070 06 ba 00 3c db 98 38 3b 22 03 1e 3b 6d 17 f3 3b
       0.007856851 0.002816728 0.0024110754 0.007418564
000080 a4 2e 26 3a dc b1 c3 bb a3 dc 34 3c c9 1f bf 3b
       0.00063393475 -0.00597213 0.011038932 0.0058326465
000090 08 be 8a 3b f7 f2 d4 3b f2 7f c7 3b bc 38 93 3b
       0.0042340793 0.00649869 0.0060882503 0.0044928472
0000a0 ae ef 6e 3b c7 50 97 bb 0a 98 23 3c a3 98 a6 3b
       0.0036458778 -0.0046177837 0.009984979 0.0050841137
0000b0 d4 41 1f 3c ff 0e 01 bc 1b 9d 42 3c 15 03 90 bb
       0.0097202845 -0.0078771105 0.011878277 -0.0043948987
0000c0 9e 88 52 bb a0 71 d7 39 58 c6 74 bb 1d 67 06 bc
       -0.0032124887 0.00041092653 -0.0037349667 -0.008203295
0000d0 f1 20 85 bc 37 25 76 3c 8e 7e 1b 3b 2d 0d ed 3b
       -0.01625106 0.015023521 0.0023726556 0.0072342367
0000e0 1f c9 93 bc 25 eb 7c bb 89 1e 59 bb 1e bd 3d 3c
       -0.018040238 -0.0038592306 -0.0033129773 0.011580734
0000f0 80 ae 56 bb a4 8e bc bb 15 76 b9 bb 7c e8 d1 bb
       -0.0032757819 -0.005754309 -0.0056598284 -0.006405888
000100 c4 ce 91 3b 03 26 22 3c b6 f5 21 bb 50 2c 92 3b
       0.004449697 0.009896758 -0.0024713106 0.004460849
000110 62 17 7b 3b 24 cb db 3a 9f e2 b5 bc ce 60 89 bb
       0.0038313498 0.0016768915 -0.022202788 -0.004192448
000120 92 47 73 bc aa 73 5d 3c e9 e5 9c bb d5 4e 7f bb
       -0.014848607 0.013516346 -0.0047881496 -0.00389569
000130 1b 36 38 bb 49 d4 be bb 31 60 be 3a 46 bb 3c 3c
       -0.0028108421 -0.005823646 0.0014524517 0.011519259
000140 aa 6c ac 3a 73 1e c4 bb 5d 4a 85 bb e0 93 a6 bc
       0.0013154943 -0.005985075 -0.0040677027 -0.020334184
000150 3d 49 84 bb 3c 79 20 bb 5a 12 0b 3b 51 a1 b6 bb
       -0.004037051 -0.0024486324 0.0021220655 -0.0055734296
000160 74 5d 3f bc 76 db ff 3a 68 24 4b bb ab 68 56 3b
       -0.011679996 0.001952036 -0.0030997042 0.0032716196
000170 d6 75 46 3c 44 a2 c5 bb 63 24 d2 3a eb 46 0b bb
       0.012113055 -0.0060313065 0.0016032573 -0.0021251987
000180 eb 06 7e 3b 39 18 80 ba de d2 ef b9 51 21 23 3c
       0.0038761448 -0.0009772844 -0.0004574274 0.009956674
000190 de 86 5b 3c ea 52 a7 bb fe 11 72 bb 55 32 12 3b
       0.013398854 -0.0051063197 -0.0036936994 0.0022307832
0001a0 ce 4b 01 bc 5a 92 0a 3a b6 45 eb ba cc 9e 1d 3c
       -0.007891608 0.00052860903 -0.0017949853 0.00962038
0001b0 2d 48 4a bc 29 07 4b 3c 6d 79 82 bb ec 45 74 bb
       -0.01234631 0.012391844 -0.0039817602 -0.0037273122
0001c0 40 44 ca bb 20 da 3a bc 69 d3 b8 3a 07 d1 09 bb
       -0.006172687 -0.011404544 0.0014101091 -0.002102913
0001d0 d8 9e 49 bc 5c 37 38 3c 2c 36 8c 3b 86 a6 3d bc
       -0.012305938 0.011243667 0.0042789187 -0.011575347
0001e0 7b 72 24 bb 76 6e 70 bb bd 07 b5 3c c0 ca c9 3b
       -0.002509265 -0.0036686934 0.022098416 0.006158203
0001f0 b8 96 5c bb c8 d8 61 3b 21 63 f9 3b 5d 5c 9b 3c
       -0.0033659171 0.0034461487 0.007610694 0.01896494

Predict/op/BiasAdd/ReadVariableOp/resource f4 [4]
000000 db df 7f 3d 7b 8c 3a 3d c5 fe 73 bd 14 b5 f7 bd
       0.062469345 0.04554413 -0.05956914 -0.12095085

Predict/batch_normalization/batchnorm/mul f4 [64]
000000 04 ea fb 41 92 41 fc 41 54 f5 b6 41 9e 9e a5 41
       31.489265 31.532017 22.86979 20.70245
000010 80 58 fc 41 49 25 fa 41 ef 0a ce 41 8a 61 b4 41
       31.543213 31.268206 25.755339 22.547626
000020 72 fb fc 41 d2 d6 a1 41 d5 eb fa 41 49 16 fc 41
       31.622776 20.229893 31.365152 31.510881
000030 e8 b4 fc 41 3c 16 b1 41 e6 ee fa 41 5d d5 a7 41
       31.588333 22.135857 31.36665 20.979181
000040 fa e6 fc 41 b9 2b b7 41 cc 71 f6 41 3e 1b fc 41
       31.612782 22.896349 30.805565 31.513302
000050 6f 0f c7 41 58 84 a4 41 eb 0f fd 41 2e 59 96 41
       24.882536 20.564621 31.632772 18.793545
000060 19 ec a1 41 16 a4 05 42 2b 84 b5 41 64 dd b2 41
       20.240282 33.41024 22.689535 22.3581
000070 c9 af fb 41 c5 1e 03 42 d3 58 fc 41 0f 2b b3 41
       31.460833 32.78005 31.543371 22.396025
000080 4b 4b ed 41 c8 e3 87 41 98 93 c9 41 01 68 98 41
       29.661764 16.986221 25.197067 19.050783
000090 1d 9c 93 41 58 d3 f1 41 7e c1 a8 41 86 9a 9b 41
       18.451227 30.228195 21.094479 19.45045
0000a0 ce ca 95 41 2c f6 fb 41 47 18 c8 41 7b 69 fb 41
       18.724026 31.495201 25.011854 31.426504
0000b0 b9 fd f7 41 72 fb fc 41 4a d2 fc 41 e1 d7 f5 41
       30.998888 31.622776 31.60268 30.73041
0000c0 99 85 fb 41 73 3f c5 41 e8 bc e1 41 89 ab a8 41
       31.440233 24.655981 28.21724 21.083757
0000d0 e1 c2 bd 41 c4 26 a4 41 a1 df fa 41 da c8 fb 41
       23.720156 20.518929 31.359194 31.473072
0000e0 6f 0f 95 41 7d 76 9d 41 38 5a 9f 41 de 11 a4 41
       18.632536 19.682856 19.919052 20.508724
0000f0 50 8a b2 41 7a 5c 80 41 f5 c2 fc 41 49 00 b0 41
       22.317535 16.045155 31.595194 22.00014

Predict/batch_normalization/batchnorm/sub f4 [64]
000000 f5 13 f8 3c 80 cc 91 3d 1c 7b 1b bf f0 33 06 bf
       0.030282954 0.071190834 -0.60734725 -0.52423
000010 6f 0b ef 3b 63 00 2d 3d 49 f5 c7 be 8c 46 ed be
       0.007295064 0.042236697 -0.39054325 -0.46342885
000020 d9 63 91 3d f9 f2 10 bf 52 a3 8f 3c 47 54 9d bb
       0.070991226 -0.56620747 0.017533932 -0.0048013064
000030 63 d3 e7 3c 7e 13 18 bf ba 6d 89 3d 3c 96 2e bf
       0.02829904 -0.5940474 0.06710382 -0.6819799
000040 56 73 96 3d d5 14 e6 be 88 d5 15 be 89 6f 8d bd
       0.07346217 -0.4493777 -0.14632237 -0.06906039
000050 88 dd b6 be e6 1c fd be b5 87 2e bc fc cb 17 bf
       -0.3571589 -0.4943611 -0.010652472 -0.5929563
000060 d8 a2 41 bf 62 e7 e2 bc ae bb 05 bf 48 1c cc be
       -0.75639105 -0.027698223 -0.522395 -0.39865327
000070 f5 dd 85 3d 8a 45 32 3c db e8 c3 3c f1 bd ed be
       0.065364756 0.010880837 0.023914745 -0.46433976
000080 93 3b 22 be e5 67 7a bf 70 44 e0 be 4d e3 09 bf
       -0.15843038 -0.9781478 -0.43802214 -0.5386246
000090 3e cb 23 bf 95 e2 ee bd 42 d1 38 bf e8 0f 43 bf
       -0.63982 -0.11664311 -0.721943 -0.76196146
0000a0 65 d8 48 bf be 7b 97 ba ed be db be f0 fd 83 bd
       -0.7845519 -0.0011557264 -0.42919102 -0.06444919
0000b0 80 f5 01 be 1a ae 90 bd 49 19 30 3d b2 42 c4 bd
       -0.12691307 -0.07064457 0.042992864 -0.095830336
0000c0 39 2c a1 3d e2 41 cb be 94 e6 6e be 43 74 0d bf
       0.07869763 -0.39698702 -0.23330146 -0.55255526
0000d0 7c 13 41 bf 73 00 40 bf 62 42 a1 3b 33 10 f1 3a
       -0.75420356 -0.75000685 0.0049212435 0.0018391669
0000e0 a0 08 82 bf 28 95 33 bf c8 19 14 bf 87 b2 2b bf
       -1.0158882 -0.7014947 -0.5785184 -0.67069286
0000f0 d6 8c 0b bf 70 04 5a bf 72 8e dd 3c 09 ec 3a bf
       -0.54511774 -0.8516302 0.027045462 -0.7301641

Predict/fc0/MatMul i1 [64, 512] scale=0.0010874233 zero_point=0
000000 c3 db f8 39 13 11 f4 d9 b9 b5 a5 0c 42 eb c8 58
       -0.066332825 -0.040234663 -0.008699386 0.061983127 0.020661043 0.018486196 -0.013049079 -0.04240951 -0.07720705 -0.081556745 -0.09895552 0.013049079 0.07176994 -0.02283589 -0.060895704 0.09569325
000010 da ab e9 43 c4 b9 3e d4 46 f3 3e 31 2b a9 51 d7
       -0.041322086 -0.09243098 -0.025010737 0.07285736 -0.0652454 -0.07720705 0.067420244 -0.047846626 0.07611963 -0.0141365025 0.067420244 0.05328374 0.046759203 -0.094605826 0.088081285 -0.044584356
000020 00 01 fb 59 07 05 16 ad 06 28 14 4a 09 f0 30 31
       0.0 0.0010874233 -0.0054371166 0.09678067 0.007611963 0.0054371166 0.023923313 -0.09025613 0.0065245396 0.043496933 0.021748466 0.080469325 0.00978681 -0.017398773 0.052196316 0.05328374
000030 41 57 51 b7 25 5b 2d a7 d5 59 a9 29 c2 af e8 22
       0.07068251 0.094605826 0.088081285 -0.0793819 0.040234663 0.09895552 0.04893405 -0.09678067 -0.046759203 0.09678067 -0.094605826 0.044584356 -0.067420244 -0.088081285 -0.026098158 0.036972392
000040 46 fb e6 ea ac 30 a3 a7 58 2c a4 2b 5c e2 c8 b6
       0.07611963 -0.0054371166 -0.028273005 -0.023923313 -0.09134356 0.052196316 -0.10113037 -0.09678067 0.09569325 0.047846626 -0.10004295 0.046759203 0.10004295 -0.0326227 -0.060895704 -0.080469325
000050 d2 1b 47 02 35 e1 fc 23 07 cc 5a 32 3b ca dc 26
       -0.050021473 0.029360428 0.07720705 0.0021748466 0.057633433 -0.033710122 -0.004349693 0.038059816 0.007611963 -0.05654601 0.0978681 0.054371163 0.06415798 -0.058720857 -0.03914724 0.041322086
000060 d1 0e 42 bb fd d0 0f 11 4e 0a f8 4b 56 0c ec b3
       -0.051108897 0.015223926 0.07176994 -0.075032204 -0.0032622698 -0.052196316 0.01631135 0.018486196 0.08481902 0.010874233 -0.008699386 0.081556745 0.093518406 0.013049079 -0.021748466 -0.08373159
000070 cf b4 54 d5 af db f0 ed af 24 fd a5 58 3e 07 c8
       -0.05328374 -0.08264417 0.09134356 -0.046759203 -0.088081285 -0.040234663 -0.017398773 -0.020661043 -0.088081285 0.03914724 -0.0032622698 -0.09895552 0.09569325 0.067420244 0.007611963 -0.060895704
000080 14 2f f0 ec 1d 52 cd ad db c9 2d d2 e2 c7 17 b5
       0.021748466 0.051108897 -0.017398773 -0.021748466 0.031535275 0.08916871 -0.055458587 -0.09025613 -0.040234663 -0.05980828 0.04893405 -0.050021473 -0.0326227 -0.061983127 0.025010737 -0.081556745
000090 1e 37 0d fe fc df 2c a5 f1 5c ff 40 3e 2d f3 db
       0.0326227 0.05980828 0.0141365025 -0.0021748466 -0.004349693 -0.03588497 0.047846626 -0.09895552 -0.01631135 0.10004295 -0.0010874233 0.06959509 0.067420244 0.04893405 -0.0141365025 -0.040234663
0000a0 13 36 fb cf 31 08 c6 02 57 ab 1f c8 33 0b 14 0b
       0.020661043 0.058720857 -0.0054371166 -0.05328374 0.05328374 0.008699386 -0.06307055 0.0021748466 0.094605826 -0.09243098 0.033710122 -0.060895704 0.055458587 0.011961657 0.021748466 0.011961657
0000b0 d4 1f 21 e6 13 1c c7 c2 2b c3 e3 35 4e ee ae ab
       -0.047846626 0.033710122 0.03588497 -0.028273005 0.020661043 0.030447852 -0.061983127 -0.067420244 0.046759203 -0.066332825 -0.031535275 0.057633433 0.08481902 -0.01957362 -0.08916871 -0.09243098
0000c0 f0 d0 3b 55 36 ee ba ff 4d ea 2e ee 03 38 2f 05
       -0.017398773 -0.052196316 0.06415798 0.09243098 0.058720857 -0.01957362 -0.07611963 -0.0010874233 0.08373159 -0.023923313 0.050021473 -0.01957362 0.0032622698 0.060895704 0.051108897 0.0054371166
0000d0 eb 0d b5 42 48 3b e4 e7 13 d3 ba 12 ec 33 2f d3
       -0.02283589 0.0141365025 -0.081556745 0.07176994 0.07829448 0.06415798 -0.030447852 -0.027185582 0.020661043 -0.04893405 -0.07611963 0.01957362 -0.021748466 0.055458587 0.051108897 -0.04893405
0000e0 1a 38 d0 5d b5 47 c4 15 df 11 ef 40 06 b6 0a b3
       0.028273005 0.060895704 -0.052196316 0.10113037 -0.081556745 0.07720705 -0.0652454 0.02283589 -0.03588497 0.018486196 -0.018486196 0.06959509 0.0065245396 -0.080469325 0.010874233 -0.08373159
0000f0 37 0a 0a d2 bb f1 d8 af ff 4e 2b f9 58 2b 33 e3
       0.05980828 0.010874233 0.010874233 -0.050021473 -0.075032204 -0.01631135 -0.043496933 -0.088081285 -0.0010874233 0.08481902 0.046759203 -0.007611963 0.09569325 0.046759203 0.055458587 -0.031535275

Predict/fc1/MatMul i1 [32, 64] scale=0.0027007852 zero_point=0
000000 3f 1f 2b 1f ba e9 c0 0f ca f1 d0 39 aa 45 c2 24
       0.17014946 0.08372434 0.116133764 0.08372434 -0.18905497 -0.06211806 -0.17285025 0.04051178 -0.1458424 -0.04051178 -0.12963769 0.15394476 -0.23226753 0.18635418 -0.16744868 0.09722827
000010 d3 d6 0f 51 06 da d7 dd 26 b9 18 5a 13 d7 4c 5b
       -0.12153533 -0.11343297 0.04051178 0.2187636 0.016204711 -0.10262984 -0.11073219 -0.09452748 0.10262984 -0.19175574 0.064818844 0.24307066 0.05131492 -0.11073219 0.20525968 0.24577145
000020 f0 04 5f 37 7c 1e 40 09 b2 2c e8 cb 1b c5 c5 42
       -0.043212563 0.010803141 0.2565746 0.14854318 0.33489737 0.08102356 0.17285025 0.024307067 -0.21066125 0.11883455 -0.064818844 -0.14314161 0.0729212 -0.15934633 -0.15934633 0.17825182
000030 53 0f 28 56 5b 41 ca 59 57 2d 99 2f 09 61 56 ee
       0.22416517 0.04051178 0.10803141 0.23226753 0.24577145 0.17555104 -0.1458424 0.24036989 0.2349683 0.12153533 -0.27818087 0.1269369 0.024307067 0.26197615 0.23226753 -0.048614133
000040 01 d6 4c 3e b1 03 9f a4 0f 43 b6 1b f4 27 d5 cb
       0.0027007852 -0.11343297 0.20525968 0.16744868 -0.21336202 0.0081023555 -0.26197615 -0.24847224 0.04051178 0.18095261 -0.1998581 0.0729212 -0.032409422 0.10533062 -0.116133764 -0.14314161
000050 e8 36 57 19 d3 2a e9 d5 0e 1a 56 1a 1c 62 12 0f
       -0.064818844 0.1458424 0.2349683 0.06751963 -0.12153533 0.11343297 -0.06211806 -0.116133764 0.037810992 0.07022041 0.23226753 0.07022041 0.075621985 0.26467696 0.048614133 0.04051178
000060 f4 50 dc 5c 49 c8 2a 25 4b ce 1f 51 fa 2e a4 50
       -0.032409422 0.21606281 -0.09722827 0.24847224 0.19715732 -0.15124397 0.11343297 0.09992905 0.20255889 -0.13503926 0.08372434 0.2187636 -0.016204711 0.12423612 -0.24847224 0.21606281
000070 cf 41 22 5f d2 dd 2d d3 36 f5 03 30 1a ea 5c dd
       -0.13233848 0.17555104 0.09182669 0.2565746 -0.12423612 -0.09452748 0.12153533 -0.12153533 0.1458424 -0.029708637 0.0081023555 0.12963769 0.07022041 -0.059417274 0.24847224 -0.09452748
000080 d2 f8 c0 fb 02 bc 18 eb bf 28 42 4a f7 31 1d 68
       -0.12423612 -0.021606281 -0.17285025 -0.013503926 0.0054015703 -0.18365338 0.064818844 -0.056716487 -0.17555104 0.10803141 0.17825182 0.1998581 -0.024307067 0.13233848 0.07832277 0.28088164
000090 1c c6 f5 1c 9a 49 05 2a 59 2a df 40 dc 02 cc fb
       0.075621985 -0.15664554 -0.029708637 0.075621985 -0.2754801 0.19715732 0.013503926 0.11343297 0.24036989 0.11343297 -0.08912591 0.17285025 -0.09722827 0.0054015703 -0.14044082 -0.013503926
0000a0 b7 27 31 35 f7 3b 2e ba 1d 62 52 ea 3f b9 54 ad
       -0.19715732 0.10533062 0.13233848 0.14314161 -0.024307067 0.15934633 0.12423612 -0.18905497 0.07832277 0.26467696 0.22146438 -0.059417274 0.17014946 -0.19175574 0.22686595 -0.22416517
0000b0 1b 46 fc e7 2b 6c df de 18 39 ff c7 41 cd ff 00
       0.0729212 0.18905497 -0.010803141 -0.06751963 0.116133764 0.2916848 -0.08912591 -0.09182669 0.064818844 0.15394476 -0.0027007852 -0.15394476 0.17555104 -0.13774005 -0.0027007852 0.0
0000c0 f2 4a f4 3c 02 01 f9 61 06 5b ee 0d 6e 5d 5d ba
       -0.037810992 0.1998581 -0.032409422 0.16204712 0.0054015703 0.0027007852 -0.018905496 0.26197615 0.016204711 0.24577145 -0.048614133 0.035110205 0.29708636 0.25117302 0.25117302 -0.18905497
0000d0 3f 91 93 92 45 df a6 de a0 ca b7 50 5a ea 39 15
       0.17014946 -0.29978716 -0.29438558 -0.29708636 0.18635418 -0.08912591 -0.24307066 -0.09182669 -0.25927538 -0.1458424 -0.19715732 0.21606281 0.24307066 -0.059417274 0.15394476 0.056716487
0000e0 64 3e 56 01 4c 4b 35 17 8b c5 f5 b6 c2 e6 05 ff
       0.2700785 0.16744868 0.23226753 0.0027007852 0.20525968 0.20255889 0.14314161 0.06211806 -0.31599188 -0.15934633 -0.029708637 -0.1998581 -0.16744868 -0.07022041 0.013503926 -0.0027007852
0000f0 6d c8 07 20 c6 e8 28 23 fb 2e 39 47 2f 3c 0b 4f
       0.29438558 -0.15124397 0.018905496 0.086425126 -0.15664554 -0.064818844 0.10803141 0.09452748 -0.013503926 0.12423612 0.15394476 0.19175574 0.1269369 0.16204712 0.029708637 0.21336202

Predict/fc2/MatMul i1 [32, 32] scale=0.003536989 zero_point=0
000000 d2 e1 df b8 43 61 25 f1 c9 6e fb f6 e8 34 bd 47
       -0.16270149 -0.109646656 -0.11672064 -0.2546632 0.23697826 0.34308794 0.1308686 -0.053054836 -0.19453439 0.38906878 -0.017684944 -0.035369888 -0.084887736 0.18392342 -0.23697826 0.25112623
000010 33 08 ef 11 bb 10 bf 46 f8 bb 0c 33 40 27 4a db
       0.18038644 0.028295912 -0.06012881 0.06012881 -0.24405225 0.056591824 -0.22990428 0.24758923 -0.028295912 -0.24405225 0.042443868 0.18038644 0.2263673 0.13794257 0.2617372 -0.1308686
000020 09 dd 69 60 25 3a 60 0e 51 6d c1 11 f8 de d7 58
       0.0318329 -0.123794615 0.37138385 0.33955094 0.1308686 0.20514536 0.33955094 0.049517848 0.2864961 0.3855318 -0.22283031 0.06012881 -0.028295912 -0.12025762 -0.14501655 0.31125504
000030 e5 3a d0 de 18 36 37 2e 50 cd 14 f7 2a 46 13 5a
       -0.0954987 0.20514536 -0.16977547 -0.12025762 0.084887736 0.1909974 0.19453439 0.16270149 0.2829591 -0.18038644 0.070739776 -0.0318329 0.14855354 0.24758923 0.06720279 0.318329
000040 5f 43 fa 1f fc d3 df b8 c6 3a f3 79 57 23 2d f1
       0.33601394 0.23697826 -0.021221934 0.109646656 -0.014147956 -0.1591645 -0.11672064 -0.2546632 -0.20514536 0.20514536 -0.045980856 0.42797565 0.30771804 0.123794615 0.1591645 -0.053054836
000050 a1 69 2d dc c4 49 02 54 40 6b 48 5d 03 da 66 67
       -0.33601394 0.37138385 0.1591645 -0.1273316 -0.21221934 0.2582002 0.007073978 0.29710707 0.2263673 0.3784578 0.2546632 0.32893997 0.010610967 -0.13440558 0.36077288 0.36430988
000060 f0 05 11 2c 20 27 19 e5 31 02 26 fc 03 a8 0f fa
       -0.056591824 0.017684944 0.06012881 0.15562752 0.11318365 0.13794257 0.08842473 -0.0954987 0.17331246 0.007073978 0.13440558 -0.014147956 0.010610967 -0.31125504 0.053054836 -0.021221934
000070 0e 19 20 33 f6 d7 11 2b 5b df 05 f7 d2 fd c5 3e
       0.049517848 0.08842473 0.11318365 0.18038644 -0.035369888 -0.14501655 0.06012881 0.15209052 0.321866 -0.11672064 0.017684944 -0.0318329 -0.16270149 -0.010610967 -0.20868234 0.21929331
000080 d5 f8 c9 22 cd fb e1 45 55 dc 13 e1 2b 3f 1a dd
       -0.15209052 -0.028295912 -0.19453439 0.12025762 -0.18038644 -0.017684944 -0.109646656 0.24405225 0.30064407 -0.1273316 0.06720279 -0.109646656 0.15209052 0.22283031 0.09196171 -0.123794615
000090 ef 05 00 f5 2a 66 f5 3a d8 64 60 48 da 28 d9 d6
       -0.06012881 0.017684944 0.0 -0.03890688 0.14855354 0.36077288 -0.03890688 0.20514536 -0.14147955 0.3536989 0.33955094 0.2546632 -0.13440558 0.14147955 -0.13794257 -0.14855354
0000a0 df 5d e4 c3 b2 f4 de 6a 0b 53 21 2a 18 0a fc 3e
       -0.11672064 0.32893997 -0.099035695 -0.21575633 -0.27588513 -0.042443868 -0.12025762 0.37492085 0.03890688 0.29357007 0.11672064 0.14855354 0.084887736 0.035369888 -0.014147956 0.21929331
0000b0 6c c8 ba 67 22 ce 38 3b 36 c2 42 b4 1c 21 d9 1e
       0.3819948 -0.19807139 -0.24758923 0.36430988 0.12025762 -0.17684945 0.19807139 0.20868234 0.1909974 -0.21929331 0.23344128 -0.26881117 0.099035695 0.11672064 -0.13794257 0.10610967
0000c0 e7 69 58 9c dd 56 be 54 f6 ee fa 29 c1 36 46 15
       -0.08842473 0.37138385 0.31125504 -0.3536989 -0.123794615 0.30418104 -0.23344128 0.29710707 -0.035369888 -0.0636658 -0.021221934 0.14501655 -0.22283031 0.1909974 0.24758923 0.07427677
0000d0 1d e3 de 5d c3 c7 47 14 33 e2 f8 f3 f5 66 b8 3c
       0.10257268 -0.10257268 -0.12025762 0.32893997 -0.21575633 -0.20160837 0.25112623 0.070739776 0.18038644 -0.10610967 -0.028295912 -0.045980856 -0.03890688 0.36077288 -0.2546632 0.21221934
0000e0 24 55 54 19 00 5b 19 11 31 28 76 06 27 36 3a f5
       0.1273316 0.30064407 0.29710707 0.08842473 0.0 0.321866 0.08842473 0.06012881 0.17331246 0.14147955 0.4173647 0.021221934 0.13794257 0.1909974 0.20514536 -0.03890688
0000f0 e6 ef b2 d5 3a de d2 13 b6 ee 05 ba 79 27 1c 18
       -0.09196171 -0.06012881 -0.27588513 -0.15209052 0.20514536 -0.12025762 -0.16270149 0.06720279 -0.2617372 -0.0636658 0.017684944 -0.24758923 0.42797565 0.13794257 0.099035695 0.084887736

Predict/op/MatMul f4 [4, 32]
000000 37 2e 31 be 90 b9 b3 3d a1 8b 57 3e 2e 94 1b 3e
       -0.17302786 0.087756276 0.21049358 0.15193245
000010 b5 2f 68 be 4d 3b 9e be 83 1c a3 be 1d 6f 36 be
       -0.22674449 -0.30904618 -0.3185769 -0.17815824
000020 e1 c5 c9 be 46 eb f3 3e db e5 da bd 42 27 dc 3e
       -0.39408782 0.47640437 -0.10688373 0.429987
000030 04 1b f0 3d 96 7b a4 be af 03 c1 be 33 3f 68 3d
       0.11723903 -0.3212554 -0.37698123 0.056700896
000040 68 9b 9d be d4 e2 7c 3e 67 a2 20 3d ec 86 d5 3e
       -0.30782628 0.24695903 0.03921738 0.417045
000050 3e 8e bf be 83 99 81 be 72 5c 08 be ab 74 01 bf
       -0.3741321 -0.25312433 -0.13316515 -0.50568646
000060 b2 04 11 3d c4 0f 41 be 28 93 9b be 39 37 8e be
       0.03540487 -0.1885367 -0.3038571 -0.27776507
000070 47 8e 06 bf a8 16 b1 3d 3e ae 7e bd a2 23 d2 be
       -0.5256085 0.086468995 -0.06217789 -0.4104281
000080 80 d4 4e 3e 1b 2f 9f 3e c0 e8 c8 be d2 8a 59 be
       0.2019825 0.31090626 -0.39240074 -0.21244362
000090 af 91 69 be 32 b8 23 3e ed 6d d4 3e 08 7d 3a 3e
       -0.2280948 0.15988234 0.41490117 0.18211758
0000a0 80 f8 af be b3 d3 a7 be de 3a dd be 21 97 b6 be
       -0.34369278 -0.327787 -0.43208975 -0.35662177
0000b0 40 e1 3b 37 43 bc a1 be 32 1a f3 3c 41 e4 2f be
       1.1198514e-05 -0.31588945 0.029675577 -0.17176916
0000c0 e6 0a 02 3d 7e 7a c6 3e 59 8c c1 be 70 0c 57 3d
       0.031748675 0.3876533 -0.3780239 0.052502096
0000d0 bf df b2 3e 21 78 2b be a9 05 f3 3d 66 fa 8f be
       0.3493633 -0.16745044 0.11866314 -0.28120726
0000e0 fb aa 8e 3e 0e cb 87 be 44 37 d4 be 6e 6d 2f 3e
       0.27864823 -0.26522106 -0.41448414 0.17131588
0000f0 36 b9 34 3e 0a 06 cf be f6 e4 0f be 17 65 ca be
       0.17648777 -0.40434295 -0.14052185 -0.3953025
000100 b4 16 e1 bd ab a1 08 bf e0 3f 0b 3e 79 18 d4 be
       -0.109906584 -0.53371686 0.13598585 -0.4142492
000110 e5 cf f2 bd ed 04 a7 be e5 af 01 3e bd 3f 63 3e
       -0.11856059 -0.32620946 0.12664755 0.22192283
000120 da 18 55 3d 79 41 d3 bd 41 3c a9 be d3 91 1e 3e
       0.052025653 -0.10315222 -0.33053783 0.15485315
000130 53 a6 c6 be a5 15 bb be e6 47 eb 3e ad 24 af 3d
       -0.3879877 -0.3653995 0.45953292 0.08551917
000140 18 37 04 bf c6 77 a1 3c 41 b5 49 3e 32 41 92 be
       -0.51646566 0.019710433 0.19698049 -0.28565365
000150 d6 15 b6 be 04 25 8d be 6b 75 1d 3e 74 2e c9 3e
       -0.35563534 -0.27567303 0.15376823 0.39293253
000160 a8 15 88 3e 3f d2 a2 be 1c 9b 7a be 07 39 51 bd
       0.26579022 -0.3180103 -0.24473232 -0.051079776
000170 07 ee 62 3e 3f c0 53 3d 6f 68 89 3e 74 50 9f 3e
       0.22161113 0.051697012 0.2683749 0.31116068
000180 f3 83 be bd 65 63 31 3e 68 89 26 3e 3e de 0e be
       -0.09302511 0.17323072 0.16263354 -0.13951966
000190 23 46 1c bf b8 94 0d bf 34 3c fb be a4 32 60 3e
       -0.6104452 -0.5530505 -0.4906937 0.21894318
0001a0 cf 04 64 bd ba 5e 64 be 43 b7 01 3e 9b aa c6 3e
       -0.05566865 -0.2230176 0.12667565 0.38802037
0001b0 dc bd 9d be ca 68 84 3e 34 34 17 bf 16 ff b8 3e
       -0.30808914 0.25861198 -0.5906403 0.36132115
0001c0 b6 99 e3 3e ea a4 83 3e c4 3f c2 3e 90 71 b7 bb
       0.4445321 0.25711757 0.37939274 -0.0055982545
0001d0 fa 28 7c 3e 12 18 8e 3e 83 80 01 be b8 e9 03 bf
       0.24625006 0.2775274 -0.1264668 -0.515285
0001e0 14 f7 96 3d 7f be 9d bd 6e 97 f8 3d 44 16 be be
       0.07371345 -0.0770235 0.12138258 -0.37126362
0001f0 95 66 4b 3e 23 33 0d bf 2b 03 d4 be 30 16 87 be
       0.1986335 -0.55156153 -0.41408667 -0.26384115

Predict/conv2d/Conv2D f4 [1, 16, 16, 1]
000000 b8 ad 82 bd 18 4e e6 bd c7 f5 c3 bd cc e5 4e bd
       -0.063807905 -0.11245364 -0.09568363 -0.05051212
000010 16 a5 59 3d e8 51 e0 bc da c7 b1 bd 64 c3 d4 bd
       0.053135954 -0.027382806 -0.08680697 -0.1038883
000020 20 e9 73 bc ed ff cd bd c7 49 2a 3d 79 61 e6 bc
       -0.014887124 -0.100585796 0.041574266 -0.02812265
000030 c7 d4 85 3c 2b f0 00 bd 74 cd a0 3d f5 14 d7 bc
       0.016336812 -0.031479042 0.07851687 -0.02625511
000040 8a f9 88 bc cd cb 62 bd 92 dc de bd cb 89 91 3d
       -0.016720552 -0.05537014 -0.10881914 0.0710636
000050 bc 1e d7 bd a0 87 92 3c 67 80 2d 3d 1f 33 25 bd
       -0.10503909 0.017886937 0.042358782 -0.040331956
000060 50 13 a6 3d c6 5d 64 3d 3f 0f bc 3d f7 d3 45 3d
       0.08109152 0.05575349 0.091825955 0.04829785
000070 cc fd d2 3c b4 37 26 3d 02 2c 3d 3d ff 66 d5 bc
       0.025755785 0.040580466 0.046184547 -0.026050089
000080 4c a1 8c bc 9c 54 85 bd 74 1e 1f bd d6 d0 bf bd
       -0.017166756 -0.065102786 -0.0388474 -0.09366004
000090 05 c1 ae 39 27 24 b0 3d 9c 35 4d 3d 49 c5 b6 bd
       0.00033331677 0.086006455 0.050099954 -0.08924348
0000a0 04 83 06 bc f8 c7 9a 3b 72 bf 7a 3d bd f3 56 bc
       -0.0082099475 0.004723545 0.061217733 -0.013119635
0000b0 38 03 f9 bb 8a 37 88 bd 72 19 e1 bd 98 8a ae bc
       -0.0075992607 -0.06651218 -0.109911814 -0.021306321
0000c0 ae 1a ed bd 8a 3e 9e 3d f6 30 74 bd 45 0c d7 bc
       -0.11577354 0.07726772 -0.059617005 -0.026250968
0000d0 a7 c8 1c 3d 8a c2 8a bd 8b 66 70 3d 08 74 97 bd
       0.038277294 -0.06775387 0.058691543 -0.07395178
0000e0 db 7b 64 3c da d6 4b bd 36 dd 94 3d c8 4c 7e 3d
       0.013945545 -0.049765445 0.07268755 0.062084943
0000f0 9a a6 ce bd ff 16 a9 3d ff e8 5b bd 7e 5f 2d bd
       -0.100903705 0.08256339 -0.053689 -0.042327397
000100 ad fb 8d bd 44 a5 9c 3d fe f3 9a bd 0d fe 3b bc
       -0.06932769 0.076487094 -0.07566069 -0.011474145
000110 28 75 3b bd 3b ea e2 3c 2b ad 6f bd 9c 2f 91 bd
       -0.045766026 0.02769958 -0.058514755 -0.07089159
000120 44 d4 75 bd 27 b4 5a bd 2b 14 c8 3d 3f 68 a2 bc
       -0.060016885 -0.053394463 0.09769472 -0.019825099
000130 19 59 34 3d 0c b3 82 3d fa bd 77 3d b5 ff bd bd
       0.044030283 0.06381807 0.06048391 -0.09277288
000140 a5 5b c9 3d 23 83 94 3d 78 33 b2 3d 6e 61 56 3d
       0.09831933 0.07251575 0.08701223 0.05233901
000150 fd 82 8a 3d f1 a7 fc 3d c5 b2 83 3d e1 5c ea 3d
       0.06763265 0.1233672 0.06430582 0.114434965
000160 49 94 38 bb c1 8e e3 3c 3a aa a0 bd 07 ec 62 3d
       -0.0028164557 0.027778031 -0.07844968 0.055400874
000170 92 76 62 3d ef a6 70 3c 29 03 ac 3d ad ed 82 bd
       0.05528886 0.014688238 0.0839904 -0.06392989
000180 bf 9c c5 3b 15 12 96 3d cf aa f8 3d 86 2c ee 3d
       0.0060306485 0.073276676 0.12141954 0.11629586
000190 55 58 92 3d 86 29 c0 3d 42 fe 48 3c 2a 15 ad bd
       0.07145754 0.0938292 0.012267651 -0.08451302
0001a0 8d 8a dc bb cc c9 ae bd f5 fd c1 bd 90 c7 7b bd
       -0.0067303837 -0.085345834 -0.094722666 -0.061469615
0001b0 b9 4f 6c bd b1 63 bd 3b e2 d1 13 3d 48 1f cd bc
       -0.057693217 0.0057797064 0.03608883 -0.02503933
0001c0 30 4e e4 bb 6d 9f 87 bb 3c ba 3f bd dc 83 4c 3d
       -0.0069673285 -0.004138878 -0.046808466 0.04993044
0001d0 18 e5 02 bc ac 39 9c 3d 0f a4 45 3d 92 f1 a2 3d
       -0.0079891905 0.076281875 0.04825216 0.07956232
0001e0 a4 d3 56 3c 7b 52 a8 3c 94 73 bc 3d 30 3d fc 3a
       0.0131119825 0.020547142 0.09201732 0.001924431
0001f0 07 45 82 3d ee 94 4e 3d 02 84 aa 3d ab 79 a6 bd
       0.06360822 0.050435 0.0832596 -0.08128675
000200 4d 20 a8 3d 7d 56 9a 3d 4e af 06 3d e9 dd 22 bd
       0.08209286 0.075360276 0.032882027 -0.03976241
000210 b9 06 9b bc 4a f7 26 bb 8f 49 49 3c 4b ec d2 3d
       -0.018924104 -0.0025476986 0.012285604 0.102989756
000220 c2 9f fb 3b 78 2d 4f 3c 12 f7 a2 3b f1 0b ce bd
       0.0076789567 0.012645118 0.0049733007 -0.100608714
000230 77 18 44 3d 6a d8 56 bc 2b f1 02 3d 83 a5 bc 3c
       0.047874894 -0.013113121 0.031968277 0.02302814
000240 00 d2 0a bc e2 6c 86 bd 20 42 83 3c de 38 f4 3d
       -0.008472919 -0.065637365 0.016022742 0.11924909
000250 47 27 33 bd 89 6b bd bd ff 7a 6e 3d 94 b5 a7 bc
       -0.04373863 -0.09249026 0.058222767 -0.020472325
000260 da c7 97 3d f9 b1 42 bd 6c 18 70 3d 62 5d c1 3d
       0.074111655 -0.04753301 0.05861704 0.094416395
000270 4f 52 b5 bc 46 ba ac 3c 3c 67 46 bc 63 ee b8 3d
       -0.022133974 0.021084916 -0.012109574 0.09029844
000280 f9 20 d4 3d 08 46 ce bd fd 08 44 3d 84 da bc 3d
       0.103578515 -0.10071951 0.047860134 0.09221366
000290 4d 55 85 bd a5 e0 b0 bc 07 01 9b bd 93 96 c1 3c
       -0.065104105 -0.021591494 -0.07568555 0.02363137
0002a0 08 6f 8b 3d 3d 73 c7 3d d8 1b d7 3c 75 ca ad bd
       0.06808287 0.09738777 0.026258394 -0.08485881
0002b0 49 4d 2d bd 48 18 dd bd 3c 81 19 3d 1e 62 d1 bd
       -0.042310033 -0.10795647 0.037476763 -0.102237925
0002c0 16 37 2a 3d 46 05 20 bd 9e 5f 6e bd 7d a7 bc bb
       0.04155644 -0.03906753 -0.058196656 -0.005757271
0002d0 77 a1 2f 3d b8 5e 13 bd 24 04 64 bb 2d 0e c9 3d
       0.042878594 -0.035979003 -0.0034792507 0.09817157
0002e0 5b fe cb bd 66 0c e0 bc 35 3c 68 3c e7 f7 2f 3d
       -0.09960624 -0.027349662 0.014174511 0.042961027
0002f0 a3 79 8b bd f7 8c 4b 3d 82 66 56 bb e6 25 24 bd
       -0.0681031 0.04969498 -0.0032714908 -0.040075205
000300 5d 64 8a bd b6 85 43 bd 6a d8 cc 3d 4f 0c 96 3d
       -0.06757424 -0.04773494 0.10002215 0.073265664
000310 0b 34 f2 3c 19 44 d3 3d 0e 11 d2 bc 7f e2 9b 3d
       0.029565832 0.10315723 -0.025642898 0.0761156
000320 90 03 97 3d e0 dc bb 3d df 96 01 bd 1b 12 b8 3c
       0.07373726 0.09172988 -0.031638023 0.02246957
000330 09 82 c8 bd df a4 ca bd 46 02 a7 ba e2 f4 81 bd
       -0.09790427 -0.09894728 -0.0012741766 -0.06345536
000340 14 6a 34 bd 83 6c a8 bc 68 eb 5b bd 6d 19 5e 3d
       -0.044046476 -0.020559555 -0.053691298 0.054223467
000350 75 03 17 3d 9e f7 c6 3d 71 68 4b 3d 45 16 a7 bd
       0.03686853 0.09715198 0.04966015 -0.081585445
000360 e3 08 a5 3d 22 fe bf 3d 8c 50 75 bd 7c 8e 2e 3d
       0.08058336 0.09374644 -0.05989127 0.042616352
000370 65 ec cd 3d 0a ba f1 bb c7 c1 78 bc dd 98 24 3d
       0.10054854 -0.007376914 -0.015182919 0.040184844
000380 c5 72 9e bd 21 df 45 3d 4f 7b 75 3d f1 7e 3f 3d
       -0.07736734 0.048308495 0.05993205 0.04675192
000390 90 a2 9c 3c 41 58 7d 3d 40 8b 6e bd ea e7 3c bd
       0.019120485 0.061851744 -0.058238268 -0.046119608
0003a0 f3 67 62 3b b7 62 43 bd e7 9a 55 3c 05 9e c4 3d
       0.0034546822 -0.047701564 0.01303742 0.09600452
0003b0 25 b0 6e bd 56 9a 54 bd 45 1f 21 3c e6 0c 1e bd
       -0.058273453 -0.051905 0.009834115 -0.03858652
0003c0 9a c7 16 bd 0e bc f5 3c d6 69 93 bc 96 ce 83 3d
       -0.03681145 0.029996898 -0.017994802 0.064358875
0003d0 04 58 b4 bd 60 82 4f 3d 01 ae 5e 3d 02 73 b8 bd
       -0.0880585 0.050661445 0.05436516 -0.09006311
0003e0 42 35 ec bd e2 5c d5 bd 4d 32 78 bd 5c 3b 46 3c
       -0.115335956 -0.104181066 -0.060594846 0.012099113
0003f0 26 e8 37 bd 43 6f 3e bd 07 2c b3 3b 08 24 a7 bd
       -0.04489913 -0.046492826 0.005467895 -0.08161169

Predict/layer_conv1/Conv2D f4 [4, 3, 3, 1]
000000 9d 21 3e 3e f6 1b c6 3e 30 d6 9e be 24 65 bb 3d
       0.1856751 0.38693208 -0.31022787 0.091501504
000010 1b cc bf 3d 42 52 79 bb 54 38 8d 3e fd bc a7 be
       0.09365102 -0.0038043414 0.27582037 -0.32761374
000020 09 20 a1 be f9 1b a0 be b1 ed 49 bd 6f 05 69 be
       -0.31469753 -0.3127134 -0.049298946 -0.22755979
000030 37 c7 25 bd 05 a4 73 3d b6 a9 4c be 6e c6 b9 be
       -0.04047319 0.059482593 -0.19986615 -0.36284202
000040 a1 fc 80 3e e4 93 6b 3e a9 8c 54 3e 33 02 65 3e
       0.2519274 0.23005635 0.20756783 0.2236412
000050 a0 4d 96 3e cf e8 c1 3e 21 12 a2 be f1 78 90 be
       0.29356098 0.3787293 -0.31654456 -0.2821727
000060 62 70 e4 bc a2 c8 d2 bd 13 26 81 3e 0b 72 0f be
       -0.02788562 -0.10292174 0.2522436 -0.14008348
000070 01 01 fe 3d e6 b2 0a 3e 27 d6 44 3c 4d 88 bc 3e
       0.12402535 0.13544807 0.0120139485 0.3682274
000080 d2 92 e3 b9 f0 e7 5a bd 95 26 ff 3d 2e 58 6b 3e
       -0.00043406204 -0.05344385 0.12458531 0.22982857

Predict/layer_conv2/Conv2D f4 [8, 3, 3, 4]
000000 7a 36 a6 3d 1d 1a 81 3e 14 38 15 3e fd ba 76 3d
       0.08115859 0.25215235 0.14572173 0.06023692
000010 e3 9b 1e be 8a 14 7b bd 17 ea 0d 3d 98 ec 70 3e
       -0.15489154 -0.061298884 0.034647074 0.23527753
000020 e0 8c 1c 3d f6 30 39 3e 40 f6 21 3e 36 1d 1c be
       0.038220286 0.18085083 0.15816593 -0.15245518
000030 83 e5 c9 bc 6c 70 ff bd ec 01 01 3e 0c 21 f5 bd
       -0.024645573 -0.12472615 0.1259839 -0.11969194
000040 47 69 89 bd b1 39 29 3e f8 e8 ff bd 73 93 08 3e
       -0.06709533 0.16525914 -0.12495607 0.13337497
000050 d4 f7 b1 bd 07 7c 5b be 05 30 07 3e cc cc 64 3e
       -0.086898476 -0.21434031 0.13201912 0.22343749
000060 d7 6b 5c 3e 53 7a f0 bd bc 65 d5 bd c6 c3 49 3e
       0.21525513 -0.117420815 -0.10419795 0.19703588
000070 fb fd 90 3d 08 d9 79 bd 1f bf 40 3e 47 a0 01 3e
       0.07079693 -0.060997993 0.18822907 0.12658797
000080 0f b9 3f 3e e6 cf 11 be 29 1f 7c 3e 4c 9e a3 3d
       0.18722938 -0.14239463 0.24621262 0.07989177
000090 ff e3 da 3d b9 c2 a9 3d 8d 50 1d 3e 36 69 b5 3c
       0.10688018 0.082890935 0.15362759 0.022144895
0000a0 88 b3 30 3d 0d e2 d8 bd 99 5e 6e be 04 7c 52 be
       0.043139964 -0.10589991 -0.23278274 -0.2055512
0000b0 32 cf 9d bd bf c6 8a 3d 48 31 ef 3d ff 89 47 3e
       -0.07705535 0.06776189 0.116793215 0.19486235
0000c0 ab 46 73 be 3c cc d7 bd fc 0f a9 bd 02 87 50 bd
       -0.23757426 -0.105370015 -0.08255002 -0.050910003
0000d0 d7 7a 4f be 90 13 81 be bc 7f 34 3e 00 35 6c be
       -0.20261703 -0.25210238 0.17626852 -0.23067093
0000e0 f8 e3 62 3e c1 c6 09 3e 58 ab 53 be 42 73 42 be
       0.22157276 0.13454725 -0.20670831 -0.1898928
0000f0 d3 b0 30 3e b4 6c 2f 3e 6b 60 0c 3e 06 bf 4d bd
       0.17254953 0.1713131 0.13708656 -0.050231002
000100 19 43 b9 3d b2 33 6a be 9a 65 b7 3d 84 1c 9a 3c
       0.09046001 -0.22871283 0.08954926 0.018812425
000110 a3 a0 39 3e 67 93 fb 3c e7 f1 fc 3d bb 27 31 3e
       0.18127684 0.030709935 0.12350827 0.17300312
000120 e5 a6 39 bd 74 2d 57 be e5 69 87 3b 08 fd 57 3e
       -0.04532518 -0.21013433 0.0041324967 0.21092618
000130 de ef 22 be 75 1b 5c be 4a 71 3b 3d c4 41 71 3e
       -0.15911815 -0.21494849 0.045762338 0.23560244
000140 40 8e bb bd fd bb b2 bd 5b fe c7 3d 8f 44 e8 3d
       -0.091579914 -0.08727262 0.09765311 0.113412015
000150 1e cd 82 be 0f a7 b3 bd 1b c8 29 bd 78 e0 3c 3e
       -0.25547117 -0.08772098 -0.0414506 0.18445003
000160 10 b7 09 be 1b 3a b5 bd 2d 3a 95 bc a8 04 24 be
       -0.13448739 -0.08848973 -0.018216217 -0.16017401
000170 a2 cc 67 be 7a e9 7b bd 6d 92 28 3e 7a df 55 3e
       -0.22636655 -0.061501957 0.16462107 0.20886031
000180 74 92 c5 bd bf 48 bc bc 45 ee f1 3b 1b ab 40 3e
       -0.09647074 -0.022983907 0.0073831403 0.18815272
000190 db d8 10 3e 65 56 ef 3b bb 4f 80 bd e5 9d 01 bd
       0.14145224 0.007304 -0.062652074 -0.03164472
0001a0 20 56 24 3b b5 fb 14 3d ca 1f ee bd 10 70 78 3c
       0.0025075749 0.03637286 -0.11627157 0.0151634365
0001b0 3b 73 2c be 39 79 68 be d1 f6 c9 bd f1 32 0a 3e
       -0.16840832 -0.22702493 -0.098615296 0.13495995
0001c0 03 f3 64 be 8b 43 7e bd c9 c1 76 3d 83 75 51 be
       -0.22358327 -0.062076133 0.0602434 -0.20454983
0001d0 7a f5 16 3d e0 29 18 be be 23 d4 b9 5a 19 63 be
       0.0368552 -0.14859724 -0.0004046242 -0.2217764
0001e0 73 fa 2f be 7d 47 29 bd b9 79 dc bc 65 50 18 be
       -0.17185383 -0.041327942 -0.02691351 -0.14874418
0001f0 92 80 ba bc ab ba 17 bd 94 9f 69 be 92 08 24 be
       -0.022766385 -0.037043255 -0.2281478 -0.16018894
000200 ee c1 15 3d b1 79 09 3d 5c 05 33 3d 0e 92 e0 3d
       0.0365619 0.03356332 0.043706283 0.10965358
000210 18 a6 d2 3d 04 ad 63 3e f2 2c 5c 3e e8 aa 61 3e
       0.10285586 0.22233969 0.2150152 0.22037852
000220 97 c2 de bd 56 fb 4e bc 69 e9 45 3e 8e 3c 33 3e
       -0.10876959 -0.012633165 0.1932732 0.17503569
000230 c6 24 17 be 0a a7 bf bd 25 a6 d4 3d 9c 43 24 3e
       -0.14760122 -0.09358032 0.10383252 0.16041416
000240 74 38 09 3e 93 4e 0e be af cb a2 3d 48 41 09 be
       0.13400441 -0.13897161 0.07949006 -0.13403809
000250 a4 d2 1d 3e 35 72 ce bb a5 0d f2 bd 4b 65 f0 3b
       0.15412384 -0.0063002356 -0.11819009 0.007336294
000260 90 75 a6 bd 95 49 e0 3d 02 7f a3 bd 0d 1a f8 bd
       -0.08127892 0.10951535 -0.07983209 -0.12114344
000270 44 74 c7 bc e0 c0 2b 3e 3e e2 1e be 16 ec b8 3d
       -0.024347432 0.16772795 -0.15515992 0.09029405
000280 73 b1 4a 3e 3b 19 c9 bd 61 fb 03 be e3 ec 00 bd
       0.19794254 -0.098192655 -0.12888862 -0.031475913
000290 b0 7b ed 3c f0 bb d7 bb df b4 31 be 39 f3 bb 3d
       0.028989643 -0.006583683 -0.17354153 0.091772504
0002a0 90 b0 15 3e 81 c3 4f be ab 07 0b be 9b 8b c9 bd
       0.14618134 -0.20289423 -0.13577144 -0.09841081
0002b0 73 a3 f2 3d 6c e8 a5 bd bf 3b e7 bd b1 4c 23 3e
       0.11847582 -0.081009716 -0.112906925 0.15947224
0002c0 51 18 9d bd 18 ba 88 bd ea c9 cf 3d 13 c9 19 be
       -0.076706536 -0.066761196 0.10145934 -0.1501811
0002d0 77 dc 48 be 74 5a 57 be cf 4b 24 3e 9a 70 c2 bd
       -0.1961535 -0.21030599 0.16044544 -0.09494133
0002e0 25 96 33 be 31 05 50 3e 4f 0d 57 3e da dc 6f be
       -0.17537744 0.2031448 0.2100117 -0.23424092
0002f0 2e a0 a6 3d 03 14 4c 3e 58 d8 b6 bd a3 f5 f1 3d
       0.081360206 0.19929509 -0.08927983 0.118144296
000300 70 ad 69 bd 41 91 2f 3e cb 28 a2 bd 97 5b 11 3b
       -0.05705017 0.17145254 -0.07917937 0.0022179836
000310 ec c6 91 bd 65 56 2c bd db 7c 87 3d d0 62 62 be
       -0.071180195 -0.04207458 0.06615611 -0.22108006
000320 1a f2 e3 3d c9 1d 33 bd cc 1d 53 3e 12 29 59 3c
       0.111301616 -0.043729577 0.20616835 0.013254421
000330 e8 b6 19 be 4f d0 ce bd e8 83 00 be 4a fc 2a 3e
       -0.1501118 -0.100983255 -0.12550318 0.16697803
000340 34 72 78 3e 96 13 35 be ad 41 cb 3d 10 e6 3c 3e
       0.24262315 -0.17683253 0.09924636 0.18447137
000350 ba 57 1d 3e a9 07 6c 3d 07 45 a6 bd 67 94 4d be
       0.15365496 0.057624493 -0.08118635 -0.20076142
000360 75 83 0e 3d 4f c2 aa bc c7 ab e4 bd a1 37 5e be
       0.034793336 -0.020844607 -0.111655764 -0.21700908
000370 b4 d2 29 be e3 cc 2d 3d d7 da f7 bd 70 8f a4 3d
       -0.16584283 0.042431723 -0.12102287 0.08035171
000380 29 6e e5 bd d1 4b 44 be 9b a2 71 be b2 c2 cd 3d
       -0.11202652 -0.19169547 -0.23597185 0.10046901
000390 4f c1 26 3d 9e aa 0a 3d f0 24 2b 3e 45 dd 16 be
       0.040711697 0.03385412 0.1671331 -0.14732845
0003a0 24 17 42 be af e6 22 be 60 a5 70 bd 5e 92 e5 bd
       -0.1895414 -0.15908311 -0.058751464 -0.11209558
0003b0 4b a0 29 be 91 7d e6 bb 7f ba c7 bd a4 1c ff bd
       -0.16565053 -0.0070340117 -0.09752368 -0.12456635
0003c0 4c c1 49 bd f7 d0 77 3d 05 f5 3b 3c 43 68 18 be
       -0.049256608 0.06050202 0.011471991 -0.14883523
0003d0 39 64 9f 3d e4 67 f9 bd 2b 3d 8c 3d 42 06 27 3e
       0.07782788 -0.12178019 0.06847604 0.16310981
0003e0 b2 45 65 be ee a3 5a bd 30 64 08 3e 31 62 0a be
       -0.22389868 -0.05337899 0.13319468 -0.1351402
0003f0 32 99 32 3e e3 04 99 bd 38 54 1c 3e 22 02 33 3e
       0.17441252 -0.07471635 0.15266502 0.17481282

Predict/layer_conv3/Conv2D i1 [16, 3, 3, 8]
000000 55 d6 39 66 0f e7 ca d7 5e a8 f2 a2 d3 a9 20 34
       85 -42 57 102 15 -25 -54 -41 94 -88 -14 -94 -45 -87 32 52
000010 12 2e 5d ce ca b3 9b a6 3c ef 7a ea 6b 33 18 14
       18 46 93 -50 -54 -77 -101 -90 60 -17 122 -22 107 51 24 20
000020 6d 07 10 cc e5 34 73 e1 c7 f2 ee 81 85 59 2e f8
       109 7 16 -52 -27 52 115 -31 -57 -14 -18 -127 -123 89 46 -8
000030 f5 92 21 c8 21 25 51 40 30 96 d5 fa 5d b0 a8 2f
       -11 -110 33 -56 33 37 81 64 48 -106 -43 -6 93 -80 -88 47
000040 e4 9a fd 46 53 c6 ec 06 1c 3d 16 94 10 43 5d 4d
       -28 -102 -3 70 83 -58 -20 6 28 61 22 -108 16 67 93 77
000050 ae c2 99 63 4d 94 22 42 03 62 63 72 e5 1f 1c ff
       -82 -62 -103 99 77 -108 34 66 3 98 99 114 -27 31 28 -1
000060 fd 01 ec 7f 22 a3 02 65 f5 d8 ab 03 a8 b1 25 6c
       -3 1 -20 127 34 -93 2 101 -11 -40 -85 3 -88 -79 37 108
000070 5f 11 d4 40 6b ac a0 66 ba ca 2a 25 a7 06 73 1b
       95 17 -44 64 107 -84 -96 102 -70 -54 42 37 -89 6 115 27
000080 18 fe d9 01 c6 23 4f 2d 59 eb 8d 9f cc 0e c0 c6
       24 -2 -39 1 -58 35 79 45 89 -21 -115 -97 -52 14 -64 -58
000090 bf 77 be 9c be 0e d1 4b b4 42 4e 17 69 d0 35 df
       -65 119 -66 -100 -66 14 -47 75 -76 66 78 23 105 -48 53 -33
0000a0 53 bf e2 5b 20 09 42 d8 d0 b8 2f f7 a0 63 2c b0
       83 -65 -30 91 32 9 66 -40 -48 -72 47 -9 -96 99 44 -80
0000b0 90 a6 09 7c a1 8f 26 d7 b0 a5 1f 75 e4 f2 8a 65
       -112 -90 9 124 -95 -113 38 -41 -80 -91 31 117 -28 -14 -118 101
0000c0 be ba 61 07 fe 2a 42 81 ba 81 fb 54 d6 1d ec ce
       -66 -70 97 7 -2 42 66 -127 -70 -127 -5 84 -42 29 -20 -50
0000d0 6b 90 2b 75 3b c3 51 86 4a ed cd 40 c7 d0 7e ad
       107 -112 43 117 59 -61 81 -122 74 -19 -51 64 -57 -48 126 -83
0000e0 e0 05 f6 6f 68 bf fc 81 dd 6d c7 01 f3 78 0c 16
       -32 5 -10 111 104 -65 -4 -127 -35 109 -57 1 -13 120 12 22
0000f0 b3 e4 74 b6 ca d5 45 c2 c5 a6 fe bb 61 2d 99 1a
       -77 -28 116 -74 -54 -43 69 -62 -59 -90 -2 -69 97 45 -103 26

Predict/layer_conv4/Conv2D i1 [32, 3, 3, 16]
000000 2b 64 6d 1a dc 19 e1 0d eb 26 90 be 04 a8 37 fb
       43 100 109 26 -36 25 -31 13 -21 38 -112 -66 4 -88 55 -5
000010 48 a7 14 23 f0 34 b8 a7 0e 3d 5b ef 12 aa 6c 2e
       72 -89 20 35 -16 52 -72 -89 14 61 91 -17 18 -86 108 46
000020 c0 1a 3e f9 4e 21 9b 64 29 9a 59 f9 95 a4 66 d5
       -64 26 62 -7 78 33 -101 100 41 -102 89 -7 -107 -92 102 -43
000030 fb fd fe e3 65 fa fc 48 49 0a 2f 47 c5 44 a2 92
       -5 -3 -2 -29 101 -6 -4 72 73 10 47 71 -59 68 -94 -110
000040 92 36 e9 2e fe 6a a1 cd 2e 21 44 e6 26 ec 51 bd
       -110 54 -23 46 -2 106 -95 -51 46 33 68 -26 38 -20 81 -67
000050 a3 32 e7 50 c7 d6 3e df f1 26 4f 95 7f cf 9f 15
       -93 50 -25 80 -57 -42 62 -33 -15 38 79 -107 127 -49 -97 21
000060 54 ab fe 58 92 b6 cf 12 10 a2 04 c8 3a ac b6 06
       84 -85 -2 88 -110 -74 -49 18 16 -94 4 -56 58 -84 -74 6
000070 03 f1 e0 11 1b bb 4f 9f 43 79 36 4d e6 be 7c 67
       3 -15 -32 17 27 -69 79 -97 67 121 54 77 -26 -66 124 103
000080 e0 1d f9 c0 6b 5f 2a ab a0 72 36 df 9a 29 16 f2
       -32 29 -7 -64 107 95 42 -85 -96 114 54 -33 -102 41 22 -14
000090 8f d9 f3 8c 1e 6c bd 0d bb f2 fa 0a 2d c4 a8 de
       -113 -39 -13 -116 30 108 -67 13 -69 -14 -6 10 45 -60 -88 -34
0000a0 c3 42 bd 81 fb c0 49 da 51 a9 a1 ee 23 d6 e6 f9
       -61 66 -67 -127 -5 -64 73 -38 81 -87 -95 -18 35 -42 -26 -7
0000b0 23 55 a2 23 91 be 19 9e 00 b7 cc 9d 0c 69 65 a4
       35 85 -94 35 -111 -66 25 -98 0 -73 -52 -99 12 105 101 -92
0000c0 4b fc 2d 46 0b 09 cf 3c 3b 0d 41 f8 aa df 9d 5a
       75 -4 45 70 11 9 -49 60 59 13 65 -8 -86 -33 -99 90
0000d0 dc ae f7 c5 77 4b 19 cd af 29 0b f5 52 19 ef 05
       -36 -82 -9 -59 119 75 25 -51 -81 41 11 -11 82 25 -17 5
0000e0 19 05 b0 c8 76 26 60 0a 30 2a 2e 37 e4 1f c1 18
       25 5 -80 -56 118 38 96 10 48 42 46 55 -28 31 -63 24
0000f0 05 8b 63 c7 21 5e a4 ba bf 71 15 38 97 ef 48 a2
       5 -117 99 -57 33 94 -92 -70 -65 113 21 56 -105 -17 72 -94
