v3/DWT_Com_+_Pre-Conv_TFLite.tflite (tflite, 546920 bytes, 23 tensors)

Predict/fc0/BiasAdd/ReadVariableOp/resource f4 [64]
0.00069593894 -0.0031836096 -0.019712001 0.0050236485 -0.0015401101 -0.0034702583 0.010866507 -0.003989814
0.0 0.00568355 -0.0034770635 -0.0036453693 -0.0013323294 -0.0014542937 -0.003638688 0.012274072
-0.0003162276 -0.01195368 0.0024399306 -0.0034343977 0.00019094169 -0.01792229 -0.00031622747 0.0020960378
-0.011280955 -0.00046781526 -0.026387354 0.0082585225 -0.0055604796 -0.013805914 -0.0012712774 0.0063458118
0.0042793327 -0.008619047 -0.0023113582 0.008933153 0.008490636 0.000116167466 -0.020063415 0.007049592
0.011484367 -0.005413169 0.00015747169 0.0018086416 -0.00092329516 0.0 -0.0006324529 0.0034592554
-0.002379372 -0.0026717668 0.003636694 0.0031778463 0.006545339 -0.005020984 -0.0043051243 -0.0018778283
0.0005399594 -0.00086859474 -0.018594526 0.006533151 0.0014486044 -0.009781745 -0.0011884919 -0.00369828
00000000: ac6f 363a 1ba4 50bb 107b a1bc 6b9d a43b
00000010: 85dd c9ba 466d 63bb 6f09 323c fcbc 82bb
00000020: 0000 0000 133d ba3b 72df 63bb 26e7 6ebb
00000030: 8ea1 aeba 009e beba 0e77 6ebb 3019 493c
00000040: 5acb a5b9 5ed9 43bc 3ee7 1f3b a213 61bb
00000050: 8537 4839 c4d1 92bc 55cb a5b9 ae5d 093b
00000060: c1d3 38bc 1a45 f5b9 4b2a d8bc c14e 073c
00000070: af34 b6bb 3332 62bc fea0 a6ba 87f0 cf3b
00000080: a539 8c3b e736 0dbc 287a 17bb 5c5c 123c
00000090: 4f1c 0b3c ef9e f338 085c a4bc 4400 e73b
000000a0: ed28 3c3c f460 b1bb fc1e 2539 f10f ed3a
000000b0: 4a09 72ba 0000 0000 32cb 25ba adb4 623b
000000c0: 3def 1bbb cf18 2fbb 9a55 6e3b 6a43 503b
000000d0: 487a d63b 1187 a4bb 0012 8dbb 7621 f6ba
000000e0: 108c 0d3a 68b2 63ba 8c53 98bc 0b14 d63b
000000f0: 19df bd3a 9d43 20bc 2cc7 9bba d85e 72bb

Predict/fc1/BiasAdd/ReadVariableOp/resource f4 [32]
0.0032848353 -0.008791984 0.043132205 0.06226669 0.02110038 0.021753108 0.006196076 0.031165946
-0.0135816485 0.057275753 0.037668668 0.0023882713 0.023803275 0.047911704 0.032453906 0.091683485
0.043919932 0.03503761 0.01997086 0.03856922 0.025304563 0.013387745 0.04571162 0.05812147
0.08210729 0.038266182 0.039251234 0.0332484 0.057584528 0.013058624 0.000612533 0.021905713
00000000: 6446 573b 410c 10bc 65ab 303d 5b0b 7f3d
00000010: b4da ac3c 9333 b23c 7408 cb3b ba4f ff3c
00000020: 9085 5ebc fb99 6a3d 764a 1a3d 8b84 1c3b
00000030: 16ff c23c 103f 443d 63ee 043d 8dc4 bb3d
00000040: 63e5 333d 9983 0f3d ee99 a33c c2fa 1d3d
00000050: 844b cf3c 4658 5b3c 1c3c 3b3d c710 6e3d
00000060: de27 a83d 00bd 1c3d e7c5 203d 792f 083d
00000070: c1dd 6b3d d7f3 553c 6592 203a 9c73 b33c

Predict/fc2/BiasAdd/ReadVariableOp/resource f4 [32]
0.060502693 0.059833016 0.003137651 0.04316119 0.122659795 0.04219542 0.05389802 -0.028728612
-0.00904502 0.025845654 0.012812 0.04187836 0.05011115 -0.033695642 0.06611067 -0.06726524
0.010286241 0.030291192 0.015125105 0.07203796 0.00041438587 -0.022932243 -0.087454535 0.01472319
0.0071593705 -0.0502692 -0.06742575 0.048951596 0.050308637 0.028258808 0.026051091 0.010646634
00000000: acd1 773d 7713 753d 0ca1 4d3b cac9 303d
00000010: 0f35 fb3d 1bd5 2c3d 2cc4 5c3d 4458 ebbc
00000020: 9031 14bc 44ba d33c 6ce9 513c a588 2b3d
00000030: 5941 4d3d 7104 0abd 0865 873d 5cc2 89bd
00000040: 9f87 283c 3c25 f83c 4acf 773c a388 933d
00000050: ee41 d939 66dc bbbc 5d1b b3bd 8939 713c
00000060: 2799 ea3b 14e7 4dbd 8316 8abd 7881 483d
00000070: 6e10 4e3d 047f e73c 1969 d53c 386f 2e3c

Predict/layer_conv1/BiasAdd/ReadVariableOp/resource f4 [4]
0.011272166 0.0044770786 -0.019312812 -0.009498629
00000000: e4ae 383c 75b4 923b e735 9ebc 23a0 1bbc

Predict/layer_conv2/BiasAdd/ReadVariableOp/resource f4 [8]
-0.02184448 0.0042500505 -0.010526474 0.013862878 0.013791733 0.009163397 -0.0067087845 -0.009455717
00000000: 32f3 b2bc 0244 8b3b 3b77 2cbc 2021 633c
00000010: b9f6 613c 1322 163c 5dd5 dbbb 27ec 1abc

Predict/layer_conv3/BiasAdd/ReadVariableOp/resource f4 [16]
-0.0032302877 -0.010179974 -0.005747068 -0.010098174 0.0145050455 -0.0140485605 -0.004730104 -0.005045554
-0.0077401865 0.025600666 0.012404996 0.001982854 -0.009018551 0.005345359 0.0040939716 0.0030671575
00000000: 3cb3 53bb e8c9 26bc e751 bcbb d072 25bc
00000010: 92a6 6d3c ef2b 66bc fdfe 9abb 2d55 a5bb
00000020: 64a1 fdbb 7db8 d13c 533e 4b3c c5f2 013b
00000030: 8bc2 13bc 1f28 af3b b926 863b 5d02 493b

Predict/layer_conv4/BiasAdd/ReadVariableOp/resource f4 [32]
0.0120959645 0.0046908343 0.0060383803 -0.0016539616 -0.0075862748 -0.016129943 0.005276549 -0.01947683
0.00088656764 -0.01876587 -0.013860823 0.0021296088 -0.01243488 -0.010423762 -0.024544885 0.012159873
-0.0057880934 0.0019176381 -1.11135305e-05 -0.0003302039 0.0008216411 -0.0031800647 -0.0064371303 0.008850359
0.012291666 -0.0024293126 -0.0004904618 0.0056940806 0.010901156 -0.010042779 0.0022184432 0.0012474337
00000000: 272e 463c 92b5 993b 9bdd c53b bec9 d8ba
00000010: 4996 f8bb f122 84bc e7e6 ac3b df8d 9fbc
00000020: 8c68 683a e2ba 99bc 8118 63bc e890 0b3b
00000030: abbb 4bbc 6dc8 2abc 5b12 c9bc 343a 473c
00000040: 0caa bdbb 4259 fb3a 4074 3ab7 381f adb9
00000050: 6763 573a a268 50bb 90ee d2bb 1901 113c
00000060: fc62 493c 1a35 1fbb 5692 00ba 6995 ba3b
00000070: c39a 323c 788a 24bc 4d63 113b ee80 a33a

Predict/layer_conv5/BiasAdd/ReadVariableOp/resource f4 [64]
0.004130315 0.012255064 -0.024220629 0.0145689985 0.018272897 0.006804603 -0.01865527 -0.024628181
-0.024693167 -0.00018466459 -0.004005389 -0.019510834 -0.0090626795 0.011595605 -0.0032961685 -0.022982564
0.0020855335 -0.0031470659 -0.004730064 -0.007955121 -0.014715025 -0.004913326 -0.0011127382 -0.009269988
-0.0016911901 -0.0026333896 -0.00066387875 0.0145019125 -0.010583442 -0.013068263 -0.0052397535 -0.0051686536
-0.019436527 -0.00012699851 -0.012436404 -0.008348624 -0.012043229 0.0035830888 -0.0066197193 -0.0066813296
-0.008567074 -0.015033732 0.002411224 -0.0012889823 -0.009271124 0.00023382792 0.011004164 0.012526231
-0.009866029 0.0151255 -0.00067904673 0.0073631867 0.00055964873 0.01467314 0.014229537 -0.010472494
0.009241903 0.0032808927 -0.009880672 0.0034743494 -0.011241215 0.00316237 -0.0045706043 -0.00089489354
00000000: 9857 873b 77c9 483c 576a c6bc cfb2 6e3c
00000010: 0bb1 953c 26f9 de3b f0d2 98bc 0ac1 c9bc
00000020: 5349 cabc 86a2 41b9 a33f 83bb 2fd5 9fbc
00000030: a27b 14bc 7efb 3d3c 8804 58bb ee45 bcbc
00000040: 72ad 083b 013f 4ebb a7fe 9abb 3256 02bc
00000050: 4a17 71bc f7ff a0bb 4cd9 91ba 26e1 17bc
00000060: ecaa ddba f294 2cbb 2608 2eba 6e99 6d3c
00000070: 2c66 2dbc 451c 56bc 3db2 abbb cf5d a9bb
00000080: 5a39 9fbc e72a 05b9 0fc2 4bbc abc8 08bc
00000090: f750 45bc 41d2 6a3b 3bea d8bb 0eef dabb
000000a0: ea5c 0cbc 0b50 76bc a005 1e3b 12f3 a8ba
000000b0: eae5 17bc b42f 7539 cf4a 343c d23a 4d3c
000000c0: 20a5 21bc f2d0 773c 0e02 32ba e346 f13b
000000d0: 64b5 123a 9c67 703c 0123 693c d394 2bbc
000000e0: 5a6b 173c 3f04 573b 8be2 21bc e9b1 633b
000000f0: 132d 38bc c43f 4f3b 02c5 95bb 4a97 6aba

Predict/layer_conv6/BiasAdd/ReadVariableOp/resource f4 [128]
-0.0024546522 -0.00034756993 0.00021821223 0.0042601684 0.005239944 -0.0004039475 0.00014928935 -0.012695972
0.0050897403 -0.007570276 0.00051294436 -0.005633796 -0.0033621434 -0.010311685 0.0057346253 -0.007209773
0.0044299653 -0.006227631 -0.00044839666 -0.0011011427 0.001008665 0.016984258 0.006254823 0.0017815451
0.0043858956 0.0035116004 0.0036777584 0.0026785647 0.007856851 0.002816728 0.0024110754 0.007418564
0.00063393475 -0.00597213 0.011038932 0.0058326465 0.0042340793 0.00649869 0.0060882503 0.0044928472
0.0036458778 -0.0046177837 0.009984979 0.0050841137 0.0097202845 -0.0078771105 0.011878277 -0.0043948987
-0.0032124887 0.00041092653 -0.0037349667 -0.008203295 -0.01625106 0.015023521 0.0023726556 0.0072342367
-0.018040238 -0.0038592306 -0.0033129773 0.011580734 -0.0032757819 -0.005754309 -0.0056598284 -0.006405888
0.004449697 0.009896758 -0.0024713106 0.004460849 0.0038313498 0.0016768915 -0.022202788 -0.004192448
-0.014848607 0.013516346 -0.0047881496 -0.00389569 -0.0028108421 -0.005823646 0.0014524517 0.011519259
0.0013154943 -0.005985075 -0.0040677027 -0.020334184 -0.004037051 -0.0024486324 0.0021220655 -0.0055734296
-0.011679996 0.001952036 -0.0030997042 0.0032716196 0.012113055 -0.0060313065 0.0016032573 -0.0021251987
0.0038761448 -0.0009772844 -0.0004574274 0.009956674 0.013398854 -0.0051063197 -0.0036936994 0.0022307832
-0.007891608 0.00052860903 -0.0017949853 0.00962038 -0.01234631 0.012391844 -0.0039817602 -0.0037273122
-0.006172687 -0.011404544 0.0014101091 -0.002102913 -0.012305938 0.011243667 0.0042789187 -0.011575347
-0.002509265 -0.0036686934 0.022098416 0.006158203 -0.0033659171 0.0034461487 0.007610694 0.01896494
00000000: 3bde 20bb 0c3a b6b9 e6cf 6439 e298 8b3b
00000010: d6b3 ab3b eac8 d3b9 8e8a 1c39 c402 50bc
00000020: d6c7 a63b 1410 f8bb 1d77 063a b59b b8bb
00000030: 6857 5cbb 57f2 28bc 86e9 bb3b f63f ecbb
00000040: 3e29 913b 2811 ccbb c816 ebb9 3854 90ba
00000050: 2e35 843a 9222 8b3c 42f5 cc3b bc82 e93a
00000060: 8fb7 8f3b e122 663b 8c06 713b dc8a 2f3b
00000070: 06ba 003c db98 383b 2203 1e3b 6d17 f33b
00000080: a42e 263a dcb1 c3bb a3dc 343c c91f bf3b
00000090: 08be 8a3b f7f2 d43b f27f c73b bc38 933b
000000a0: aeef 6e3b c750 97bb 0a98 233c a398 a63b
000000b0: d441 1f3c ff0e 01bc 1b9d 423c 1503 90bb
000000c0: 9e88 52bb a071 d739 58c6 74bb 1d67 06bc
000000d0: f120 85bc 3725 763c 8e7e 1b3b 2d0d ed3b
000000e0: 1fc9 93bc 25eb 7cbb 891e 59bb 1ebd 3d3c
000000f0: 80ae 56bb a48e bcbb 1576 b9bb 7ce8 d1bb
00000100: c4ce 913b 0326 223c b6f5 21bb 502c 923b
00000110: 6217 7b3b 24cb db3a 9fe2 b5bc ce60 89bb
00000120: 9247 73bc aa73 5d3c e9e5 9cbb d54e 7fbb
00000130: 1b36 38bb 49d4 bebb 3160 be3a 46bb 3c3c
00000140: aa6c ac3a 731e c4bb 5d4a 85bb e093 a6bc
00000150: 3d49 84bb 3c79 20bb 5a12 0b3b 51a1 b6bb
00000160: 745d 3fbc 76db ff3a 6824 4bbb ab68 563b
00000170: d675 463c 44a2 c5bb 6324 d23a eb46 0bbb
00000180: eb06 7e3b 3918 80ba ded2 efb9 5121 233c
00000190: de86 5b3c ea52 a7bb fe11 72bb 5532 123b
000001a0: ce4b 01bc 5a92 0a3a b645 ebba cc9e 1d3c
000001b0: 2d48 4abc 2907 4b3c 6d79 82bb ec45 74bb
000001c0: 4044 cabb 20da 3abc 69d3 b83a 07d1 09bb
000001d0: d89e 49bc 5c37 383c 2c36 8c3b 86a6 3dbc
000001e0: 7b72 24bb 766e 70bb bd07 b53c c0ca c93b
000001f0: b896 5cbb c8d8 613b 2163 f93b 5d5c 9b3c

Predict/op/BiasAdd/ReadVariableOp/resource f4 [4]
0.062469345 0.04554413 -0.05956914 -0.12095085
00000000: dbdf 7f3d 7b8c 3a3d c5fe 73bd 14b5 f7bd

Predict/batch_normalization/batchnorm/mul f4 [64]
31.489265 31.532017 22.86979 20.70245 31.543213 31.268206 25.755339 22.547626
31.622776 20.229893 31.365152 31.510881 31.588333 22.135857 31.36665 20.979181
31.612782 22.896349 30.805565 31.513302 24.882536 20.564621 31.632772 18.793545
20.240282 33.41024 22.689535 22.3581 31.460833 32.78005 31.543371 22.396025
29.661764 16.986221 25.197067 19.050783 18.451227 30.228195 21.094479 19.45045
18.724026 31.495201 25.011854 31.426504 30.998888 31.622776 31.60268 30.73041
31.440233 24.655981 28.21724 21.083757 23.720156 20.518929 31.359194 31.473072
18.632536 19.682856 19.919052 20.508724 22.317535 16.045155 31.595194 22.00014
00000000: 04ea fb41 9241 fc41 54f5 b641 9e9e a541
00000010: 8058 fc41 4925 fa41 ef0a ce41 8a61 b441
00000020: 72fb fc41 d2d6 a141 d5eb fa41 4916 fc41
00000030: e8b4 fc41 3c16 b141 e6ee fa41 5dd5 a741
00000040: fae6 fc41 b92b b741 cc71 f641 3e1b fc41
00000050: 6f0f c741 5884 a441 eb0f fd41 2e59 9641
00000060: 19ec a141 16a4 0542 2b84 b541 64dd b241
00000070: c9af fb41 c51e 0342 d358 fc41 0f2b b341
00000080: 4b4b ed41 c8e3 8741 9893 c941 0168 9841
00000090: 1d9c 9341 58d3 f141 7ec1 a841 869a 9b41
000000a0: ceca 9541 2cf6 fb41 4718 c841 7b69 fb41
000000b0: b9fd f741 72fb fc41 4ad2 fc41 e1d7 f541
000000c0: 9985 fb41 733f c541 e8bc e141 89ab a841
000000d0: e1c2 bd41 c426 a441 a1df fa41 dac8 fb41
000000e0: 6f0f 9541 7d76 9d41 385a 9f41 de11 a441
000000f0: 508a b241 7a5c 8041 f5c2 fc41 4900 b041

Predict/batch_normalization/batchnorm/sub f4 [64]
0.030282954 0.071190834 -0.60734725 -0.52423 0.007295064 0.042236697 -0.39054325 -0.46342885
0.070991226 -0.56620747 0.017533932 -0.0048013064 0.02829904 -0.5940474 0.06710382 -0.6819799
0.07346217 -0.4493777 -0.14632237 -0.06906039 -0.3571589 -0.4943611 -0.010652472 -0.5929563
-0.75639105 -0.027698223 -0.522395 -0.39865327 0.065364756 0.010880837 0.023914745 -0.46433976
-0.15843038 -0.9781478 -0.43802214 -0.5386246 -0.63982 -0.11664311 -0.721943 -0.76196146
-0.7845519 -0.0011557264 -0.42919102 -0.06444919 -0.12691307 -0.07064457 0.042992864 -0.095830336
0.07869763 -0.39698702 -0.23330146 -0.55255526 -0.75420356 -0.75000685 0.0049212435 0.0018391669
-1.0158882 -0.7014947 -0.5785184 -0.67069286 -0.54511774 -0.8516302 0.027045462 -0.7301641
00000000: f513 f83c 80cc 913d 1c7b 1bbf f033 06bf
00000010: 6f0b ef3b 6300 2d3d 49f5 c7be 8c46 edbe
00000020: d963 913d f9f2 10bf 52a3 8f3c 4754 9dbb
00000030: 63d3 e73c 7e13 18bf ba6d 893d 3c96 2ebf
00000040: 5673 963d d514 e6be 88d5 15be 896f 8dbd
00000050: 88dd b6be e61c fdbe b587 2ebc fccb 17bf
00000060: d8a2 41bf 62e7 e2bc aebb 05bf 481c ccbe
00000070: f5dd 853d 8a45 323c dbe8 c33c f1bd edbe
00000080: 933b 22be e567 7abf 7044 e0be 4de3 09bf
00000090: 3ecb 23bf 95e2 eebd 42d1 38bf e80f 43bf
000000a0: 65d8 48bf be7b 97ba edbe dbbe f0fd 83bd
000000b0: 80f5 01be 1aae 90bd 4919 303d b242 c4bd
000000c0: 392c a13d e241 cbbe 94e6 6ebe 4374 0dbf
000000d0: 7c13 41bf 7300 40bf 6242 a13b 3310 f13a
000000e0: a008 82bf 2895 33bf c819 14bf 87b2 2bbf
000000f0: d68c 0bbf 7004 5abf 728e dd3c 09ec 3abf

Predict/fc0/MatMul f4 [64, 512]
-0.06583145 -0.0401322 -0.008385539 0.06249894 0.020556875 0.018467983 -0.013010826 -0.042130638
-0.0771571 -0.082018636 -0.09884768 0.012645065 0.07210568 -0.022855606 -0.06037041 0.095765874
-0.04158886 -0.09234793 -0.025389267 0.07260544 -0.06476931 -0.07676601 0.06694792 -0.047644172
0.07578281 -0.014607348 0.067110315 0.053346023 0.0462807 -0.094831176 0.087782264 -0.044841573
-0.00037422316 0.0006223384 -0.005763996 0.09706286 0.008024521 0.005275745 0.023435716 -0.09000467
0.0065903636 0.043943256 0.021443434 0.08080773 0.010031463 -0.017215477 0.052046187 0.053630084
0.07116647 0.09419968 0.088252425 -0.079094924 0.04056873 0.099208176 0.048801396 -0.0962796
-0.046815567 0.09688739 -0.09452054 0.04501005 -0.067478254 -0.08854764 -0.026339224 0.037430905
0.075861044 -0.0059511433 -0.02833851 -0.024230996 -0.09164826 0.052397292 -0.10083072 -0.09692287
0.09579575 0.04783001 -0.10014737 0.04688992 0.10007316 -0.0321775 -0.06109515 -0.08011602
-0.050398435 0.02899055 0.077483416 0.0026813308 0.057117097 -0.03364817 -0.0045498577 0.038601488
0.0073558143 -0.056873135 0.098208174 0.054390743 0.064518236 -0.0585445 -0.03928502 0.040968265
-0.051565994 0.015483553 0.07125306 -0.074723475 -0.0030492495 -0.051779553 0.016488481 0.019019585
0.08501705 0.011182202 -0.008367315 0.081600875 0.09404743 0.013251877 -0.021458238 -0.08339039
-0.053767692 -0.083142675 0.09113183 -0.046808966 -0.087651804 -0.039808538 -0.016862186 -0.020124901
-0.0875727 0.039196663 -0.0034915602 -0.09854665 0.09570013 0.06688981 0.008022885 -0.061094694
0.021771006 0.051462334 -0.017298877 -0.021603193 0.03127979 0.089083605 -0.055699937 -0.09028875
-0.04063499 -0.060163435 0.048421793 -0.050299466 -0.03264829 -0.061748017 0.025544045 -0.081402265
0.032638405 0.06031528 0.013959828 -0.0026886875 -0.003830005 -0.036366634 0.047381394 -0.0989205
-0.016805986 0.10033952 -0.0008162238 0.06990572 0.06698054 0.048498087 -0.014675285 -0.039806303
0.020436436 0.058837716 -0.00578146 -0.053076953 0.053061184 0.008985804 -0.06297496 0.0026224328
0.09493485 -0.09213593 0.03355996 -0.060553618 0.055273753 0.011755917 0.022222543 0.011794566
-0.048318714 0.033244535 0.03636405 -0.02863269 0.020557215 0.030872246 -0.061503556 -0.067284524
0.04685079 -0.06613725 -0.031982556 0.057167437 0.084595576 -0.019338652 -0.08870154 -0.09283654
-0.017583678 -0.05271864 0.06381983 0.09271497 0.058832616 -0.019685507 -0.076375395 -0.0009945418
0.084193364 -0.023985095 0.050530158 -0.020114155 0.0033887103 0.06102273 0.05130396 0.005147302
-0.022808092 0.013937522 -0.081629835 0.071463704 0.07815398 0.06372284 -0.029954353 -0.027484274
0.020633966 -0.04920276 -0.07618053 0.020013625 -0.021729501 0.055618294 0.05157669 -0.04905531
0.028178899 0.06055449 -0.052223615 0.10092633 -0.08185647 0.07730071 -0.06534136 0.022564465
-0.035807695 0.018492326 -0.019019544 0.06934022 0.006307674 -0.080283985 0.011121545 -0.083649345
0.06014025 0.011193216 0.01123118 -0.049894467 -0.07500285 -0.015821954 -0.043169428 -0.087659284
-0.0014437969 0.08506597 0.046324685 -0.0077736857 0.09556846 0.047239885 0.05549358 -0.031243296
00000000: a4d2 86bd a961 24bd 8063 09bc e3fe 7f3d
00000010: e466 a83c 2b4a 973c 5c2b 55bc 2d91 2cbd
00000020: 8b04 9ebd 63f9 a7bd a770 cabd 3f2d 4f3c
00000030: 25ac 933d ae3b bbbc f746 77bd e620 c43d
00000040: 1559 2abd e920 bdbd 27fd cfbc 29b2 943d
00000050: c6a5 84bd 7f37 9dbd fe1b 893d 8926 43bd
00000060: 0534 9b3d a853 6fbc 2271 893d 5c81 5a3d
00000070: d590 3d3d d936 c2bd 30c7 b33d ccab 37bd
00000080: 6233 c4b9 6c24 233a e7df bcbb e5c8 c63d
00000090: 4879 033c 28e0 ac3b 42fc bf3c 5e54 b8bd
000000a0: faf3 d73b d8fd 333d 24aa af3c 867e a53d
000000b0: 015b 243c 7907 8dbc 622e 553d 38ab 5b3d
000000c0: babf 913d c3eb c03d b0bd b43d 85fc a1bd
000000d0: 662b 263d a82d cb3d f9e3 473d 3d2e c5bd
000000e0: aec1 3fbd e56c c63d fc93 c1bd 755c 383d
000000f0: 0a32 8abd 7758 b5bd 5bc5 d7bc 2651 193d
00000100: 095d 9b3d cf01 c3bb 2a26 e8bc 1580 c6bc
00000110: 15b2 bbbd 8b9e 563d 5680 cebd 7f7f c6bd
00000120: 9030 c43d 67e9 433d 101a cdbd a50f 403d
00000130: 28f3 cc3d 8ecc 03bd e83e 7abd de13 a4bd
00000140: 976e 4ebd 977d ed3c a0af 9e3d 44b9 2f3b
00000150: 9ef3 693d aad2 09bd f916 95bb 981c 1e3d
00000160: 0b09 f13b cef3 68bd 5e21 c93d d4c8 5e3d
00000170: 2322 843d 5ccc 6fbd 54e9 20bd 57ce 273d
00000180: dd36 53bd baae 7d3c 20ed 913d 9f08 99bd
00000190: ebd5 47bb cc16 54bd da12 873c f6ce 9b3c
000001a0: 6b1d ae3d 8e35 373c 1017 09bc 5c1e a73d
000001b0: f09b c03d 671e 593c 30c9 afbc 95c8 aabd
000001c0: 833b 5cbd b546 aabd 53a3 ba3d c2ba 3fbd
000001d0: ca82 b3bd 470e 23bd 9122 8abc fadc a4bc
000001e0: 5159 b3bd ae8c 203d a9d2 64bb d3d2 c9bd
000001f0: 6efe c33d 86fd 883d 6b72 033c 6e3e 7abd
00000200: 1c59 b23c 2bca 523d 60b6 8dbc 2ef9 b0bc
00000210: 3d1f 003d 7771 b63d 9e25 64bd 4fe9 b8bd
00000220: e070 26bd ef6d 76bd ee55 463d d006 4ebd
00000230: 37ba 05bd 7deb 7cbd bf41 d13c 3bb6 a6bd
00000240: d9af 053d 280d 773d c3b7 643c b134 30bb
00000250: d200 7bbb 2ef5 14bd fe12 423d d596 cabd
00000260: b5ac 89bc ce7e cd3d daf7 55ba bb2a 8f3d
00000270: 182d 893d eea5 463d 9b70 70bc ef0b 23bd
00000280: 506a a73c d1ff 703d 6772 bdbb 3867 59bd
00000290: af56 593d 3239 133c 04f9 80bd 1fdd 2b3b
000002a0: 346d c23d c3b1 bcbd 2b76 093d 1207 78bd
000002b0: bb66 623d e49b 403c 0d0c b63c ff3d 413c
000002c0: d8e9 45bd 6c2b 083d 78f2 143d 1a8f eabc
000002d0: 9b67 a83c cbe7 fc3c 27eb 7bbd 78cc 89bd
000002e0: 9de6 3f3d f772 87bd 2400 03bd 6728 6a3d
000002f0: 7240 ad3d 186c 9ebc 27a9 b5bd 1521 bebd
00000300: a50b 90bc 80ef 57bd f9b3 823d 59e1 bd3d
00000310: 78fa 703d 8043 a1bc b46a 9cbd 495b 82ba
00000320: 926d ac3d 647c c4bc b6f8 4e3d 71c6 a4bc
00000330: 2015 5e3b f8f2 793d 1a24 523d b3aa a83b
00000340: 09d8 babc 345a 643c 8b2d a7bd 905b 923d
00000350: 320f a03d 1f81 823d d562 f5bc b326 e1bc
00000360: 9008 a93c d588 49bd 8a04 9cbd 9df3 a33c
00000370: 1102 b2bc 02d0 633d 1442 533d 39ee 48bd
00000380: 6fd7 e63c fc07 783d 6ee8 55bd 77b2 ce3d
00000390: 5da4 a7bd d64f 9e3d b1d1 85bd 1dd9 b83c
000003a0: 17ab 12bd 387d 973c e0ce 9bbc 3f02 8e3d
000003b0: 9bb0 ce3b ee6b a4bd 2437 363c 5950 abbd
000003c0: 9f55 763d c063 373c fc02 383c 245e 4cbd
000003d0: 189b 99bd 0b9d 81bc 6dd2 30bd b686 b3bd
000003e0: c93d bdba 1137 ae3d f4be 3d3d 67ba febb
000003f0: 66b9 c33d 9c7e 413d 3c4d 633d f1f1 ffbc

Predict/fc1/MatMul f4 [32, 64]
0.17099491 0.08397235 0.116197325 0.08390439 -0.18797024 -0.061716683 -0.17357856 0.039809432
-0.14540312 -0.04142368 -0.1297895 0.15356228 -0.23137334 0.18515643 -0.16746773 0.09786216
-0.122521795 -0.11468789 0.039586756 0.21978077 0.015271606 -0.103828035 -0.11125947 -0.09457451
0.10240522 -0.19305114 0.06586195 0.24322824 0.050832372 -0.11083991 0.20536338 0.24621165
-0.04288111 0.011401388 0.2559427 0.14932151 0.3354191 0.080117464 0.17200576 0.02364114
-0.20977597 0.11890001 -0.06483596 -0.14391467 0.07350838 -0.1600995 -0.15944618 0.17745535
0.2229442 0.04025538 0.1068194 0.23110569 0.24676348 0.17527097 -0.1459302 0.24146828
0.23463859 0.1220551 -0.27877784 0.12661968 0.023473188 0.26124546 0.23290452 -0.048333656
0.0022230695 -0.11327532 0.20435178 0.16794394 -0.21260697 0.008581804 -0.26106408 -0.24844006
0.040972307 0.18135732 -0.20069619 0.072751366 -0.033248365 0.10611121 -0.11563862 -0.14297347
-0.0649269 0.1459606 0.23378739 0.068593346 -0.121691935 0.113894634 -0.062958784 -0.11698929
0.03862638 0.06944315 0.23304106 0.07156956 0.07520989 0.26558098 0.04764947 0.041232914
-0.033276986 0.21644796 -0.09777988 0.2481618 0.19632395 -0.14993627 0.11397032 0.10107384
0.20144661 -0.13601543 0.08481691 0.21799128 -0.015356176 0.12340119 -0.2478549 0.21618275
-0.13164753 0.17580983 0.09258334 0.25695813 -0.12410703 -0.09398504 0.12238468 -0.121441215
0.14552313 -0.028935596 0.008603533 0.13092867 0.070979625 -0.060685914 0.24756648 -0.09432581
-0.12555577 -0.022821441 -0.17187926 -0.013673568 0.0063675116 -0.18469721 0.0653741 -0.057625692
-0.17641208 0.108686276 0.17911458 0.19930643 -0.024021395 0.1324316 0.077145256 0.28195196
0.07468329 -0.15648228 -0.030630669 0.076506466 -0.27417144 0.19725423 0.01408265 0.114372596
0.24080151 0.11255191 -0.0877921 0.17171116 -0.09684463 0.004073184 -0.14069639 -0.013983418
-0.19805306 0.10445658 0.13274957 0.14347982 -0.024086168 0.15878509 0.123368606 -0.19023637
0.07769506 0.2633418 0.2228131 -0.05972021 0.17103808 -0.19073284 0.22693913 -0.22346205
0.07212915 0.19006251 -0.009571506 -0.06848 0.11550034 0.29200393 -0.08901051 -0.0915891
0.0656847 0.15473348 -0.0014125635 -0.15301938 0.17678513 -0.138485 -0.001516269 -0.0012341392
-0.0376732 0.19908543 -0.032729648 0.16107911 0.0043750396 0.0019661475 -0.017904155 0.26258856
0.015026444 0.24445261 -0.047976557 0.033902947 0.29594165 0.2521095 0.25231934 -0.19021843
0.16996855 -0.29885146 -0.29397163 -0.29695836 0.18600239 -0.08931748 -0.24238043 -0.091372676
-0.25838214 -0.14605744 -0.19701381 0.21636376 0.24359651 -0.059673402 0.15485248 0.056007314
0.27099395 0.16859275 0.23359403 0.0031727816 0.20598528 0.20301402 0.14412801 0.061719216
-0.31530774 -0.15958849 -0.028669197 -0.20100972 -0.1664584 -0.06907822 0.0146150375 -0.003711206
0.29321522 -0.15102005 0.018795116 0.085475974 -0.15679708 -0.063552685 0.10760284 0.09329828
-0.013602207 0.12301597 0.15290533 0.19139406 0.12807962 0.16171454 0.030490423 0.21434657
00000000: 4a19 2f3e b2f9 ab3d ddf8 ed3d 11d6 ab3d
00000010: 457b 40be a2ca 7cbd 94be 31be 370f 233d
00000020: 8ee4 14be e0ab 29bd 8ae7 04be 6e3f 1d3e
00000030: 22ed 6cbe a699 3d3e a97c 2bbe f56b c83d
00000040: b5ec fabd 7ce1 eabd b925 223d 360e 613e
00000050: c235 7a3c cba3 d4bd 01dc e3bd 48b0 c1bd
00000060: d4b9 d13d 33af 45be a1e2 863d d310 793e
00000070: 9b35 503d 0900 e3bd c74a 523e e81e 7c3e
00000080: 1aa4 2fbd e3cc 3a3c ec0a 833e bde7 183e
00000090: 0dbc ab3e a014 a43d 4722 303e 10ab c13c
000000a0: 83cf 56be d981 f33d b7c8 84bd 5e5e 13be
000000b0: 908b 963d 20f1 23be dc45 23be dbb6 353e
000000c0: 7c4b 643e d3e2 243d 21c4 da3d f8a6 6c3e
000000d0: 91af 7c3e 3c7a 333e ba6e 15be 7643 773e
000000e0: 1945 703e 06f8 f93d f8bb 8ebe 97a8 013e
000000f0: d84a c03c f7c1 853e 867e 6e3e 83f9 45bd
00000100: ebb0 113b e4fc e7bd 9841 513e 7ff9 2b3e
00000110: a4b5 59be b29a 0c3c 31aa 85be 1267 7ebe
00000120: 94d2 273d bcb5 393e 4d83 4dbe abfe 943d
00000130: 702f 08bd d650 d93d f1d3 ecbd a367 12be
00000140: 65f8 84bd b276 153e f665 6f3e ab7a 8c3d
00000150: 9f39 f9bd 9741 e93d 89f0 80bd 1598 efbd
00000160: b236 1e3d 3638 8e3d 51a2 6e3e 1093 923d
00000170: a507 9a3d 3bfa 873e 172c 433d d8e3 283d
00000180: 734d 08bd 89a4 5d3e d140 c8bd 201e 7e3e
00000190: 2509 493e e588 19be 4569 e93d cdff ce3d
000001a0: 0548 4e3e a147 0bbe 7db4 ad3d 1b39 5f3e
000001b0: 7898 7bbc c3b9 fc3d adcd 7dbe 035f 5d3e
000001c0: 9cce 06be 7e07 343e 569c bd3d 0490 833e
000001d0: d42b febd 3b7b c0bd d2a4 fa3d 2cb6 f8bd
000001e0: 0404 153e 580a edbc d5f5 0c3c 2a12 063e
000001f0: c45d 913d cb91 78bd 1182 7d3e e42d c1bd
00000200: b191 00be 08f4 babc 1e01 30be 1a07 60bc
00000210: 8fa6 d03b 4421 3dbe dbe2 853d eb08 6cbd
00000220: 5ea5 34be e996 de3d d069 373e fc16 4c3e
00000230: 84c8 c4bc 269c 073e 55fe 9d3d 025c 903e
00000240: 8ef3 983d e43c 20be 2bed fabc 6caf 9c3d
00000250: 3360 8cbe 03fd 493e eaba 663c 2e3c ea3d
00000260: ac94 763e 9e81 e63d 58cc b3bd 0dd5 2f3e
00000270: 7a56 c6bd 5878 853b b712 10be b51a 65bc
00000280: 6cce 4abe 55ed d53d 81ef 073e 60ec 123e
00000290: 5b50 c5bc 8f98 223e aea8 fc3d 53cd 42be
000002a0: 961e 9f3d bdd4 863e 1e29 643e 2e9d 74bd
000002b0: 9b24 2f3e 784f 43be bb62 683e 3cd3 64be
000002c0: 73b8 933d bf9f 423e ced1 1cbc 3e3f 8cbd
000002d0: 718b ec3d 8a81 953e 244b b6bd 1193 bbbd
000002e0: b385 863d 7472 1e3e c425 b9ba 1db1 1cbe
000002f0: 2907 353e 03cf 0dbe 8cbd c6ba d7c2 a1ba
00000300: 374f 1abd 0ddd 4b3e 860f 06bd ecf1 243e
00000310: 7e5c 8f3b 7bda 003b bcab 92bc 0272 863e
00000320: 7931 763c c951 7a3e 1183 44bd d1dd 0a3d
00000330: aa85 973e 7f14 813e 0030 813e 9fc8 42be
00000340: 3c0c 2e3e 0f03 99be 7383 96be ed0a 98be
00000350: 6977 3e3e 15ec b6bd 9332 78be 9921 bbbd
00000360: aa4a 84be 1590 15be fdbd 49be 768e 5d3e
00000370: 5d71 793e 196c 74bd a691 1e3e ed67 653d
00000380: b8bf 8a3e 94a3 2c3e 4633 6f3e 71ee 4f3b
00000390: ceed 523e e8e2 4f3e 4b96 133e 4acd 7c3d
000003a0: 0470 a1be 2a6b 23be aadb eabc 7ed5 4dbe
000003b0: 1274 2abe e278 8dbd e973 6f3c b437 73bb
000003c0: 4e20 963e 00a5 1abe 37f8 993c 070e af3d
000003d0: 6a8f 20be e927 82bd e15e dc3d 2b13 bf3d
000003e0: cbdb 5ebc ccef fb3d 3793 1c3e cefc 433e
000003f0: 4e27 033e 7f98 253e 0dc7 f93c ab7d 5b3e

Predict/fc2/MatMul f4 [32, 32]
-0.16267638 -0.10995373 -0.114980005 -0.25480214 0.2372638 0.34432837 0.13262318 -0.053913653
-0.19473015 0.38732338 -0.019112201 -0.03515984 -0.08567287 0.18482913 -0.23562966 0.252327
0.17954203 0.026558325 -0.059726365 0.060778186 -0.2438161 0.05680704 -0.22898866 0.24710017
-0.028798759 -0.24232079 0.042072725 0.18033642 0.2250636 0.1375814 0.261141 -0.13211647
0.03146528 -0.12351002 0.3704899 0.33944282 0.1296244 0.2062989 0.3404693 0.048628263
0.287711 0.38658738 -0.22220702 0.05850401 -0.0293694 -0.120212376 -0.14343062 0.31047696
-0.09489202 0.20370309 -0.16867407 -0.11914173 0.08578336 0.19163783 0.19621257 0.1622721
0.28150472 -0.18177688 0.07131233 -0.031353485 0.14944224 0.24803427 0.06551551 0.3182126
0.33629653 0.23872966 -0.019727819 0.11092733 -0.0151502965 -0.15946598 -0.11806925 -0.25490326
-0.20612355 0.20464762 -0.04674973 0.42880943 0.30849546 0.12540646 0.15774888 -0.05221347
-0.33477288 0.37079418 0.15894127 -0.12610309 -0.21209116 0.25959533 0.0065343915 0.29854658
0.22805808 0.37909198 0.25496444 0.32858068 0.009409025 -0.13449043 0.3608711 0.36474118
-0.057322863 0.017028308 0.05882679 0.1560273 0.11453798 0.13748616 0.08833 -0.0961935
0.17344488 0.0059705926 0.13351433 -0.014815475 0.011716847 -0.31001133 0.052387785 -0.021203233
0.04871481 0.08918584 0.11167677 0.1786445 -0.034814347 -0.14410494 0.059920225 0.15060419
0.32313824 -0.11777597 0.018933896 -0.03010963 -0.16384463 -0.009182556 -0.20947614 0.21876885
-0.1511196 -0.027604075 -0.19319433 0.11940382 -0.18127578 -0.01926975 -0.10974914 0.24261238
0.30024552 -0.12900417 0.06763646 -0.11014993 0.15257187 0.22303969 0.09368448 -0.12359268
-0.060166556 0.01774088 0.0004447361 -0.03869594 0.14953578 0.3590438 -0.038353257 0.20686491
-0.14024141 0.3541399 0.34028426 0.25421017 -0.13301013 0.1406505 -0.13674028 -0.14776267
-0.1176463 0.3272555 -0.09973267 -0.2141586 -0.27756247 -0.043064903 -0.12045288 0.37528336
0.038383998 0.29324898 0.11564888 0.14899506 0.08389708 0.034710262 -0.012482964 0.21830526
0.38182294 -0.19905491 -0.24924825 0.36468762 0.121183634 -0.17522134 0.1970275 0.20944458
0.19126248 -0.21793047 0.23170868 -0.2689161 0.09977687 0.115286365 -0.13875379 0.10475829
-0.0884666 0.3707318 0.31219116 -0.3534393 -0.12324378 0.3033552 -0.23346676 0.29685405
-0.034796912 -0.06385622 -0.020002943 0.1463196 -0.22415291 0.19153234 0.24639696 0.075348385
0.10384247 -0.102329455 -0.12097006 0.33027712 -0.21418355 -0.2022415 0.2502158 0.070636205
0.18081349 -0.10438816 -0.027306627 -0.045781136 -0.03739931 0.35943758 -0.25416383 0.21101452
0.12863159 0.3018175 0.2954924 0.088568255 0.00017043194 0.32231906 0.0876451 0.06107254
0.17235292 0.14085047 0.41610774 0.02263398 0.13626948 0.19160448 0.20347719 -0.039171215
-0.09107759 -0.058733236 -0.2747902 -0.15138935 0.20481345 -0.121036954 -0.1617635 0.06709926
-0.2599805 -0.06231396 0.017822871 -0.24834287 0.42652038 0.13795654 0.09992777 0.083151735
00000000: a394 26be 6c2f e1bd a37a ebbd 6d75 82be
00000010: 48f5 723e cf4b b03e 5fce 073e 90d4 5cbd
00000020: 5767 47be 404f c63e 3191 9cbc c403 10bd
00000030: 4275 afbd d943 3d3e e748 71be 0131 813e
00000040: ded9 373e d890 d93c a2a3 74bd 8cf2 783d
00000050: edaa 79be 80ae 683d 017c 6abe d407 7d3e
00000060: 60eb ebbc f122 78be 7354 2c3d 1caa 383e
00000070: 1377 663e 23e2 0c3e 46b4 853e 8a49 07be
00000080: bde1 003d d2f2 fcbd dab0 bd3e 73cb ad3e
00000090: 42bc 043e 0540 533e fe51 ae3e 6e2e 473d
000000a0: db4e 933e c8ee c53e 3d8a 63be e7a1 6f3d
000000b0: 1998 f0bc e831 f6bd 7adf 12be d6f6 9e3e
000000c0: bf56 c2bd 8b97 503e e5b8 2cbe 9400 f4bd
000000d0: 30af af3d b53c 443e f3eb 483e a82a 263e
000000e0: 6321 903e b823 3abe 330c 923d 836c 00bd
000000f0: 6307 193e b2fc 7d3e ff2c 863d c3ec a23e
00000100: 0f2f ac3e 8c75 743e 3c9c a1bc de2d e33d
00000110: f338 78bc 0d4b 23be 4ace f1bd ae82 82be
00000120: 0d12 53be 258f 513e a57c 3fbd e98c db3e
00000130: 1ef3 9d3e 8d6a 003e ec88 213e cbdd 55bd
00000140: 5a67 abbe bcd8 bd3e 80c1 223e 2b21 01be
00000150: 6d2e 59be aee9 843e 731e d63b 19db 983e
00000160: 0f88 693e 5818 c23e b38a 823e ba3b a83e
00000170: 5028 1a3c dcb7 09be 19c4 b83e 5bbf ba3e
00000180: 61cb 6abd f37e 8b3c 5cf4 703d 9fc5 1f3e
00000190: e392 ea3d 2cc9 0c3e 5ce6 b43d 1901 c5bd
000001a0: 899b 313e f6a4 c33b fbb7 083e 9bbc 72bc
000001b0: 05f8 3f3c ceb9 9ebe 9394 563d 67b2 adbc
000001c0: 2e89 473d 11a7 b63d cab6 e43d 95ee 363e
000001d0: 7d99 0ebd 3f90 13be e96e 753d fc37 1a3e
000001e0: 6072 a53e 8734 f1bd 421b 9b3c 79a8 f6bc
000001f0: e3c6 27be 6e72 16bc ea80 56be f104 603e
00000200: 19bf 1abe f121 e2bc bcd4 45be fd89 f43d
00000210: 5ca0 39be 98db 9dbc 28c4 e0bd 616f 783e
00000220: c8b9 993e ab19 04be fc84 8a3d 4996 e1bd
00000230: cd3b 1c3e 8464 643e a6dd bf3d 291e fdbd
00000240: 3571 76bd 5255 913c 782b e939 a27f 1ebd
00000250: e81f 193e 97d4 b73e 4e18 1dbd 65d4 533e
00000260: 729b 0fbe d351 b53e bd39 ae3e d627 823e
00000270: cf33 08be af06 103e a505 0cbe 194f 17be
00000280: 8bf0 f0bd 088e a73e a440 ccbd 644c 5bbe
00000290: ab1c 8ebe d364 30bd 00b0 f6bd 2425 c03e
000002a0: 8a38 1d3d bb24 963e 52d9 ec3d 2992 183e
000002b0: 3bd2 ab3d 592c 0e3d 5985 4cbc 6a8b 5f3e
000002c0: 4c7e c33e 0dd5 4bbe ef3a 7fbe 56b8 ba3e
000002d0: 202f f83d 396d 33be 94c1 493e a478 563e
000002e0: 50da 433e 2a29 5fbe 0a45 6d3e 5faf 89be
000002f0: d157 cc3d 421b ec3d 7915 0ebe 848b d63d
00000300: fa2d b5bd 8fd0 bd3e 85d7 9f3e fff5 b4be
00000310: 3c67 fcbd 5f51 9b3e e911 6fbe 41fd 973e
00000320: 3587 0ebd 0dc7 82bd 36dd a3bc ced4 153e
00000330: 5788 65be 0e21 443e 7c4f 7c3e 4150 9a3d
00000340: 5cab d43d 1b92 d1bd 27bf f7bd 151a a93e
00000350: ef52 5bbe 6518 4fbe 491c 803e b7a9 903d
00000360: 2c27 393e 76c9 d5bd 26b2 dfbc 0085 3bbd
00000370: 0530 19bd 3408 b83e c321 82be 3114 583e
00000380: 00b8 033e d387 9a3e c84a 973e 4663 b53d
00000390: fab5 3239 0107 a53e 467f b33d 3327 7a3d
000003a0: 497d 303e 1b3b 103e 130c d53e e56a b93c
000003b0: 3a8a 0b3e f733 443e 535c 503e ff71 20bd
000003c0: e386 babd 4392 70bd 4db1 8cbe cf05 1bbe
000003d0: 9eba 513e 39e2 f7bd 55a5 25be 566b 893d
000003e0: 2a1c 85be ec3c 7fbd 4501 923c 984d 7ebe
000003f0: e160 da3e 7b44 0d3e eea6 cc3d 754b aa3d

Predict/op/MatMul f4 [4, 32]
-0.17302786 0.087756276 0.21049358 0.15193245 -0.22674449 -0.30904618 -0.3185769 -0.17815824
-0.39408782 0.47640437 -0.10688373 0.429987 0.11723903 -0.3212554 -0.37698123 0.056700896
-0.30782628 0.24695903 0.03921738 0.417045 -0.3741321 -0.25312433 -0.13316515 -0.50568646
0.03540487 -0.1885367 -0.3038571 -0.27776507 -0.5256085 0.086468995 -0.06217789 -0.4104281
0.2019825 0.31090626 -0.39240074 -0.21244362 -0.2280948 0.15988234 0.41490117 0.18211758
-0.34369278 -0.327787 -0.43208975 -0.35662177 1.1198514e-05 -0.31588945 0.029675577 -0.17176916
0.031748675 0.3876533 -0.3780239 0.052502096 0.3493633 -0.16745044 0.11866314 -0.28120726
0.27864823 -0.26522106 -0.41448414 0.17131588 0.17648777 -0.40434295 -0.14052185 -0.3953025
-0.109906584 -0.53371686 0.13598585 -0.4142492 -0.11856059 -0.32620946 0.12664755 0.22192283
0.052025653 -0.10315222 -0.33053783 0.15485315 -0.3879877 -0.3653995 0.45953292 0.08551917
-0.51646566 0.019710433 0.19698049 -0.28565365 -0.35563534 -0.27567303 0.15376823 0.39293253
0.26579022 -0.3180103 -0.24473232 -0.051079776 0.22161113 0.051697012 0.2683749 0.31116068
-0.09302511 0.17323072 0.16263354 -0.13951966 -0.6104452 -0.5530505 -0.4906937 0.21894318
-0.05566865 -0.2230176 0.12667565 0.38802037 -0.30808914 0.25861198 -0.5906403 0.36132115
0.4445321 0.25711757 0.37939274 -0.0055982545 0.24625006 0.2775274 -0.1264668 -0.515285
0.07371345 -0.0770235 0.12138258 -0.37126362 0.1986335 -0.55156153 -0.41408667 -0.26384115
00000000: 372e 31be 90b9 b33d a18b 573e 2e94 1b3e
00000010: b52f 68be 4d3b 9ebe 831c a3be 1d6f 36be
00000020: e1c5 c9be 46eb f33e dbe5 dabd 4227 dc3e
00000030: 041b f03d 967b a4be af03 c1be 333f 683d
00000040: 689b 9dbe d4e2 7c3e 67a2 203d ec86 d53e
00000050: 3e8e bfbe 8399 81be 725c 08be ab74 01bf
00000060: b204 113d c40f 41be 2893 9bbe 3937 8ebe
00000070: 478e 06bf a816 b13d 3eae 7ebd a223 d2be
00000080: 80d4 4e3e 1b2f 9f3e c0e8 c8be d28a 59be
00000090: af91 69be 32b8 233e ed6d d43e 087d 3a3e
000000a0: 80f8 afbe b3d3 a7be de3a ddbe 2197 b6be
000000b0: 40e1 3b37 43bc a1be 321a f33c 41e4 2fbe
000000c0: e60a 023d 7e7a c63e 598c c1be 700c 573d
000000d0: bfdf b23e 2178 2bbe a905 f33d 66fa 8fbe
000000e0: fbaa 8e3e 0ecb 87be 4437 d4be 6e6d 2f3e
000000f0: 36b9 343e 0a06 cfbe f6e4 0fbe 1765 cabe
00000100: b416 e1bd aba1 08bf e03f 0b3e 7918 d4be
00000110: e5cf f2bd ed04 a7be e5af 013e bd3f 633e
00000120: da18 553d 7941 d3bd 413c a9be d391 1e3e
00000130: 53a6 c6be a515 bbbe e647 eb3e ad24 af3d
00000140: 1837 04bf c677 a13c 41b5 493e 3241 92be
00000150: d615 b6be 0425 8dbe 6b75 1d3e 742e c93e
00000160: a815 883e 3fd2 a2be 1c9b 7abe 0739 51bd
00000170: 07ee 623e 3fc0 533d 6f68 893e 7450 9f3e
00000180: f383 bebd 6563 313e 6889 263e 3ede 0ebe
00000190: 2346 1cbf b894 0dbf 343c fbbe a432 603e
000001a0: cf04 64bd ba5e 64be 43b7 013e 9baa c63e
000001b0: dcbd 9dbe ca68 843e 3434 17bf 16ff b83e
000001c0: b699 e33e eaa4 833e c43f c23e 9071 b7bb
000001d0: fa28 7c3e 1218 8e3e 8380 01be b8e9 03bf
000001e0: 14f7 963d 7fbe 9dbd 6e97 f83d 4416 bebe
000001f0: 9566 4b3e 2333 0dbf 2b03 d4be 3016 87be

Predict/conv2d/Conv2D f4 [1, 16, 16, 1]
-0.063807905 -0.11245364 -0.09568363 -0.05051212 0.053135954 -0.027382806 -0.08680697 -0.1038883
-0.014887124 -0.100585796 0.041574266 -0.02812265 0.016336812 -0.031479042 0.07851687 -0.02625511
-0.016720552 -0.05537014 -0.10881914 0.0710636 -0.10503909 0.017886937 0.042358782 -0.040331956
0.08109152 0.05575349 0.091825955 0.04829785 0.025755785 0.040580466 0.046184547 -0.026050089
-0.017166756 -0.065102786 -0.0388474 -0.09366004 0.00033331677 0.086006455 0.050099954 -0.08924348
-0.0082099475 0.004723545 0.061217733 -0.013119635 -0.0075992607 -0.06651218 -0.109911814 -0.021306321
-0.11577354 0.07726772 -0.059617005 -0.026250968 0.038277294 -0.06775387 0.058691543 -0.07395178
0.013945545 -0.049765445 0.07268755 0.062084943 -0.100903705 0.08256339 -0.053689 -0.042327397
-0.06932769 0.076487094 -0.07566069 -0.011474145 -0.045766026 0.02769958 -0.058514755 -0.07089159
-0.060016885 -0.053394463 0.09769472 -0.019825099 0.044030283 0.06381807 0.06048391 -0.09277288
0.09831933 0.07251575 0.08701223 0.05233901 0.06763265 0.1233672 0.06430582 0.114434965
-0.0028164557 0.027778031 -0.07844968 0.055400874 0.05528886 0.014688238 0.0839904 -0.06392989
0.0060306485 0.073276676 0.12141954 0.11629586 0.07145754 0.0938292 0.012267651 -0.08451302
-0.0067303837 -0.085345834 -0.094722666 -0.061469615 -0.057693217 0.0057797064 0.03608883 -0.02503933
-0.0069673285 -0.004138878 -0.046808466 0.04993044 -0.0079891905 0.076281875 0.04825216 0.07956232
0.0131119825 0.020547142 0.09201732 0.001924431 0.06360822 0.050435 0.0832596 -0.08128675
0.08209286 0.075360276 0.032882027 -0.03976241 -0.018924104 -0.0025476986 0.012285604 0.102989756
0.0076789567 0.012645118 0.0049733007 -0.100608714 0.047874894 -0.013113121 0.031968277 0.02302814
-0.008472919 -0.065637365 0.016022742 0.11924909 -0.04373863 -0.09249026 0.058222767 -0.020472325
0.074111655 -0.04753301 0.05861704 0.094416395 -0.022133974 0.021084916 -0.012109574 0.09029844
0.103578515 -0.10071951 0.047860134 0.09221366 -0.065104105 -0.021591494 -0.07568555 0.02363137
0.06808287 0.09738777 0.026258394 -0.08485881 -0.042310033 -0.10795647 0.037476763 -0.102237925
0.04155644 -0.03906753 -0.058196656 -0.005757271 0.042878594 -0.035979003 -0.0034792507 0.09817157
-0.09960624 -0.027349662 0.014174511 0.042961027 -0.0681031 0.04969498 -0.0032714908 -0.040075205
-0.06757424 -0.04773494 0.10002215 0.073265664 0.029565832 0.10315723 -0.025642898 0.0761156
0.07373726 0.09172988 -0.031638023 0.02246957 -0.09790427 -0.09894728 -0.0012741766 -0.06345536
-0.044046476 -0.020559555 -0.053691298 0.054223467 0.03686853 0.09715198 0.04966015 -0.081585445
0.08058336 0.09374644 -0.05989127 0.042616352 0.10054854 -0.007376914 -0.015182919 0.040184844
-0.07736734 0.048308495 0.05993205 0.04675192 0.019120485 0.061851744 -0.058238268 -0.046119608
0.0034546822 -0.047701564 0.01303742 0.09600452 -0.058273453 -0.051905 0.009834115 -0.03858652
-0.03681145 0.029996898 -0.017994802 0.064358875 -0.0880585 0.050661445 0.05436516 -0.09006311
-0.115335956 -0.104181066 -0.060594846 0.012099113 -0.04489913 -0.046492826 0.005467895 -0.08161169
00000000: b8ad 82bd 184e e6bd c7f5 c3bd cce5 4ebd
00000010: 16a5 593d e851 e0bc dac7 b1bd 64c3 d4bd
00000020: 20e9 73bc edff cdbd c749 2a3d 7961 e6bc
00000030: c7d4 853c 2bf0 00bd 74cd a03d f514 d7bc
00000040: 8af9 88bc cdcb 62bd 92dc debd cb89 913d
00000050: bc1e d7bd a087 923c 6780 2d3d 1f33 25bd
00000060: 5013 a63d c65d 643d 3f0f bc3d f7d3 453d
00000070: ccfd d23c b437 263d 022c 3d3d ff66 d5bc
00000080: 4ca1 8cbc 9c54 85bd 741e 1fbd d6d0 bfbd
00000090: 05c1 ae39 2724 b03d 9c35 4d3d 49c5 b6bd
000000a0: 0483 06bc f8c7 9a3b 72bf 7a3d bdf3 56bc
000000b0: 3803 f9bb 8a37 88bd 7219 e1bd 988a aebc
000000c0: ae1a edbd 8a3e 9e3d f630 74bd 450c d7bc
000000d0: a7c8 1c3d 8ac2 8abd 8b66 703d 0874 97bd
000000e0: db7b 643c dad6 4bbd 36dd 943d c84c 7e3d
000000f0: 9aa6 cebd ff16 a93d ffe8 5bbd 7e5f 2dbd
00000100: adfb 8dbd 44a5 9c3d fef3 9abd 0dfe 3bbc
00000110: 2875 3bbd 3bea e23c 2bad 6fbd 9c2f 91bd
00000120: 44d4 75bd 27b4 5abd 2b14 c83d 3f68 a2bc
00000130: 1959 343d 0cb3 823d fabd 773d b5ff bdbd
00000140: a55b c93d 2383 943d 7833 b23d 6e61 563d
00000150: fd82 8a3d f1a7 fc3d c5b2 833d e15c ea3d
00000160: 4994 38bb c18e e33c 3aaa a0bd 07ec 623d
00000170: 9276 623d efa6 703c 2903 ac3d aded 82bd
00000180: bf9c c53b 1512 963d cfaa f83d 862c ee3d
00000190: 5558 923d 8629 c03d 42fe 483c 2a15 adbd
000001a0: 8d8a dcbb ccc9 aebd f5fd c1bd 90c7 7bbd
000001b0: b94f 6cbd b163 bd3b e2d1 133d 481f cdbc
000001c0: 304e e4bb 6d9f 87bb 3cba 3fbd dc83 4c3d
000001d0: 18e5 02bc ac39 9c3d 0fa4 453d 92f1 a23d
000001e0: a4d3 563c 7b52 a83c 9473 bc3d 303d fc3a
000001f0: 0745 823d ee94 4e3d 0284 aa3d ab79 a6bd
00000200: 4d20 a83d 7d56 9a3d 4eaf 063d e9dd 22bd
00000210: b906 9bbc 4af7 26bb 8f49 493c 4bec d23d
00000220: c29f fb3b 782d 4f3c 12f7 a23b f10b cebd
00000230: 7718 443d 6ad8 56bc 2bf1 023d 83a5 bc3c
00000240: 00d2 0abc e26c 86bd 2042 833c de38 f43d
00000250: 4727 33bd 896b bdbd ff7a 6e3d 94b5 a7bc
00000260: dac7 973d f9b1 42bd 6c18 703d 625d c13d
00000270: 4f52 b5bc 46ba ac3c 3c67 46bc 63ee b83d
00000280: f920 d43d 0846 cebd fd08 443d 84da bc3d
00000290: 4d55 85bd a5e0 b0bc 0701 9bbd 9396 c13c
000002a0: 086f 8b3d 3d73 c73d d81b d73c 75ca adbd
000002b0: 494d 2dbd 4818 ddbd 3c81 193d 1e62 d1bd
000002c0: 1637 2a3d 4605 20bd 9e5f 6ebd 7da7 bcbb
000002d0: 77a1 2f3d b85e 13bd 2404 64bb 2d0e c93d
000002e0: 5bfe cbbd 660c e0bc 353c 683c e7f7 2f3d
000002f0: a379 8bbd f78c 4b3d 8266 56bb e625 24bd
00000300: 5d64 8abd b685 43bd 6ad8 cc3d 4f0c 963d
00000310: 0b34 f23c 1944 d33d 0e11 d2bc 7fe2 9b3d
00000320: 9003 973d e0dc bb3d df96 01bd 1b12 b83c
00000330: 0982 c8bd dfa4 cabd 4602 a7ba e2f4 81bd
00000340: 146a 34bd 836c a8bc 68eb 5bbd 6d19 5e3d
00000350: 7503 173d 9ef7 c63d 7168 4b3d 4516 a7bd
00000360: e308 a53d 22fe bf3d 8c50 75bd 7c8e 2e3d
00000370: 65ec cd3d 0aba f1bb c7c1 78bc dd98 243d
00000380: c572 9ebd 21df 453d 4f7b 753d f17e 3f3d
00000390: 90a2 9c3c 4158 7d3d 408b 6ebd eae7 3cbd
000003a0: f367 623b b762 43bd e79a 553c 059e c43d
000003b0: 25b0 6ebd 569a 54bd 451f 213c e60c 1ebd
000003c0: 9ac7 16bd 0ebc f53c d669 93bc 96ce 833d
000003d0: 0458 b4bd 6082 4f3d 01ae 5e3d 0273 b8bd
000003e0: 4235 ecbd e25c d5bd 4d32 78bd 5c3b 463c
000003f0: 26e8 37bd 436f 3ebd 072c b33b 0824 a7bd

Predict/layer_conv1/Conv2D f4 [4, 3, 3, 1]
0.1856751 0.38693208 -0.31022787 0.091501504 0.09365102 -0.0038043414 0.27582037 -0.32761374
-0.31469753 -0.3127134 -0.049298946 -0.22755979 -0.04047319 0.059482593 -0.19986615 -0.36284202
0.2519274 0.23005635 0.20756783 0.2236412 0.29356098 0.3787293 -0.31654456 -0.2821727
-0.02788562 -0.10292174 0.2522436 -0.14008348 0.12402535 0.13544807 0.0120139485 0.3682274
-0.00043406204 -0.05344385 0.12458531 0.22982857
00000000: 9d21 3e3e f61b c63e 30d6 9ebe 2465 bb3d
00000010: 1bcc bf3d 4252 79bb 5438 8d3e fdbc a7be
00000020: 0920 a1be f91b a0be b1ed 49bd 6f05 69be
00000030: 37c7 25bd 05a4 733d b6a9 4cbe 6ec6 b9be
00000040: a1fc 803e e493 6b3e a98c 543e 3302 653e
00000050: a04d 963e cfe8 c13e 2112 a2be f178 90be
00000060: 6270 e4bc a2c8 d2bd 1326 813e 0b72 0fbe
00000070: 0101 fe3d e6b2 0a3e 27d6 443c 4d88 bc3e
00000080: d292 e3b9 f0e7 5abd 9526 ff3d 2e58 6b3e

Predict/layer_conv2/Conv2D f4 [8, 3, 3, 4]
0.08115859 0.25215235 0.14572173 0.06023692 -0.15489154 -0.061298884 0.034647074 0.23527753
0.038220286 0.18085083 0.15816593 -0.15245518 -0.024645573 -0.12472615 0.1259839 -0.11969194
-0.06709533 0.16525914 -0.12495607 0.13337497 -0.086898476 -0.21434031 0.13201912 0.22343749
0.21525513 -0.117420815 -0.10419795 0.19703588 0.07079693 -0.060997993 0.18822907 0.12658797
0.18722938 -0.14239463 0.24621262 0.07989177 0.10688018 0.082890935 0.15362759 0.022144895
0.043139964 -0.10589991 -0.23278274 -0.2055512 -0.07705535 0.06776189 0.116793215 0.19486235
-0.23757426 -0.105370015 -0.08255002 -0.050910003 -0.20261703 -0.25210238 0.17626852 -0.23067093
0.22157276 0.13454725 -0.20670831 -0.1898928 0.17254953 0.1713131 0.13708656 -0.050231002
0.09046001 -0.22871283 0.08954926 0.018812425 0.18127684 0.030709935 0.12350827 0.17300312
-0.04532518 -0.21013433 0.0041324967 0.21092618 -0.15911815 -0.21494849 0.045762338 0.23560244
-0.091579914 -0.08727262 0.09765311 0.113412015 -0.25547117 -0.08772098 -0.0414506 0.18445003
-0.13448739 -0.08848973 -0.018216217 -0.16017401 -0.22636655 -0.061501957 0.16462107 0.20886031
-0.09647074 -0.022983907 0.0073831403 0.18815272 0.14145224 0.007304 -0.062652074 -0.03164472
0.0025075749 0.03637286 -0.11627157 0.0151634365 -0.16840832 -0.22702493 -0.098615296 0.13495995
-0.22358327 -0.062076133 0.0602434 -0.20454983 0.0368552 -0.14859724 -0.0004046242 -0.2217764
-0.17185383 -0.041327942 -0.02691351 -0.14874418 -0.022766385 -0.037043255 -0.2281478 -0.16018894
0.0365619 0.03356332 0.043706283 0.10965358 0.10285586 0.22233969 0.2150152 0.22037852
-0.10876959 -0.012633165 0.1932732 0.17503569 -0.14760122 -0.09358032 0.10383252 0.16041416
0.13400441 -0.13897161 0.07949006 -0.13403809 0.15412384 -0.0063002356 -0.11819009 0.007336294
-0.08127892 0.10951535 -0.07983209 -0.12114344 -0.024347432 0.16772795 -0.15515992 0.09029405
0.19794254 -0.098192655 -0.12888862 -0.031475913 0.028989643 -0.006583683 -0.17354153 0.091772504
0.14618134 -0.20289423 -0.13577144 -0.09841081 0.11847582 -0.081009716 -0.112906925 0.15947224
-0.076706536 -0.066761196 0.10145934 -0.1501811 -0.1961535 -0.21030599 0.16044544 -0.09494133
-0.17537744 0.2031448 0.2100117 -0.23424092 0.081360206 0.19929509 -0.08927983 0.118144296
-0.05705017 0.17145254 -0.07917937 0.0022179836 -0.071180195 -0.04207458 0.06615611 -0.22108006
0.111301616 -0.043729577 0.20616835 0.013254421 -0.1501118 -0.100983255 -0.12550318 0.16697803
0.24262315 -0.17683253 0.09924636 0.18447137 0.15365496 0.057624493 -0.08118635 -0.20076142
0.034793336 -0.020844607 -0.111655764 -0.21700908 -0.16584283 0.042431723 -0.12102287 0.08035171
-0.11202652 -0.19169547 -0.23597185 0.10046901 0.040711697 0.03385412 0.1671331 -0.14732845
-0.1895414 -0.15908311 -0.058751464 -0.11209558 -0.16565053 -0.0070340117 -0.09752368 -0.12456635
-0.049256608 0.06050202 0.011471991 -0.14883523 0.07782788 -0.12178019 0.06847604 0.16310981
-0.22389868 -0.05337899 0.13319468 -0.1351402 0.17441252 -0.07471635 0.15266502 0.17481282
00000000: 7a36 a63d 1d1a 813e 1438 153e fdba 763d
00000010: e39b 1ebe 8a14 7bbd 17ea 0d3d 98ec 703e
00000020: e08c 1c3d f630 393e 40f6 213e 361d 1cbe
00000030: 83e5 c9bc 6c70 ffbd ec01 013e 0c21 f5bd
00000040: 4769 89bd b139 293e f8e8 ffbd 7393 083e
00000050: d4f7 b1bd 077c 5bbe 0530 073e cccc 643e
00000060: d76b 5c3e 537a f0bd bc65 d5bd c6c3 493e
00000070: fbfd 903d 08d9 79bd 1fbf 403e 47a0 013e
00000080: 0fb9 3f3e e6cf 11be 291f 7c3e 4c9e a33d
00000090: ffe3 da3d b9c2 a93d 8d50 1d3e 3669 b53c
000000a0: 88b3 303d 0de2 d8bd 995e 6ebe 047c 52be
000000b0: 32cf 9dbd bfc6 8a3d 4831 ef3d ff89 473e
000000c0: ab46 73be 3ccc d7bd fc0f a9bd 0287 50bd
000000d0: d77a 4fbe 9013 81be bc7f 343e 0035 6cbe
000000e0: f8e3 623e c1c6 093e 58ab 53be 4273 42be
000000f0: d3b0 303e b46c 2f3e 6b60 0c3e 06bf 4dbd
00000100: 1943 b93d b233 6abe 9a65 b73d 841c 9a3c
00000110: a3a0 393e 6793 fb3c e7f1 fc3d bb27 313e
00000120: e5a6 39bd 742d 57be e569 873b 08fd 573e
00000130: deef 22be 751b 5cbe 4a71 3b3d c441 713e
00000140: 408e bbbd fdbb b2bd 5bfe c73d 8f44 e83d
00000150: 1ecd 82be 0fa7 b3bd 1bc8 29bd 78e0 3c3e
00000160: 10b7 09be 1b3a b5bd 2d3a 95bc a804 24be
00000170: a2cc 67be 7ae9 7bbd 6d92 283e 7adf 553e
00000180: 7492 c5bd bf48 bcbc 45ee f13b 1bab 403e
00000190: dbd8 103e 6556 ef3b bb4f 80bd e59d 01bd
000001a0: 2056 243b b5fb 143d ca1f eebd 1070 783c
000001b0: 3b73 2cbe 3979 68be d1f6 c9bd f132 0a3e
000001c0: 03f3 64be 8b43 7ebd c9c1 763d 8375 51be
000001d0: 7af5 163d e029 18be be23 d4b9 5a19 63be
000001e0: 73fa 2fbe 7d47 29bd b979 dcbc 6550 18be
000001f0: 9280 babc abba 17bd 949f 69be 9208 24be
00000200: eec1 153d b179 093d 5c05 333d 0e92 e03d
00000210: 18a6 d23d 04ad 633e f22c 5c3e e8aa 613e
00000220: 97c2 debd 56fb 4ebc 69e9 453e 8e3c 333e
00000230: c624 17be 0aa7 bfbd 25a6 d43d 9c43 243e
00000240: 7438 093e 934e 0ebe afcb a23d 4841 09be
00000250: a4d2 1d3e 3572 cebb a50d f2bd 4b65 f03b
00000260: 9075 a6bd 9549 e03d 027f a3bd 0d1a f8bd
00000270: 4474 c7bc e0c0 2b3e 3ee2 1ebe 16ec b83d
00000280: 73b1 4a3e 3b19 c9bd 61fb 03be e3ec 00bd
00000290: b07b ed3c f0bb d7bb dfb4 31be 39f3 bb3d
000002a0: 90b0 153e 81c3 4fbe ab07 0bbe 9b8b c9bd
000002b0: 73a3 f23d 6ce8 a5bd bf3b e7bd b14c 233e
000002c0: 5118 9dbd 18ba 88bd eac9 cf3d 13c9 19be
000002d0: 77dc 48be 745a 57be cf4b 243e 9a70 c2bd
000002e0: 2596 33be 3105 503e 4f0d 573e dadc 6fbe
000002f0: 2ea0 a63d 0314 4c3e 58d8 b6bd a3f5 f13d
00000300: 70ad 69bd 4191 2f3e cb28 a2bd 975b 113b
00000310: ecc6 91bd 6556 2cbd db7c 873d d062 62be
00000320: 1af2 e33d c91d 33bd cc1d 533e 1229 593c
00000330: e8b6 19be 4fd0 cebd e883 00be 4afc 2a3e
00000340: 3472 783e 9613 35be ad41 cb3d 10e6 3c3e
00000350: ba57 1d3e a907 6c3d 0745 a6bd 6794 4dbe
00000360: 7583 0e3d 4fc2 aabc c7ab e4bd a137 5ebe
00000370: b4d2 29be e3cc 2d3d d7da f7bd 708f a43d
00000380: 296e e5bd d14b 44be 9ba2 71be b2c2 cd3d
00000390: 4fc1 263d 9eaa 0a3d f024 2b3e 45dd 16be
000003a0: 2417 42be afe6 22be 60a5 70bd 5e92 e5bd
000003b0: 4ba0 29be 917d e6bb 7fba c7bd a41c ffbd
000003c0: 4cc1 49bd f7d0 773d 05f5 3b3c 4368 18be
000003d0: 3964 9f3d e467 f9bd 2b3d 8c3d 4206 273e
000003e0: b245 65be eea3 5abd 3064 083e 3162 0abe
000003f0: 3299 323e e304 99bd 3854 1c3e 2202 333e
