v3/PreConv_Quantized.tflite (tflite, 243424 bytes, 21 tensors)

Predict/fc0/BiasAdd/ReadVariableOp/resource f4 [64]
00000000: 16ad aabb 4f07 66bc 1597 e1bc 9ec3 60bc
00000010: d016 98bb ded9 7abc 37bc 453c 342e 2f3b
00000020: 6c38 1abd 7393 a3b9 a30b 083b 3307 2ebc
00000030: 61f8 00bd 8bf0 4abb 5cba d33c 5d7c 103c
00000040: 50d8 903b f443 a73b 6e56 7dbb 7ea9 e33a
00000050: e90e 97bb 0542 143a 60b2 c83c 1347 b43b
00000060: 52a5 43bc f5fd 033b 46a8 c4bb a836 483c
00000070: f1b3 c03b f99b b53b ad25 02bc 83ae 91bc
00000080: 7a65 09bb 24c5 6fbb d706 97bc 9530 95bc
00000090: 1c7a a4bc 66e7 ebbc 85a7 5dbb 3a48 77ba
000000a0: 7bee 05bd 11d4 4c3c 43a7 28bd 26eb 2b3b
000000b0: 6793 30bb da47 e8bb b24f 24bb bdc0 ba3c
000000c0: c69f 5a3c 0000 0000 2160 e43c 304c d1ba
000000d0: 8d3d cfba 4ecc 7bbc d63e 093c 4e85 72ba
000000e0: d487 34bb 5c1b 52b9 5a5c 9abb 5381 7cbb
000000f0: e3b8 f13b 698c 803c c1d4 ca3c 6d0a 6d3c
-0.0052086217 -0.014039828 -0.027537862 -0.013718514 -0.0046413913 -0.015310733 0.0120688 0.002673042
-0.037651464 -0.0003119964 0.002075889 -0.010621834 -0.031486873 -0.0030966129 0.025845699 0.008818713
0.0044203177 0.005104536 -0.0038656252 0.0017369238 -0.0046099317 0.00056555896 0.024499118 0.005501637
-0.011941271 0.0020140384 -0.006001505 0.012220062 0.0058808257 0.005542275 -0.007943553 -0.017783409
-0.0020965026 -0.003658601 -0.018435879 -0.018211642 -0.020077758 -0.028796863 -0.0033821773 -0.0009433065
-0.032698136 0.012501732 -0.04117514 0.0026232689 -0.0026943327 -0.0070886435 -0.0025071916 0.022796983
0.013343757 0.0 0.02787787 -0.001596814 -0.001581119 -0.015368534 0.008376798 -0.00092514313
-0.002754678 -0.00020037353 -0.004710716 -0.0038529232 0.0073767765 0.015691953 0.024759652 0.014467818

Predict/fc1/BiasAdd/ReadVariableOp/resource f4 [32]
00000000: a6fe 013b e1b4 303d 0ab6 debc 79c3 103d
00000010: 17fd a1bb 8f19 1e3d 55cb db3c d7ad 553d
00000020: 66c7 483d 143b a63d bc0e 0abc 3b18 f03c
00000030: 4716 f9bb 87da 5ebd 8f53 a7bc f2ec b1bc
00000040: 46b4 2d3d 8b91 833c 3f0c b2bc 4a96 0f3d
00000050: 5f95 423d ed3d f9bb 33e1 13bc 1546 f2bb
00000060: b693 163d 812a 1dbd 9ea0 1ebd 2090 50bc
00000070: 2532 033d db4f 2dbd e3de 84bd e484 6a3b
0.001983562 0.04314125 -0.027186412 0.035342667 -0.0049435007 0.038598593 0.026830355 0.05216774
0.049018286 0.08116737 -0.0084263645 0.029308429 -0.0076015326 -0.054407623 -0.020425586 -0.02171943
0.04240825 0.016060611 -0.021734355 0.035055436 0.047505733 -0.007606259 -0.00902586 -0.0073936083
0.036761962 -0.038370613 -0.038727395 -0.012729675 0.032030243 -0.042312484 -0.06487825 0.0035784775

Predict/fc2/BiasAdd/ReadVariableOp/resource f4 [32]
00000000: df44 98bd 2a2e b93c 2f80 d43b e4ca 8e3d
00000010: cd7f 0e3e 7537 c9bd b982 323c 03bd aa3d
00000020: e3ec a53c 51db 8d3d fb9a b33c 2ed6 fbbc
00000030: 2dec 1f3d a8f0 4b3d 1f51 b43d 054e 72bc
00000040: c102 f03d a9d7 c03d b00a d03d 056d ef3b
00000050: 83db 983c 357b ca3d e4a0 db3d 9368 c43d
00000060: 1ee8 803d aad0 7b3d 3d80 e93d bd14 a53c
00000070: ce93 f73d fdcb 123d b688 a03d 4c07 d0bd
-0.07435011 0.02260502 0.0064850072 0.06972292 0.1391594 -0.09825031 0.0108954245 0.083368324
0.020254558 0.06926597 0.021924486 -0.030741777 0.039043594 0.049790055 0.08804535 -0.014789109
0.11719275 0.09416134 0.101582885 0.0073066973 0.018659359 0.09886781 0.10724047 0.095902584
0.06294273 0.061478294 0.11401413 0.02015149 0.120887384 0.03583907 0.078385755 -0.10157642

Predict/layer_conv1/BiasAdd/ReadVariableOp/resource f4 [4]
00000000: e94f 51bd ebef ab3c 2cd9 d93c 53d2 003c
-0.0511016 0.020988425 0.026592813 0.007862645

Predict/layer_conv2/BiasAdd/ReadVariableOp/resource f4 [8]
00000000: 8a67 f53c 5631 5e39 54a1 03bd 46dc 14bd
00000010: 3648 e4bb ecb5 eeb9 986b 79bd 7e7f 29bc
0.029956598 0.00021189949 -0.032136276 -0.03634288 -0.006966616 -0.0004553044 -0.060893625 -0.010345338

Predict/layer_conv3/BiasAdd/ReadVariableOp/resource f4 [16]
00000000: 3e4c c3bc 79c1 4dbb 6c69 b93b 67c7 213d
00000010: 74a6 b3bc e8cb 17bd ecf3 be3c 623b 00bc
00000020: b7a6 a4bc a0f2 29bc ba0d d63c eb4b 0e3d
00000030: 2758 143d 4a00 bcbc 9833 b43c 1fb8 33bc
-0.023840066 -0.0031395836 0.005658319 0.039496806 -0.021929957 -0.037059695 0.02330967 -0.007826658
-0.020099027 -0.010372788 0.026129592 0.03474037 0.03621688 -0.022949357 0.021997258 -0.010969191

Predict/layer_conv4/BiasAdd/ReadVariableOp/resource f4 [32]
00000000: d763 26bd 1cb0 ff3c 436c 4dbd 9b32 673c
00000010: a989 ce3c a67b fb3c 9dcc 03bd 1973 c5bc
00000020: a31e d2bc 7f9d de3c 0535 13bb 2e58 1e3d
00000030: 576a fbbc 63d0 ad3c d47c 9b3c 2fbb b33c
00000040: 2636 d93c 86b5 a93a bc47 823c b0ca d0bc
00000050: 50ab abbc 7783 06bc e7d2 fe3c 5119 3ebc
00000060: 8881 803c 449d 0b3d 4dbc e5bc 1908 97bc
00000070: fba2 d7bb e5e8 f7bc 2715 1a3d a3ee bbbc
-0.04062256 0.031211905 -0.050152075 0.014111186 0.025212126 0.030698609 -0.032177556 -0.024102734
-0.025649374 0.02717471 -0.0022462022 0.038658313 -0.030690355 0.02121753 0.018980421 0.021939842
0.026515078 0.0012947775 0.015903346 -0.025487274 -0.020955712 -0.008210055 0.031106425 -0.011602716
0.015686765 0.034085527 -0.02804389 -0.018436478 -0.006580708 -0.03026242 0.03761783 -0.02294094

Predict/layer_conv5/BiasAdd/ReadVariableOp/resource f4 [64]
00000000: ef7d acba 426e 8c3c 8a10 f6bc 6399 ae3c
00000010: 8043 053c d50c a33c fd93 17bd 1c6b aebc
00000020: fc56 06bd b1ac d5bc 0c6b 14bc 2178 76bc
00000030: e611 3e3d 221a 8c3c 8289 333d 4704 7bbb
00000040: debb 29bd d33c 023d c9c1 0ebd f668 4f3d
00000050: e1ed 0dbc 32a8 b83c 6fdc 62bc 08ad 8c3c
00000060: aa39 dfbc aaed a2bc 597d 05bd 695f da3c
00000070: cfe0 d4bc aa0e 9aba 6469 f4bc 6c00 01bd
00000080: cb14 db3c 6d96 40bd 69c9 233d a744 fa39
00000090: ba68 b83c 9a5c da3c 61df 03bd 003c 8d3c
000000a0: 3f21 e03c f2fc d13c ef25 01bd 5569 2abd
000000b0: ba25 1fbd 38e0 fd3b d973 0bbd 1386 063d
000000c0: 0431 60bd 169b 21bd deee 1a3d bc92 97bc
000000d0: e18c b2bc 32cd dbbc b775 b9bc ac2d 903c
000000e0: 521b 3a3d d4cd 95bb eb6b 00bd dd1c 6fbb
000000f0: 2cb1 8fbc e0b0 0c3d ad34 8aba cb3d f6bb
-0.001316009 0.017142419 -0.030037183 0.021313375 0.008133769 0.01990358 -0.037006367 -0.021291308
-0.0327978 -0.026083322 -0.009058725 -0.015043289 0.046403788 0.017102305 0.04383231 -0.003830211
-0.04143893 0.031796288 -0.034852777 0.050637208 -0.008662672 0.02254114 -0.013846501 0.017172351
-0.027249176 -0.019888718 -0.032590244 0.026656823 -0.025986103 -0.0011753638 -0.02983541 -0.031494543
0.026743313 -0.047018457 0.039987 0.00047734866 0.022510875 0.026655484 -0.032195453 0.017240524
0.027359603 0.025633309 -0.031530317 -0.04160436 -0.03885434 0.007747676 -0.034046028 0.032842707
-0.054734245 -0.039454542 0.037825458 -0.018502586 -0.021795692 -0.026831243 -0.022639139 0.017599903
0.04543621 -0.0045716558 -0.03135292 -0.003648571 -0.017540537 0.03434837 -0.0010544263 -0.0075146905

Predict/layer_conv6/BiasAdd/ReadVariableOp/resource f4 [128]
00000000: 401e f3ba d324 93bc 5887 0e3d 67ee ebbb
00000010: fe7e ac3c 5b06 14bc 9e35 19bc aaf4 a2bc
00000020: 6dc2 2bbc a009 13bd d115 f93b 23cb fabc
00000030: 28fb bcbc 9bea df3b 42d6 093d 8015 09bc
00000040: 71fd d3bc ad83 af3c 7544 03bc ae4d e8bc
00000050: f25e 413b e406 0fbb 16a0 b0bb e26f 53bb
00000060: 254e bbbc 82dd a1bc 4461 3c3d 969a c5bc
00000070: 2eb8 8fbb a438 39bc 3902 39bd 1b2e 3ebc
00000080: d7f4 51bc 8b36 9f3c 53a6 8ebc 75e5 7a3c
00000090: dfd4 cfbc 85f4 f93b 5a4e d7bc cf29 b2bb
000000a0: 07d2 8cbc 183d 1cbd e649 f1ba 6ad8 18bb
000000b0: 8754 c1bc 711b 60bb 9bb9 06bd 65db b6bc
000000c0: 243b 0cbd 0341 31bc 2321 06bd 8482 3dbb
000000d0: 54b6 4cbc 9d81 85bc 01b0 ad3c be65 b5bb
000000e0: 37df 11bc ede5 b13c ea9a 10bd 1439 9eb8
000000f0: 1a8d d3bc ef90 4ebc 282e 2bbb fc88 05bd
00000100: c810 30bc 61a4 febc e6e0 e73c 8d43 93bc
00000110: 5f20 63bc a39d 2bbc b3db be3c 81af 8f39
00000120: 12b3 9f3a 02f1 a33c 1c9b b4bc 5875 a03c
00000130: cf84 1bbc 3538 023d 29f6 c23c 12ba 12bd
00000140: 95b2 183d 9f95 12bd 360f 8abc 6932 37bb
00000150: cd2f d9ba 134d 67bc 48a6 83bc dcbb 4ebc
00000160: 3c91 22bd a654 c2bc 7e5a f43b d7ec 153b
00000170: 0ca4 6cbc 13e1 d03c 832b 96bc d01e b6bc
00000180: 3a51 593c ae5a d2bc 8e63 16bd 506a d03c
00000190: e00e 083c 0a20 b5bb 3a93 df3c 3cc7 603c
000001a0: b9c2 20bd 058d d53c 34bc 08bd b061 dcbc
000001b0: cb00 90bc 5dec 19bc 2486 0c3c f6bc a63c
000001c0: 7e14 fabc f02f 2abd 93ec 72bb aa77 0f3d
000001d0: f68d 4dbc d137 afbc 78ca 5ebc aafe bebc
000001e0: 0863 cabc 1d58 243b a57c 143d 9744 1cbd
000001f0: d3ac 22bd ebb4 55bc 4d95 15bd 981f 9ebc
-0.0018548444 -0.017961895 0.034797043 -0.0072000506 0.021056648 -0.009034718 -0.009351162 -0.019892056
-0.010483366 -0.03589785 0.0076014777 -0.030614441 -0.02306898 0.006833387 0.033651598 -0.008366942
-0.025877686 0.021425093 -0.008011927 -0.028357353 0.0029506055 -0.0021824175 -0.0053901775 -0.0032262732
-0.02286441 -0.019758943 0.045991197 -0.024121564 -0.0043859696 -0.011305008 -0.045168135 -0.011607672
-0.012814722 0.019435188 -0.017413294 0.015313496 -0.02537006 0.007628026 -0.026282478 -0.005437113
-0.017189993 -0.0381442 -0.0018408864 -0.0023322352 -0.023599876 -0.0034196044 -0.03289185 -0.022321412
-0.03423609 -0.010818723 -0.032746445 -0.0028916905 -0.012494642 -0.016297156 0.02120209 -0.0055358103
-0.008903316 0.021716082 -0.035303988 -7.544659e-05 -0.025824118 -0.012607797 -0.002612004 -0.03260134
-0.010746188 -0.031084241 0.028305482 -0.017976547 -0.013862698 -0.010474595 0.02329812 0.00027405846
0.0012184104 0.020012382 -0.022046618 0.019587204 -0.009492113 0.031791884 0.023799019 -0.03582198
0.037279684 -0.03578722 -0.016852956 -0.002795363 -0.0016570032 -0.014117497 -0.0160705 -0.012618031
-0.039689288 -0.023722004 0.0074570766 0.0022876763 -0.014443409 0.025497949 -0.018331295 -0.02223149
0.013263995 -0.025678005 -0.036716036 0.025441319 0.008304328 -0.005527501 0.027291883 0.013719376
-0.039248202 0.02606822 -0.03338261 -0.02690205 -0.017578503 -0.009394732 0.0085769035 0.020353775
-0.03052735 -0.041549623 -0.0037067279 0.03502623 -0.012546053 -0.02138892 -0.013598077 -0.023314793
-0.024705425 0.0025076934 0.036251683 -0.03815135 -0.0397156 -0.0130436225 -0.036519337 -0.019302174

Predict/op/BiasAdd/ReadVariableOp/resource f4 [4]
00000000: 02bd 5ebd a551 40bd fb25 d53d 4cfb 7fbe
-0.05437947 -0.046952862 0.10407635 -0.24998206

Predict/fc0/MatMul i1 [64, 2048] scale=0.0014510639 zero_point=0
00000000: 1911 1b21 26fc 1a1c 050d 0e34 0218 0003
00000010: fc08 ff01 ee15 ef09 f2f7 1800 1c07 2b1b
00000020: 1029 09f4 1c18 f2f4 f315 23e6 0809 1de8
00000030: 2aea fe0e fb25 f3eb fcec 170d fefe 0807
00000040: f61a dc2a 0119 ecfe e7f2 28eb 0ce1 edf2
00000050: 1b17 1914 0123 03f4 e6ec 1223 df22 fffc
00000060: edfc f4ec 2805 1110 e5f9 2013 0408 f9fe
00000070: 0fed e41c 1905 f6dc 40e3 faff f5e9 1a0a
00000080: ebf0 f118 f614 e3f2 eaef e11b 1ce3 0ff5
00000090: 29dc fa2b 1904 23e0 220f ff00 121b de1f
000000a0: 17fc 03f6 001c 08eb 1ff9 dd00 e520 12e9
000000b0: 21f8 1636 fe0a 3108 04df 19ed 21fd e0d8
000000c0: 200d 06eb 1728 f611 1bdb 11ea 13e8 fc1d
000000d0: 20eb 0911 fd10 faee 1bdf 0bf7 d20a 2d03
000000e0: 0fe9 2eeb f6f8 0413 f2fc 0218 eaed e4de
000000f0: f907 29ec 0bf0 f0eb ead3 1612 1622 f41a
0.036276598 0.024668086 0.039178725 0.04788511 0.05514043 -0.0058042556 0.03772766 0.04062979
0.0072553195 0.01886383 0.020314895 0.07545532 0.0029021278 0.034825534 0.0 0.0043531917
-0.0058042556 0.011608511 -0.0014510639 0.0014510639 -0.02611915 0.030472342 -0.024668086 0.013059575
-0.020314895 -0.013059575 0.034825534 0.0 0.04062979 0.010157447 0.062395748 0.039178725
0.023217022 0.05949362 0.013059575 -0.017412767 0.04062979 0.034825534 -0.020314895 -0.017412767
-0.01886383 0.030472342 0.050787237 -0.03772766 0.011608511 0.013059575 0.042080853 -0.034825534
0.060944684 -0.031923406 -0.0029021278 0.020314895 -0.0072553195 0.053689364 -0.01886383 -0.030472342
-0.0058042556 -0.029021278 0.03337447 0.01886383 -0.0029021278 -0.0029021278 0.011608511 0.010157447
-0.014510639 0.03772766 -0.0522383 0.060944684 0.0014510639 0.036276598 -0.029021278 -0.0029021278
-0.036276598 -0.020314895 0.058042556 -0.030472342 0.017412767 -0.04498298 -0.027570214 -0.020314895
0.039178725 0.03337447 0.036276598 0.029021278 0.0014510639 0.050787237 0.0043531917 -0.017412767
-0.03772766 -0.029021278 0.02611915 0.050787237 -0.04788511 0.049336173 -0.0014510639 -0.0058042556
-0.027570214 -0.0058042556 -0.017412767 -0.029021278 0.058042556 0.0072553195 0.024668086 0.023217022
-0.039178725 -0.010157447 0.046434045 0.027570214 0.0058042556 0.011608511 -0.010157447 -0.0029021278
0.021765959 -0.027570214 -0.04062979 0.04062979 0.036276598 0.0072553195 -0.014510639 -0.0522383
0.09286809 -0.042080853 -0.008706383 -0.0014510639 -0.015961703 -0.03337447 0.03772766 0.014510639
-0.030472342 -0.023217022 -0.021765959 0.034825534 -0.014510639 0.029021278 -0.042080853 -0.020314895
-0.031923406 -0.024668086 -0.04498298 0.039178725 0.04062979 -0.042080853 0.021765959 -0.015961703
0.05949362 -0.0522383 -0.008706383 0.062395748 0.036276598 0.0058042556 0.050787237 -0.046434045
0.049336173 0.021765959 -0.0014510639 0.0 0.02611915 0.039178725 -0.049336173 0.04498298
0.03337447 -0.0058042556 0.0043531917 -0.014510639 0.0 0.04062979 0.011608511 -0.030472342
0.04498298 -0.010157447 -0.050787237 0.0 -0.039178725 0.046434045 0.02611915 -0.03337447
0.04788511 -0.011608511 0.031923406 0.07835745 -0.0029021278 0.014510639 0.07110213 0.011608511
0.0058042556 -0.04788511 0.036276598 -0.027570214 0.04788511 -0.0043531917 -0.046434045 -0.058042556
0.046434045 0.01886383 0.008706383 -0.030472342 0.03337447 0.058042556 -0.014510639 0.024668086
0.039178725 -0.053689364 0.024668086 -0.031923406 0.027570214 -0.034825534 -0.0058042556 0.042080853
0.046434045 -0.030472342 0.013059575 0.024668086 -0.0043531917 0.023217022 -0.008706383 -0.02611915
0.039178725 -0.04788511 0.015961703 -0.013059575 -0.06674894 0.014510639 0.06529787 0.0043531917
0.021765959 -0.03337447 0.06674894 -0.030472342 -0.014510639 -0.011608511 0.0058042556 0.027570214
-0.020314895 -0.0058042556 0.0029021278 0.034825534 -0.031923406 -0.027570214 -0.04062979 -0.049336173
-0.010157447 0.010157447 0.05949362 -0.029021278 0.015961703 -0.023217022 -0.023217022 -0.030472342
-0.031923406 -0.06529787 0.031923406 0.02611915 0.031923406 0.049336173 -0.017412767 0.03772766

Predict/fc1/MatMul i1 [32, 64] scale=0.0029563683 zero_point=0
00000000: e02a 1e23 e62d 6a22 2cf7 3040 e9b6 1aa0
00000010: dcc1 c9cb e28c 1a55 5666 3235 6bce b2e8
00000020: ae4b c502 f7b5 32f9 c7c6 f8e1 afc6 d506
00000030: 43c2 a75e 0147 5524 be51 ad57 d213 024c
00000040: baa1 2e5a 2476 0ddc e03f e2da 0407 0f3d
00000050: 3b1c c3c4 e2dd 00f9 230e eada 43dc 4050
00000060: 0426 f51d ecb9 2e10 ba18 f94f c62b d3a1
00000070: b94b f0e0 f63c c5f9 dab5 ca29 3244 dcc2
00000080: f71f ef51 d10a 553b 1420 4d0a 6fe0 1db5
00000090: cf2a d9df b5da 3b37 6a65 50c2 67ca d42b
000000a0: b0c8 5b5b 28e9 5235 5dbf 29f6 1c2a 43ea
000000b0: f12a bc71 235f 18f8 f4f7 1a5f ce36 d617
000000c0: f3fc bf0e d8c4 50e0 1e3e 280f ebd4 ff2c
000000d0: b839 d635 30fa fbc6 226f 7a14 32b3 00cc
000000e0: ba09 4850 b3d5 3b21 f7fc 56b9 d926 feea
000000f0: 462f 0b33 330f 67b7 62f3 404a e93e e8d7
-0.094603784 0.124167465 0.08869105 0.10347289 -0.076865576 0.13303657 0.31337503 0.10051652
0.13008021 -0.026607314 0.14190568 0.18920757 -0.06799647 -0.21877125 0.076865576 -0.28381136
-0.10642926 -0.1862512 -0.16260025 -0.15668751 -0.08869105 -0.34293872 0.076865576 0.2512913
0.25424767 0.30154955 0.14781842 0.15668751 0.31633142 -0.14781842 -0.23059672 -0.07095284
-0.2424222 0.22172762 -0.17442572 0.0059127365 -0.026607314 -0.22172762 0.14781842 -0.020694578
-0.16851299 -0.17146936 -0.023650946 -0.09164742 -0.23946583 -0.17146936 -0.12712383 0.01773821
0.19807668 -0.18329483 -0.26311678 0.2778986 0.0029563683 0.20990215 0.2512913 0.10642926
-0.1951203 0.23946583 -0.24537857 0.25720403 -0.13599294 0.056170996 0.0059127365 0.22468399
-0.20694578 -0.28085497 0.13599294 0.26607314 0.10642926 0.34885144 0.038432788 -0.10642926
-0.094603784 0.1862512 -0.08869105 -0.11234199 0.011825473 0.020694578 0.044345524 0.18033846
0.17442572 0.08277831 -0.18033846 -0.1773821 -0.08869105 -0.10347289 0.0 -0.020694578
0.10347289 0.041389156 -0.065040104 -0.11234199 0.19807668 -0.10642926 0.18920757 0.23650946
0.011825473 0.11234199 -0.032520052 0.08573468 -0.059127364 -0.20990215 0.13599294 0.047301892
-0.20694578 0.07095284 -0.020694578 0.2335531 -0.17146936 0.12712383 -0.13303657 -0.28085497
-0.20990215 0.22172762 -0.047301892 -0.094603784 -0.029563682 0.1773821 -0.17442572 -0.020694578
-0.11234199 -0.22172762 -0.15964389 0.1212111 0.14781842 0.20103304 -0.10642926 -0.18329483
-0.026607314 0.09164742 -0.05025826 0.23946583 -0.1389493 0.029563682 0.2512913 0.17442572
0.059127364 0.094603784 0.22764036 0.029563682 0.3281569 -0.094603784 0.08573468 -0.22172762
-0.14486204 0.124167465 -0.11529836 -0.09756015 -0.22172762 -0.11234199 0.17442572 0.16260025
0.31337503 0.2985932 0.23650946 -0.18329483 0.30450594 -0.15964389 -0.13008021 0.12712383
-0.23650946 -0.16555662 0.2690295 0.2690295 0.11825473 -0.06799647 0.2424222 0.15668751
0.27494225 -0.19216394 0.1212111 -0.029563682 0.08277831 0.124167465 0.19807668 -0.065040104
-0.044345524 0.124167465 -0.20103304 0.3340696 0.10347289 0.28085497 0.07095284 -0.023650946
-0.03547642 -0.026607314 0.076865576 0.28085497 -0.14781842 0.15964389 -0.124167465 0.06799647
-0.038432788 -0.011825473 -0.19216394 0.041389156 -0.11825473 -0.1773821 0.23650946 -0.094603784
0.08869105 0.18329483 0.11825473 0.044345524 -0.062083732 -0.13008021 -0.0029563683 0.13008021
-0.21285851 0.16851299 -0.124167465 0.15668751 0.14190568 -0.01773821 -0.014781841 -0.17146936
0.10051652 0.3281569 0.3606769 0.059127364 0.14781842 -0.22764036 0.0 -0.15373115
-0.20694578 0.026607314 0.21285851 0.23650946 -0.22764036 -0.12712383 0.17442572 0.09756015
-0.026607314 -0.011825473 0.25424767 -0.20990215 -0.11529836 0.11234199 -0.0059127365 -0.065040104
0.20694578 0.1389493 0.032520052 0.15077478 0.15077478 0.044345524 0.30450594 -0.21581489
0.28972408 -0.038432788 0.18920757 0.21877125 -0.06799647 0.18329483 -0.07095284 -0.1212111

Predict/fc2/MatMul i1 [32, 32] scale=0.0045610666 zero_point=0
00000000: bbff 2b1d 40c0 df09 2bda edec 1f0a 1517
00000010: 0f16 3d17 f706 c350 df39 3532 0ad9 512f
00000020: 193e e7fe 373f 0e24 270f d4f3 3453 d81e
00000030: 1449 d9c2 4430 1426 bc59 d026 3602 e0cf
00000040: 181b 3a5b c1d6 dac7 f311 d64f 2011 03d9
00000050: c6c0 d530 2fd0 d119 dad3 27be 0ad9 1cec
00000060: 3e10 3044 0e4c 384d 3edd faf1 e233 09cf
00000070: ea1f ec3e 0d3f 2902 defa d7d6 3027 1bc4
00000080: 5022 23f3 d40f cb0e f73a eb43 ee29 021e
00000090: d9d4 0f22 1eff f302 2bbd e205 4fdd 0ddd
000000a0: 263c 5f06 2cbc 2218 e327 4239 051b 17e2
000000b0: 2ac5 eecf c046 e72b 123b 38bf 093c 0243
000000c0: 40e7 49dd e8e2 f8ef eaed 51d5 f0cc 4a0c
000000d0: 23d1 35d9 ce2d bd2a 33e0 1afa 02e4 493c
000000e0: 2dee 3a20 bed8 04fd f7d1 fdf2 10da c419
000000f0: 2efa c437 1d0f bed9 f8fc 0dd6 d9ef 1207
-0.3147136 -0.0045610666 0.19612586 0.13227093 0.29190826 -0.29190826 -0.1505152 0.0410496
0.19612586 -0.17332053 -0.086660266 -0.09122133 0.14139307 0.045610666 0.0957824 0.10490453
0.068416 0.100343466 0.27822506 0.10490453 -0.0410496 0.0273664 -0.27822506 0.36488533
-0.1505152 0.2599808 0.24173653 0.22805333 0.045610666 -0.1778816 0.3694464 0.21437013
0.114026666 0.28278613 -0.114026666 -0.009122133 0.25085866 0.2873472 0.06385493 0.1641984
0.1778816 0.068416 -0.20068693 -0.059293866 0.23717546 0.37856853 -0.18244267 0.136832
0.09122133 0.33295786 -0.1778816 -0.28278613 0.31015253 0.2189312 0.09122133 0.17332053
-0.31015253 0.40593493 -0.2189312 0.17332053 0.2462976 0.009122133 -0.14595413 -0.22349226
0.1094656 0.1231488 0.26454186 0.41505706 -0.2873472 -0.1915648 -0.17332053 -0.2599808
-0.059293866 0.07753813 -0.1915648 0.36032426 0.14595413 0.07753813 0.0136832 -0.1778816
-0.26454186 -0.29190826 -0.19612586 0.2189312 0.21437013 -0.2189312 -0.21437013 0.114026666
-0.17332053 -0.205248 0.1778816 -0.3010304 0.045610666 -0.1778816 0.12770987 -0.09122133
0.28278613 0.072977066 0.2189312 0.31015253 0.06385493 0.34664106 0.25541973 0.35120213
0.28278613 -0.15963733 -0.0273664 -0.068416 -0.136832 0.2326144 0.0410496 -0.22349226
-0.100343466 0.14139307 -0.09122133 0.28278613 0.059293866 0.2873472 0.18700373 0.009122133
-0.15507627 -0.0273664 -0.18700373 -0.1915648 0.2189312 0.1778816 0.1231488 -0.273664
0.36488533 0.15507627 0.15963733 -0.059293866 -0.20068693 0.068416 -0.24173653 0.06385493
-0.0410496 0.26454186 -0.0957824 0.30559146 -0.0820992 0.18700373 0.009122133 0.136832
-0.1778816 -0.20068693 0.068416 0.15507627 0.136832 -0.0045610666 -0.059293866 0.009122133
0.19612586 -0.30559146 -0.136832 0.022805333 0.36032426 -0.15963733 0.059293866 -0.15963733
0.17332053 0.273664 0.43330133 0.0273664 0.20068693 -0.31015253 0.15507627 0.1094656
-0.13227093 0.1778816 0.3010304 0.2599808 0.022805333 0.1231488 0.10490453 -0.136832
0.1915648 -0.26910293 -0.0820992 -0.22349226 -0.29190826 0.31927466 -0.114026666 0.19612586
0.0820992 0.26910293 0.25541973 -0.29646933 0.0410496 0.273664 0.009122133 0.30559146
0.29190826 -0.114026666 0.33295786 -0.15963733 -0.1094656 -0.136832 -0.036488533 -0.07753813
-0.100343466 -0.086660266 0.3694464 -0.19612586 -0.072977066 -0.23717546 0.33751893 0.0547328
0.15963733 -0.21437013 0.24173653 -0.1778816 -0.22805333 0.205248 -0.30559146 0.1915648
0.2326144 -0.14595413 0.11858773 -0.0273664 0.009122133 -0.12770987 0.33295786 0.273664
0.205248 -0.0820992 0.26454186 0.14595413 -0.3010304 -0.18244267 0.018244267 -0.0136832
-0.0410496 -0.21437013 -0.0136832 -0.06385493 0.072977066 -0.17332053 -0.273664 0.114026666
0.20980906 -0.0273664 -0.273664 0.25085866 0.13227093 0.068416 -0.3010304 -0.1778816
-0.036488533 -0.018244267 0.059293866 -0.1915648 -0.1778816 -0.07753813 0.0820992 0.031927466

Predict/op/MatMul f4 [4, 32]
00000000: f837 2abe 3d27 90be 0b31 89bc f2d0 40bd
00000010: f62b 703d 9ef4 f83d 6803 573e e982 f23e
00000020: d4fd ad3e 6996 983e a6ff dcbd c257 debe
00000030: 4b43 70be b2b2 c3be 1bcc f5be 504a a8be
00000040: 683f e1be a0a5 54be 8ff8 9a3e a705 00bf
00000050: 76fe 59be 28ec f23e fc9b 07bf 82c4 c43e
00000060: 3787 bc3e 68b2 463e 4f67 423d f433 153e
00000070: b047 b33c ab57 b7be 2ea0 2abf 23ad 9fbe
00000080: ee59 c03e 54b1 c8bd 4bb7 febe 5c4a 1abf
00000090: 4b64 80be bd1a 133e 2b6c b53e ceee d2be
000000a0: 6efb bebe cdcb 25bf 4377 b9be 05bb d43e
000000b0: 69d0 86bc 4be5 c1be 5de6 6ebe c11b 2abd
000000c0: 099d f4be 19d4 b23e d8c7 c5be c90a d23e
000000d0: ca9f b53d 09a4 fcbe a954 0dbe f84a 84be
000000e0: 3869 103e 05f3 e73e b60c 36bf 8b25 7e3e
000000f0: db10 a2bd 6306 dfbe e006 78be be64 dbbe
00000100: 8f09 1ebe c07f 1e3e ada1 9cbe 3fb9 0f3e
00000110: 2a6b 383e 7d8f e1be 1297 e4be bea0 92be
00000120: 012f ffbe 38dc e7be 3b65 553e 7cff 98be
00000130: 7950 dbbe 52be af3e f268 203e a6c7 82be
00000140: 5034 8c3e ee56 ba3e 8788 a93e 5950 833e
00000150: 249b 4fbe 2f69 2bbe 3e88 cc3e 1c24 0bbc
00000160: 43d6 01bf ed1d 343e 1fac 31bf 5986 babe
00000170: 771c 543e 3629 003f 0886 f03e cb99 f8be
00000180: bc42 e2be cbba e63e 46a1 8cbe d4c0 803d
00000190: d5ca 1cbf 3f89 e53d 8630 0abf e17e c4bd
000001a0: 0299 9c3e 4d8b 113e 5f28 cb3e afb4 973e
000001b0: b602 ecbe 89fc 8dbe 40c0 413d c770 b83e
000001c0: 4d76 8abe 2857 0cbf 47d2 ecbe ec18 893d
000001d0: f5e2 14bf c658 d43d 21ae 56bf 2de6 4dbe
000001e0: e31e a73e d7f2 c0be b266 4f3e 636e 2abe
000001f0: 1004 18bf d971 79be 30d5 20bf 6941 fa3e
-0.16622913 -0.28154936 -0.016747018 -0.047074266 0.058635674 0.12156032 0.20997393 0.47365502
0.33982718 0.29802254 -0.107909486 -0.4342633 -0.2346317 -0.3822227 -0.48007283 -0.32869196
-0.43993688 -0.20766306 0.3026776 -0.50008625 -0.21288475 0.47445798 -0.5297239 0.38431174
0.3682191 0.19403994 0.047461804 0.145706 0.02188477 -0.35809073 -0.66650665 -0.3118678
0.3756861 -0.09799448 -0.49749216 -0.60269713 -0.25076517 0.14365669 0.35434088 -0.4119782
-0.373012 -0.647641 -0.36223802 0.41548935 -0.0164568 -0.3787025 -0.23330064 -0.041530374
-0.47776058 0.34927443 -0.3862903 0.41023853 0.08868368 -0.493439 -0.13801827 -0.25838447
0.14102638 0.45302597 -0.71113145 0.24819009 -0.07913371 -0.4355956 -0.24221373 -0.42850298
-0.15433334 0.1547842 -0.305921 0.1403551 0.1800963 -0.44054785 -0.44646508 -0.28638262
-0.4984055 -0.452852 0.20839398 -0.2988242 -0.42834833 0.3432489 0.15665033 -0.25542945
0.2738366 0.36394447 0.33111975 0.25647238 -0.20274025 -0.16739343 0.39947695 -0.008492496
-0.5071756 0.17589541 -0.6940326 -0.36430624 0.20713983 0.5006288 0.46977258 -0.48554835
-0.4419154 0.45064387 -0.27466792 0.06286779 -0.61247 0.11207818 -0.5398029 -0.09594513
0.30585486 0.14213295 0.39679238 0.29630038 -0.46095818 -0.27731732 0.047302485 0.36023542
-0.2704338 -0.5482049 -0.4625418 0.066942066 -0.5815881 0.10368495 -0.8385945 -0.20107336
0.32640752 -0.37685272 0.20254019 -0.16643672 -0.593812 -0.24359836 -0.628253 0.4887803

Predict/conv2d/Conv2D f4 [1, 16, 16, 1]
00000000: e182 4ebd 8693 6a3d c6ec 1ebd 0940 afbb
00000010: b814 b73d 3f38 2839 0b87 c8bd e999 b53b
00000020: 0b1e 3236 77bb b83d 817c bbbd c176 05bd
00000030: 5679 033d f02b 55bc 1592 b63b b760 f0ba
00000040: b574 353d ac5b e83d 4288 753d e4e7 c23d
00000050: cf74 0ebc 651c f73d 5681 e13d c96c 853d
00000060: b420 97bc d03d 9ebd 67ab 21bd 6a36 13bd
00000070: 5dd5 89bd 11d4 b83d d1d9 3abd e5bd 73bd
00000080: 1458 043e 5d97 443d cedf 373d 0ff0 3f3d
00000090: 1b04 aa3c dee9 54bc de3a b73a e4fb 583d
000000a0: bad5 65bd c704 47bd 5745 dfbd c9df eabd
000000b0: 5e6b 3b3d 6368 aabb 138b 1c3d f6c7 68bd
000000c0: c72a fcbc 0792 ba3d 889b dd3b ca5f 76bd
000000d0: 6f97 a4bd c2d5 e23c b284 a3bb 0fc1 183b
000000e0: a05f b13d f6f9 0c3d a951 63bb 34f5 df3c
000000f0: f41a f5bd 6957 e23c d2d5 0e3c 26b1 883d
00000100: 40db 633c 3891 df3d b2d0 2cbd 96c5 77bd
00000110: 36ad 263d 144c 673d 1109 b63d 1ff4 b8bd
00000120: ed91 1d3b 6672 64bc f3a6 7f3d 36d3 24bd
00000130: ecf1 18bc 31c5 72bc 812b 9e3c 494e b4bd
00000140: f5fc 703d 9129 6c3d 5de2 0a3e 75df ba3d
00000150: cea4 ec3d 75ed ad3d f4d5 10bd 60dc 6c3c
00000160: 01f1 97bc da44 843d 7856 91bc 8a8f 2bbd
00000170: 3d99 afbc 189c f0bb e5e6 2a3c 4871 c53c
00000180: 3cf5 a53d 3044 423d 4ad8 64bd 262e be3c
00000190: 3442 5c3c 5dc7 71bd 7d6a f3bc 092e b13d
000001a0: 0aa7 15bd 760a 82bc 3d31 8cbd e7b6 853d
000001b0: 3e37 963b 993d 61bd 778f adbc 15c4 0dbb
000001c0: 34c2 83bd 7030 043d a58f be3d 8112 bf3d
000001d0: f371 c93d af29 163d 90df e53d f388 8a3d
000001e0: ab10 a03c dc49 a93d 700a 89ba 7edc b03c
000001f0: 737c 583d f34a 023d e194 b13d 1b6e e7bd
00000200: 215c 66bd 03c2 2b3d e25f 053e 1730 b9bc
00000210: fa76 cf3d efe1 c13c 3a1c 273e 00bd dcbc
00000220: 57ef 003e 31c6 b7bc ec1b 173c a093 533d
00000230: 0528 b5bd 5cdd 07bd afa3 b4bc 7b90 1abc
00000240: e057 663d ddfc d83d dc40 b93d 3fa9 023e
00000250: be98 273e 2d74 f63d 455c d73d 9872 173e
00000260: 6973 3d3e a8d5 273e 209c babc 1081 0a3e
00000270: 173a 92bd cb61 cb3a 896a 7d3c 010f b23c
00000280: 083c dc3d f834 3cbc 5fb9 86bc 201c ea3d
00000290: 639e 2f3d 7fbc 2d3e af92 c6bb 17eb a43d
000002a0: 0406 243e 5188 a03d c0c8 1e3e a118 873c
000002b0: ccd5 373d 8b0c 58bd 18cd 3abd 55cf 95bc
000002c0: 69d4 473c a03e c63d 9527 65bd ec78 613d
000002d0: 5154 80bc 59f0 213d 4240 f03d d12e 443e
000002e0: b2ed 323e 2d3d 0c3e 1137 9e3d 0625 223e
000002f0: 52ba a23d 3506 353c 6298 033d 794f 9e3d
00000300: 21a8 dd3d 7030 acbc ee24 bb3c 01ee 13bd
00000310: ffbf 1abc c616 943c 5dfa c73b fd98 b2bc
00000320: fd20 d63d 597c 26bc 8d6c 233e 963b ea3b
00000330: 3bdf a13d fbef e33b 7131 81bc 206f af3d
00000340: b5ef a23d 2b07 903d 44be 0e3d dc8a 243d
00000350: e8f1 d73d 0867 bb3c 4b4f bb3d 258b 073e
00000360: 1ffe a6bc b24d 353e 9789 313e f51d f2bc
00000370: 7f62 913d 644f de3d 5ed4 da3d 3dfe 80bd
00000380: 29eb 9abc 6774 c3bd 5bfe ba3d a47a 1abd
00000390: ff09 d6bc a7ee 4bbd c041 f93d 38ae a23d
000003a0: 50f2 cf3c 87bd 2cbd cdc2 203c 4767 0b3e
000003b0: d9be f53b 5d7d d43d 6a46 9a3d 8c4e d63c
000003c0: f618 0dbd f0d3 9c3b fc48 94bb d9c2 b6bc
000003d0: c541 9c3c d47d 163d 04c1 073d d54f 4ebc
000003e0: 981a d7bc cd6f 7abd 9333 4b3d 58a3 5d3d
000003f0: 6970 123e a2fb 4d3d 5b93 dd3d e8d5 5b3d
-0.050417785 0.057269596 -0.038800023 -0.0053482098 0.08939499 0.00016042682 -0.097913824 0.005542029
2.6541554e-06 0.09020131 -0.091546066 -0.032583956 0.032098137 -0.013010964 0.0055716136 -0.001833937
0.044300754 0.1134561 0.0599444 0.09516886 -0.0086948415 0.12065963 0.11010997 0.0651489
-0.018448211 -0.077266335 -0.039470103 -0.035940565 -0.06730149 0.090248235 -0.045617882 -0.05950727
0.12924224 0.047995914 0.04489117 0.046859797 0.02075391 -0.012995211 0.0013979336 0.052974597
-0.05611203 -0.04858854 -0.109018974 -0.11468465 0.04575669 -0.005200432 0.03821857 -0.056831323
-0.030782117 0.09109884 0.0067629255 -0.060149945 -0.08036696 0.027689818 -0.0049901837 0.0023308431
0.08660817 0.03441807 -0.0034686124 0.027338602 -0.119680315 0.027629571 0.008717971 0.066744134
0.013907254 0.1091637 -0.042191215 -0.060491167 0.04069253 0.056469038 0.08888448 -0.090309374
0.0024043277 -0.01394329 0.062415075 -0.04024049 -0.009335022 -0.014817522 0.019307854 -0.08803994
0.05883499 0.05765683 0.13562913 0.09124652 0.115548715 0.08492557 -0.03536029 0.014456838
-0.018547537 0.06458445 -0.017741427 -0.041884936 -0.021435374 -0.0073428266 0.010431026 0.024101868
0.08103415 0.04742831 -0.05587033 0.023215365 0.013443518 -0.05902802 -0.029713864 0.08651359
-0.036536254 -0.015874129 -0.06845329 0.065290265 0.004584222 -0.054990385 -0.021186573 -0.0021631767
-0.06433526 0.032272756 0.09304742 0.09329701 0.09836187 0.036660846 0.11224282 0.06764402
0.019539198 0.08266041 -0.0010455381 0.021589514 0.05285306 0.03180976 0.086709745 -0.11300298
-0.056240205 0.04193307 0.13024858 -0.022605939 0.10130115 0.023667304 0.16319361 -0.026945591
0.12591301 -0.022433372 0.009222966 0.051654458 -0.08845524 -0.03317009 -0.022050707 -0.009433861
0.056236148 0.10595105 0.09045574 0.12759875 0.1636686 0.120338775 0.10515646 0.14789808
0.18501057 0.16390097 -0.022779524 0.13525796 -0.07139986 0.0015516815 0.0154672945 0.02173567
0.107536376 -0.011487238 -0.016445814 0.11431146 0.04287566 0.16966437 -0.0060599665 0.08052652
0.1601792 0.078385 0.15506268 0.016491236 0.044881627 -0.052746337 -0.04560575 -0.01828734
0.012196639 0.096799135 -0.05594595 0.05504696 -0.015665205 0.039535854 0.11731006 0.19158484
0.17473486 0.13695212 0.07725347 0.15834436 0.07945694 0.011048843 0.032127745 0.07730002
0.10823084 -0.02101919 0.022844758 -0.03611565 -0.0094451895 0.018077265 0.0061028437 -0.021801466
0.10455511 -0.010161483 0.15959378 0.0071482165 0.07903906 0.006956098 -0.015770646 0.08566117
0.07955877 0.07032617 0.03484942 0.04017149 0.10544187 0.022876278 0.09145983 0.13236673
-0.020384846 0.1770542 0.17337643 -0.0295553 0.07098865 0.10854986 0.10685037 -0.06298492
-0.018910961 -0.09543686 0.09130546 -0.037714615 -0.026127813 -0.049788143 0.12170744 0.07943386
0.025384098 -0.042172935 0.009812069 0.13613616 0.0074995575 0.10375474 0.07532962 0.026160501
-0.034447633 0.004786007 -0.004525302 -0.022309707 0.01907433 0.036741093 0.03314306 -0.012592276
-0.026257798 -0.061141778 0.049609732 0.054110855 0.14300694 0.050288804 0.108191215 0.053670794

Predict/layer_conv1/Conv2D f4 [4, 3, 3, 1]
00000000: 37cb 633e 0d17 0d3d 5bf4 a9be eb05 4d3e
00000010: 8334 ce3c 97c9 4e3e a71f 8fbd 9eaa 803e
00000020: f37f 273e b939 4ebd 72d5 7abc 9a26 ba3c
00000030: 90fe ebbd 1a64 9fbe 4ac3 cd3d 5f1e 6b3d
00000040: fcfa 8e3e 15ad 99be e7af 4d3e 7530 a3be
00000050: 914f d3bd 3578 0bbe 8385 253e 7a33 993e
00000060: f2ec b5be 4671 4abd 4c87 98bc d93b a63e
00000070: 6b4b c5bd 414b 413e 11a3 8a3e 68d2 b8be
00000080: 69e0 94be abef 92be f0b2 a0be fdc5 973e
0.22245489 0.03444581 -0.3319424 0.20021789 0.025171524 0.20194088 -0.06988459 0.2513017
0.16357403 -0.050348017 -0.015309678 0.022723485 -0.11523163 -0.3113106 0.10047014 0.05740201
0.2792586 -0.30014864 0.20086633 -0.31872907 -0.103179105 -0.13620074 0.16164212 0.29922086
-0.35532337 -0.049424432 -0.018619202 0.32467535 -0.096335255 0.18876363 0.27077535 -0.36098027
-0.2907746 -0.28698477 -0.31386518 0.2964324

Predict/layer_conv2/Conv2D f4 [8, 3, 3, 4]
00000000: 762c 153d 6ba7 ef3b 2be7 653e d3bd 6dbb
00000010: 7c72 7e3e c0cd 1c3e 7e6a a13c 8d42 653e
00000020: a75a 083e 8dca 5d3e 2af3 7e3e 1fc6 4e3d
00000030: adaf 49be 42d6 b2bc 212e 4abe bd06 0a3e
00000040: 1d56 51be 5d8f 623e 44bb f43d 75f7 e6bd
00000050: e797 0a3e 436f 47be e0ef 563b 6ab9 f8bd
00000060: 7df6 52be a9a0 12bc 1023 873d 99a6 3638
00000070: cbbd 71bd e657 eebd bbb0 2b3d fa7f 833e
00000080: 3777 543e 88d1 973d 8f1e f53d 2788 51be
00000090: a6ff 4dbd 63e2 afbd 420a 2a3e 9024 5cbd
000000a0: 903a 863d 415c 42be 1bf8 b1bd c864 003e
000000b0: e40f 8f3d 4696 12be 4238 babc c7b1 5e3e
000000c0: 63b8 90bd 7634 0cbe 56a8 4fbd 3258 6cbe
000000d0: 8f71 81bb af36 603d 7d39 b9bd 6a22 9abd
000000e0: 921a 743b 3da1 553e c9e3 8ebd 1629 3cbb
000000f0: 1a64 0abe fe02 73bd cb12 1f3c ded9 633e
00000100: 77b7 e53d b00b 213e 7900 99bd c4b6 073e
00000110: 5c0b 0f3e a358 7d3e 2ac4 4c3d 0f94 d3bd
00000120: 41e7 c43b 7dbb 163e 202c 3e3e 4cc0 473e
00000130: 4a96 2c3d 5b52 423e b39d dc3b 1197 9a3e
00000140: cfb0 803e 7f4f 0cbc 6950 db3c db4f db3d
00000150: 8642 14be 51e3 133e 2db4 75bd 7073 74bc
00000160: 0339 68bc 2117 1b3e fea3 ed3d 935b 2a3e
00000170: af04 643e b9fd c13c 962c dabd ddf5 adbd
00000180: ff33 f83d b296 0cbd 4c6b 3b3e b539 193e
00000190: 1801 583e a711 b03d 639b b83d feb8 203e
000001a0: 8f96 f0bd e7bc 35be c1e2 e53d b0de 6e3e
000001b0: e7f6 273e 374a 9e3d 1337 3bbe 95aa fe3d
000001c0: a7c7 903d 9593 5fbe 13ef b3bd df5c 3bbe
000001d0: d0ce 743e 4b15 4cbc 7de2 283e 52cd 443d
000001e0: 54bc 1b3e 9387 4dbc b093 e83d df21 a03d
000001f0: 167f 09be 8ea3 26be ef73 14bd b470 1fbd
00000200: 5f8e 44be 9051 5c3e c60a 72be 17a0 e43c
00000210: 187a 8e3d c1b6 02be 6955 f0bc 1279 f7bd
00000220: b629 453c 73ba 853e a128 c4bd 54f1 acbc
00000230: b455 af3c 2bae 3ebc 61f9 21be 343b 7b3d
00000240: cd87 2ebe fe04 953b 2aa7 0cbe fb07 983c
00000250: 1d2a babd 5c6c 0d3e c831 703e 4f91 53be
00000260: 8642 4cbd e650 70be 9143 573e 5e98 11be
00000270: a209 803e f47f d5bd e2c9 263d 6ec0 e13d
00000280: 9a7d 693d 4fb7 59be e48e 843e f5bb 253e
00000290: e691 8e3c a740 30be d5a9 84be a559 313e
000002a0: 07fb e2bd 733b bd3d e3bc 873e fcb4 dc3d
000002b0: 75ca ddbd 09cf 8ebd 6038 a33d f9a2 603e
000002c0: ec11 243d cd40 81be 3117 e0bd 212e bebd
000002d0: 8a31 5d3e b1e6 28be ff99 523e 48f4 2bbe
000002e0: 982d 7b3e 1ed2 a3bc a30e e83d e6b0 663d
000002f0: a527 a6bd a126 e73d 5773 78be 8d98 2b3e
00000300: 064e 3ebe 9040 9d3c 9d05 193e 9dc2 963d
00000310: 0d50 1fbe 13ac 3bbe a4a3 8f3d 5f17 98bc
00000320: 7e77 51be f82d d3bc 5e33 173e a406 c43d
00000330: ff02 7fbd 8e15 283e 3b1f b2bb 5c96 833e
00000340: 98fd 43bd 28c6 50be 4c5f 283d 8a8e 8dbd
00000350: 3083 1c3e e0b4 3a3e 3e76 43be 87ce 553e
00000360: f0c2 56bd 69e4 5e3c 024c e23c 277e 193e
00000370: f4b8 e53d 70c6 86bc 0c23 e53c a893 6bbc
00000380: 117c 8abd d4de a3bd 4f35 30be 4e77 28be
00000390: 9824 32bd 9129 cdbd 8b6d 10be a952 f6bd
000003a0: 8d0c 343e 8253 1ebd 4f18 013d a8b3 8dbd
000003b0: d172 34bd 6a39 873e b527 4f3e 8c80 31be
000003c0: d17c ea3d 5c66 be3d 7809 093e 23fd 28bd
000003d0: 9a70 963d c1b2 cb3c 81b9 173e ef7b 8f3d
000003e0: 0a43 7b3e 1127 58bd ab35 06be d05c d8bd
000003f0: b792 b83d 68c6 203e 6850 303d ef4e 553e
0.036419354 0.007313659 0.22451465 -0.0036276474 0.2484836 0.15312862 0.0197041 0.22388668
0.13315831 0.21659298 0.24897447 0.05048191 -0.19695921 -0.021830682 -0.1974416 0.13479133
-0.20443006 0.22125001 0.119497806 -0.112776674 0.13534509 -0.19476037 0.0032796785 -0.1214474
-0.2060184 -0.008949437 0.065984845 4.3547338e-05 -0.05901889 -0.11637859 0.04191659 0.25683576
0.20748602 0.07413012 0.11968719 -0.20462094 -0.050292633 -0.08588102 0.16605476 -0.053745806
0.06554139 -0.18980505 -0.086899005 0.12538445 0.06985453 -0.14315137 -0.022731904 0.21747504
-0.07066419 -0.13691887 -0.050697647 -0.23080519 -0.003950305 0.05473965 -0.09044168 -0.07526095
0.0037247282 0.20862289 -0.0697704 -0.0028711013 -0.13514748 -0.059329025 0.00970907 0.22251078
0.11216634 0.15727115 -0.07470793 0.13253313 0.13969177 0.24740843 0.049991764 -0.10330974
0.006009013 0.14719959 0.1857152 0.19506949 0.042135514 0.18976729 0.0067326664 0.3019338
0.25134894 -0.008563875 0.026771741 0.107085906 -0.14478502 0.14442183 -0.059986282 -0.014920101
-0.014173749 0.15145542 0.11603545 0.16636495 0.22267412 0.023680555 -0.10653035 -0.0849416
0.121192925 -0.0343234 0.1830265 0.1496342 0.21094167 0.08597117 0.09014013 0.15695569
-0.11747467 -0.17747842 0.112248905 0.23327136 0.1640278 0.07728999 -0.18282728 0.1243488
0.07069331 -0.21833642 -0.08785834 -0.18297146 0.23907018 -0.0124562485 0.16492648 0.04804737
0.1520856 -0.01254453 0.11356294 0.078189604 -0.13427386 -0.16273329 -0.036243375 -0.03892584
-0.19194935 0.21515489 -0.23636922 0.027908368 0.06956881 -0.12765028 -0.029337602 -0.12083639
0.01203387 0.26118812 -0.09578062 -0.021111168 0.021403171 -0.011638205 -0.15817787 0.061335757
-0.17043991 0.0045477143 -0.13735643 0.018558493 -0.09090064 0.13810867 0.2345649 -0.206609
-0.04986813 -0.2346836 0.21021868 -0.1421828 0.2500735 -0.10424796 0.040719874 0.11023031
0.05700455 -0.21261333 0.25890267 0.16184981 0.017403554 -0.17212163 -0.25910822 0.17319353
-0.11083036 0.09239855 0.26511297 0.107767075 -0.10829631 -0.069730826 0.07969737 0.21937169
0.040056154 -0.25244752 -0.109419234 -0.09286142 0.21600929 -0.16494252 0.20566557 -0.16792405
0.24529111 -0.019997653 0.11330917 0.056321047 -0.0811303 0.11286665 -0.24262749 0.16757412
-0.18584451 0.019195825 0.14943548 0.07361338 -0.1555788 -0.1832736 0.07013634 -0.018565832
-0.20455739 -0.025778756 0.14765689 0.09571579 -0.062258717 0.16414472 -0.005435852 0.25700653
-0.047849268 -0.2038809 0.041106507 -0.06911953 0.15284419 0.18233061 -0.19088075 0.20879565
-0.052432 0.013604262 0.027624134 0.1498953 0.11216918 -0.016452044 0.027970813 -0.014378466
-0.06761945 -0.080014855 -0.17207836 -0.16451761 -0.04349193 -0.10017694 -0.14104287 -0.12027485
0.17582913 -0.038653858 0.031517323 -0.06919032 -0.04405481 0.2641099 0.20229991 -0.17334193
0.11449588 0.09296867 0.13382518 -0.041257035 0.07345696 0.02486551 0.14816858 0.0700606
0.24537292 -0.05277163 -0.1310641 -0.105645776 0.09012359 0.15700686 0.04304543 0.20830892

Predict/layer_conv3/Conv2D i1 [16, 3, 3, 8] scale=0.0025654063 zero_point=0
00000000: 2d48 f9d0 de6d 3bb8 ceca 1bd9 f31e 11b1
00000010: 81c2 dc31 54d7 3bfc df39 3d2a 0954 401e
00000020: 0517 e21e fc2d d91c b707 f0c3 f743 262f
00000030: 1f0f f9d7 e364 3127 c5fb 103f 2312 4054
00000040: f4b2 2c30 d53b 094b 9fbb 2530 ecd4 fa23
00000050: e322 eef2 30bf d90b 27f2 1238 3606 c719
00000060: 04d0 ec22 fed9 2ee4 a3e4 34d0 221b 2d03
00000070: 3a2a 27d5 ea15 ed19 e30e fd1c d7df 44e6
00000080: 02e8 d4d1 2a27 1aec f803 260c b2fc bffa
00000090: 272c 2ce3 1aef e514 c0e7 12e7 183e 10b8
000000a0: f0fc 1010 4712 ee08 5612 c9c0 f831 4032
000000b0: 3e4f 050e 1ce7 38ef f0af d219 48df 2c29
000000c0: 52e0 fc0a d4e4 0f3a 652e 3210 2904 0a66
000000d0: 3117 d409 1543 0b29 c10a 22c5 4029 d40d
000000e0: 1ad9 fe1b 1c17 d7e9 ec18 eefd 3327 d1b6
000000f0: f2fe 2420 1305 e811 08fb d920 d3ff f5b9
0.11544328 0.18470925 -0.017957844 -0.1231395 -0.08722381 0.2796293 0.15135896 -0.18470925
-0.12827031 -0.13853194 0.06926597 -0.100050844 -0.03335028 0.07696219 0.043611906 -0.20266709
-0.3258066 -0.15905519 -0.092354625 0.12570491 0.21549413 -0.10518166 0.15135896 -0.010261625
-0.08465841 0.14622816 0.15648979 0.10774706 0.023088656 0.21549413 0.164186 0.07696219
0.012827031 0.059004344 -0.07696219 0.07696219 -0.010261625 0.11544328 -0.100050844 0.071831375
-0.18727466 0.017957844 -0.0410465 -0.15648979 -0.023088656 0.17188221 0.09748544 0.120574094
0.079527594 0.038481094 -0.017957844 -0.10518166 -0.07439678 0.25654063 0.12570491 0.100050844
-0.15135896 -0.012827031 0.0410465 0.16162059 0.08978922 0.046177313 0.164186 0.21549413
-0.030784875 -0.20010169 0.112877876 0.1231395 -0.11031247 0.15135896 0.023088656 0.19240546
-0.24884441 -0.17701304 0.09492003 0.1231395 -0.051308125 -0.112877876 -0.015392438 0.08978922
-0.07439678 0.08722381 -0.046177313 -0.035915688 0.1231395 -0.16675141 -0.100050844 0.028219469
0.100050844 -0.035915688 0.046177313 0.14366275 0.13853194 0.015392438 -0.14622816 0.06413516
0.010261625 -0.1231395 -0.051308125 0.08722381 -0.0051308125 -0.100050844 0.11800869 -0.071831375
-0.23858279 -0.071831375 0.13340113 -0.1231395 0.08722381 0.06926597 0.11544328 0.007696219
0.14879356 0.10774706 0.100050844 -0.11031247 -0.056438938 0.05387353 -0.04874272 0.06413516
-0.07439678 0.035915688 -0.007696219 0.071831375 -0.10518166 -0.08465841 0.17444763 -0.06670056
0.0051308125 -0.06156975 -0.112877876 -0.120574094 0.10774706 0.100050844 0.06670056 -0.051308125
-0.02052325 0.007696219 0.09748544 0.030784875 -0.20010169 -0.010261625 -0.16675141 -0.015392438
0.100050844 0.112877876 0.112877876 -0.07439678 0.06670056 -0.043611906 -0.06926597 0.051308125
-0.164186 -0.06413516 0.046177313 -0.06413516 0.06156975 0.15905519 0.0410465 -0.18470925
-0.0410465 -0.010261625 0.0410465 0.0410465 0.18214384 0.046177313 -0.046177313 0.02052325
0.22062494 0.046177313 -0.14109734 -0.164186 -0.02052325 0.12570491 0.164186 0.12827031
0.15905519 0.20266709 0.012827031 0.035915688 0.071831375 -0.06413516 0.14366275 -0.043611906
-0.0410465 -0.20779791 -0.11800869 0.06413516 0.18470925 -0.08465841 0.112877876 0.10518166
0.21036331 -0.082093 -0.010261625 0.025654063 -0.112877876 -0.071831375 0.038481094 0.14879356
0.25910604 0.11800869 0.12827031 0.0410465 0.10518166 0.010261625 0.025654063 0.26167142
0.12570491 0.059004344 -0.112877876 0.023088656 0.05387353 0.17188221 0.028219469 0.10518166
-0.16162059 0.025654063 0.08722381 -0.15135896 0.164186 0.10518166 -0.112877876 0.03335028
0.06670056 -0.100050844 -0.0051308125 0.06926597 0.071831375 0.059004344 -0.10518166 -0.059004344
-0.051308125 0.06156975 -0.046177313 -0.007696219 0.13083571 0.100050844 -0.120574094 -0.18984006
-0.035915688 -0.0051308125 0.092354625 0.082093 0.04874272 0.012827031 -0.06156975 0.043611906
0.02052325 -0.012827031 -0.100050844 0.082093 -0.11544328 -0.0025654063 -0.028219469 -0.18214384

Predict/layer_conv4/Conv2D i1 [32, 3, 3, 16] scale=0.0018951966 zero_point=0
00000000: c1f9 c915 182f 4227 240f 22ee e9bf e6fe
00000010: c9f0 fa1a 38eb e4f2 d6d8 ca25 4225 fc08
00000020: 3bed 3be1 0e3a b517 2bfb 1bd3 d7e1 392a
00000030: 2cc8 2503 b912 04d2 a815 4f0b f5b3 1c1e
00000040: ced5 34f1 1bf9 fccc cfd8 dd33 210f 4304
00000050: 16ba 2316 2cf0 fdb0 c9ce f2de dc13 4ff6
00000060: de28 11f6 1831 f71a b63c 1908 fff4 bfe7
00000070: 2fe5 3f03 15db 1b21 e1e0 18c1 02c3 d643
00000080: ebff feaa 2517 bec3 c219 401c 0913 da33
00000090: 3cd3 043a e2c6 02d8 f5d7 3226 0a13 ff0f
000000a0: 2e01 310d 30ea e90b 1823 1f30 db31 10c2
000000b0: efef c4f5 e20e 3933 33e3 3ed4 1f2f 0131
000000c0: cb14 18de ccfe df33 3ffa 470d 3dc9 f9fc
000000d0: e401 fefa fd14 3720 eeff f61d d818 31d0
000000e0: d7ee d9d8 edf9 e9ce feeb ef04 2f37 c6bf
000000f0: 1fcb 0dee 27da 3d12 36f2 110a fdd9 3ae7
-0.11939739 -0.013266376 -0.10423581 0.039799128 0.045484718 0.08907424 0.12508297 0.073912665
0.068227075 0.02842795 0.06443668 -0.034113538 -0.04358952 -0.12318778 -0.04927511 -0.0037903932
-0.10423581 -0.030323146 -0.0113711795 0.04927511 0.10613101 -0.039799128 -0.053065505 -0.026532752
-0.079598255 -0.07580786 -0.10234062 0.07012227 0.12508297 0.07012227 -0.0075807865 0.015161573
0.1118166 -0.036008734 0.1118166 -0.058751095 0.026532752 0.1099214 -0.14213975 0.04358952
0.08149345 -0.009475983 0.05117031 -0.085283846 -0.07770306 -0.058751095 0.10802621 0.079598255
0.08338865 -0.10613101 0.07012227 0.0056855897 -0.13455896 0.034113538 0.0075807865 -0.08717904
-0.1667773 0.039799128 0.14972053 0.020847162 -0.020847162 -0.14593014 0.053065505 0.0568559
-0.09475983 -0.08149345 0.09855022 -0.02842795 0.05117031 -0.013266376 -0.0075807865 -0.09855022
-0.09286463 -0.07580786 -0.06633188 0.096655026 0.062541485 0.02842795 0.12697817 0.0075807865
0.041694324 -0.13266376 0.06633188 0.041694324 0.08338865 -0.030323146 -0.0056855897 -0.15161572
-0.10423581 -0.09475983 -0.026532752 -0.06443668 -0.068227075 0.036008734 0.14972053 -0.018951965
-0.06443668 0.07580786 0.03221834 -0.018951965 0.045484718 0.09286463 -0.017056769 0.04927511
-0.14024454 0.1137118 0.047379915 0.015161573 -0.0018951966 -0.022742359 -0.12318778 -0.047379915
0.08907424 -0.05117031 0.11939739 0.0056855897 0.039799128 -0.07012227 0.05117031 0.062541485
-0.058751095 -0.06064629 0.045484718 -0.11939739 0.0037903932 -0.11560699 -0.079598255 0.12697817
-0.039799128 -0.0018951966 -0.0037903932 -0.1629869 0.07012227 0.04358952 -0.12508297 -0.11560699
-0.11750219 0.047379915 0.12129258 0.053065505 0.017056769 0.036008734 -0.07201747 0.096655026
0.1137118 -0.085283846 0.0075807865 0.1099214 -0.0568559 -0.1099214 0.0037903932 -0.07580786
-0.020847162 -0.07770306 0.09475983 0.07201747 0.018951965 0.036008734 -0.0018951966 0.02842795
0.08717904 0.0018951966 0.09286463 0.024637556 0.090969436 -0.041694324 -0.04358952 0.020847162
0.045484718 0.06633188 0.058751095 0.090969436 -0.07012227 0.09286463 0.030323146 -0.11750219
-0.03221834 -0.03221834 -0.1137118 -0.020847162 -0.0568559 0.026532752 0.10802621 0.096655026
0.096655026 -0.0549607 0.11750219 -0.08338865 0.058751095 0.08907424 0.0018951966 0.09286463
-0.10044542 0.03790393 0.045484718 -0.06443668 -0.09855022 -0.0037903932 -0.062541485 0.096655026
0.11939739 -0.0113711795 0.13455896 0.024637556 0.11560699 -0.10423581 -0.013266376 -0.0075807865
-0.053065505 0.0018951966 -0.0037903932 -0.0113711795 -0.0056855897 0.03790393 0.10423581 0.06064629
-0.034113538 -0.0018951966 -0.018951965 0.0549607 -0.07580786 0.045484718 0.09286463 -0.090969436
-0.07770306 -0.034113538 -0.073912665 -0.07580786 -0.036008734 -0.013266376 -0.04358952 -0.09475983
-0.0037903932 -0.039799128 -0.03221834 0.0075807865 0.08907424 0.10423581 -0.1099214 -0.12318778
0.058751095 -0.10044542 0.024637556 -0.034113538 0.073912665 -0.07201747 0.11560699 0.034113538
0.10234062 -0.026532752 0.03221834 0.018951965 -0.0056855897 -0.073912665 0.1099214 -0.047379915

Predict/layer_conv5/Conv2D i1 [64, 3, 3, 32] scale=0.0018640977 zero_point=0
00000000: 0430 e6d9 04fd 0a35 edd8 f7ff f115 1c0b
00000010: 20eb 02e3 0c01 02da e927 2b14 01f8 3af9
00000020: 2325 dbce 2c2c d7e1 1d09 2bfd 24da 45d1
00000030: 33eb 0ff0 fb42 3afc f437 2402 17f0 0114
00000040: df3e 1b39 e912 0bc7 1607 2223 d907 0d0f
00000050: 0de2 00f2 2528 d928 b7d5 c600 11f0 d926
00000060: c9d7 2e01 fefa 131c 2cec f526 221d 10f3
00000070: d1cd 1b0d 22f6 132a 1704 f010 dfe8 f51d
00000080: 03f2 efd7 2146 272a fa20 1e11 15e5 0d1c
00000090: 051c 29dc e134 1106 473a 2000 2bf4 23d6
000000a0: 000e 1418 eaf5 e41d c8f5 f81d 13f8 fbd9
000000b0: 2f09 45f7 1418 ea31 0d15 0bca 2112 180f
000000c0: e6ff ec0b 0120 ee1a fef9 f705 e70c ee18
000000d0: f6d8 f9d1 cf0b f80e 02d3 0211 e9e9 e9fe
000000e0: 19fe d60d 140d f414 08ce 0405 dc16 25f3
000000f0: fc2e e506 ddeb fae7 d60c def2 fee5 0e18
0.0074563907 0.08947669 -0.04846654 -0.07269981 0.0074563907 -0.005592293 0.018640976 0.09879718
-0.035417855 -0.074563906 -0.016776878 -0.0018640977 -0.027961465 0.03914605 0.052194733 0.020505074
0.059651125 -0.03914605 0.0037281953 -0.05405883 0.022369172 0.0018640977 0.0037281953 -0.07083571
-0.042874247 0.07269981 0.0801562 0.037281953 0.0018640977 -0.014912781 0.10811766 -0.013048683
0.065243416 0.06897161 -0.06897161 -0.093204886 0.0820203 0.0820203 -0.076428 -0.057787027
0.05405883 0.016776878 0.0801562 -0.005592293 0.06710751 -0.07083571 0.12862274 -0.08761259
0.095068984 -0.03914605 0.027961465 -0.029825563 -0.009320488 0.12303045 0.10811766 -0.0074563907
-0.022369172 0.10252537 0.06710751 0.0037281953 0.042874247 -0.029825563 0.0018640977 0.037281953
-0.061515223 0.115574054 0.050330635 0.106253564 -0.042874247 0.033553757 0.020505074 -0.106253564
0.04101015 0.013048683 0.06337932 0.065243416 -0.07269981 0.013048683 0.02423327 0.027961465
0.02423327 -0.05592293 0.0 -0.026097367 0.06897161 0.074563906 -0.07269981 0.074563906
-0.13607913 -0.0801562 -0.10811766 0.0 0.03168966 -0.029825563 -0.07269981 0.07083571
-0.10252537 -0.076428 0.08574849 0.0018640977 -0.0037281953 -0.011184586 0.035417855 0.052194733
0.0820203 -0.037281953 -0.020505074 0.07083571 0.06337932 0.05405883 0.029825563 -0.02423327
-0.08761259 -0.095068984 0.050330635 0.02423327 0.06337932 -0.018640976 0.035417855 0.0782921
0.042874247 0.0074563907 -0.029825563 0.029825563 -0.061515223 -0.044738345 -0.020505074 0.05405883
0.005592293 -0.026097367 -0.03168966 -0.076428 0.061515223 0.13048683 0.07269981 0.0782921
-0.011184586 0.059651125 0.05592293 0.03168966 0.03914605 -0.050330635 0.02423327 0.052194733
0.009320488 0.052194733 0.076428 -0.06710751 -0.057787027 0.09693308 0.03168966 0.011184586
0.13235094 0.10811766 0.059651125 0.0 0.0801562 -0.022369172 0.065243416 -0.0782921
0.0 0.026097367 0.037281953 0.044738345 -0.04101015 -0.020505074 -0.052194733 0.05405883
-0.10438947 -0.020505074 -0.014912781 0.05405883 0.035417855 -0.014912781 -0.009320488 -0.07269981
0.08761259 0.016776878 0.12862274 -0.016776878 0.037281953 0.044738345 -0.04101015 0.09134079
0.02423327 0.03914605 0.020505074 -0.10066127 0.061515223 0.033553757 0.044738345 0.027961465
-0.04846654 -0.0018640977 -0.037281953 0.020505074 0.0018640977 0.059651125 -0.033553757 0.04846654
-0.0037281953 -0.013048683 -0.016776878 0.009320488 -0.046602443 0.022369172 -0.033553757 0.044738345
-0.018640976 -0.074563906 -0.013048683 -0.08761259 -0.09134079 0.020505074 -0.014912781 0.026097367
0.0037281953 -0.083884396 0.0037281953 0.03168966 -0.042874247 -0.042874247 -0.042874247 -0.0037281953
0.046602443 -0.0037281953 -0.0782921 0.02423327 0.037281953 0.02423327 -0.022369172 0.037281953
0.014912781 -0.093204886 0.0074563907 0.009320488 -0.06710751 0.04101015 0.06897161 -0.02423327
-0.0074563907 0.08574849 -0.050330635 0.011184586 -0.065243416 -0.03914605 -0.011184586 -0.046602443
-0.0782921 0.022369172 -0.06337932 -0.026097367 -0.0037281953 -0.050330635 0.026097367 0.044738345
