v3/PreConv_Spark_TFLite.tflite (tflite, 82520 bytes, 27 tensors)

Predict/op/BiasAdd/ReadVariableOp/resource f4 [4]
000000 a7 94 3c be 40 cd 72 be 7e b4 bd 3e 2d 82 1d be
       -0.18416081 -0.23711109 0.37051767 -0.1538169

Predict/spark1/expand1x1/BiasAdd/ReadVariableOp/resource f4 [32]
000000 1a 07 cf bb 84 1a 91 3e 5d 12 f6 be 4d 5a 21 3e
       -0.0063179852 0.28340542 -0.48060885 0.15757103
000010 27 07 05 3e ee 89 41 3d c2 54 4f 3e 1e 20 2f bd
       0.1299101 0.04725068 0.20247176 -0.04275524
000020 94 68 3a bf 24 c9 cd bb 10 ec 1b bf 79 1b 31 bd
       -0.72815824 -0.0062800813 -0.6090708 -0.04323909
000030 52 e7 1a bf 06 12 90 be 24 72 1d be 4c b0 83 3e
       -0.60509217 -0.2813875 -0.15375572 0.2572044
000040 b8 b2 4f ba 37 d6 90 be db 04 20 bf 46 f5 a5 3d
       -0.00079230545 -0.28288433 -0.6250741 0.08103423
000050 3c 06 f3 3d e1 72 57 3e 00 00 00 00 49 0e cf bb
       0.118664235 0.21039917 0.0 -0.0063188416
000060 a8 f6 9d 3e b7 13 f8 be db f3 f8 bc 23 3c 9e 3e
       0.30852246 -0.4845254 -0.030389717 0.30905256
000070 99 43 3e 3e e2 8b cc be de 51 b6 bb 52 be 11 bd
       0.18580474 -0.39950472 -0.0055639585 -0.035581894

Predict/spark1/expand3x3/BiasAdd/ReadVariableOp/resource f4 [32]
000000 93 17 92 be e1 6c f0 bc 96 3b 04 bf e9 da ed be
       -0.2853361 -0.029348793 -0.5165342 -0.46456078
000010 99 56 9c be 6f e2 ad bd 22 6b a8 3d c0 83 35 be
       -0.3053482 -0.084904544 0.08223559 -0.1772604
000020 38 e5 43 be 7c 70 8b 3e 69 fb ee bc 1d 43 85 be
       -0.19130409 0.27234256 -0.029172616 -0.26027766
000030 99 a2 6d 3d 05 0b 2e 3d 78 6b e9 be 68 fe 8a 3d
       0.058016393 0.042490978 -0.45589805 0.067868054
000040 b7 88 b9 be 6a af ce bd 53 72 0b bf 3d 14 3c 3e
       -0.36237118 -0.10092051 -0.5447132 0.18367095
000050 18 90 56 be a9 3e 8d 3e ce f2 9b be ea 1d a4 be
       -0.20953405 0.27586868 -0.30458683 -0.32054073
000060 c2 13 4d be b2 c9 dd 3d 2c bd 1e be 4d 24 dc 3b
       -0.20027068 0.10829486 -0.15501851 0.0067181946
000070 8a af 64 3d a5 d3 e1 be 0d ee fc bc eb 9b cc 3c
       0.05583147 -0.44106784 -0.03087523 0.024976691

Predict/spark1/squeeze1x1/BiasAdd/ReadVariableOp/resource f4 [8]
000000 00 00 00 00 00 00 00 00 00 00 00 00 12 11 a6 be
       0.0 0.0 0.0 -0.324349
000010 8a 9a 1a bf db a7 2c bf 00 00 00 00 d9 a9 21 bf
       -0.6039206 -0.6744363 0.0 -0.6314979

Predict/spark2/expand1x1/BiasAdd/ReadVariableOp/resource f4 [64]
000000 79 52 44 3d d1 e8 88 be 25 e1 97 bd fb ba 90 3e
       0.047930215 -0.26740125 -0.0741599 0.28267655
000010 68 97 25 3e 5c b5 bc 3d a4 8b 8d be 34 66 c3 bd
       0.16171038 0.09214279 -0.276456 -0.09540978
000020 d2 5f 53 bd d8 b3 02 bd c9 00 8a 3d 08 9d fc bd
       -0.051605053 -0.031909794 0.06738431 -0.12334639
000030 b0 22 8e 3d ec a0 a7 3e d5 91 65 bd 3d f2 40 be
       0.0694021 0.3273996 -0.05604728 -0.18842407
000040 88 b7 46 be 41 50 df bd 99 f6 56 3c 51 8c 50 be
       -0.19405949 -0.10903979 0.013120317 -0.20366026
000050 42 17 ba 3e 17 9d b1 be c0 94 0a bf 49 fd 52 3d
       0.3634587 -0.34690163 -0.54133224 0.051511083
000060 53 5c 27 bf 31 94 e1 bd 8a f3 74 3e e9 94 b7 3e
       -0.6537525 -0.110145934 0.23921028 0.35855797
000070 a5 1e e5 be 74 8a 30 3d 0e 64 67 3e d1 78 04 be
       -0.44749942 0.04310079 0.22596762 -0.12936713
000080 31 10 93 3e 07 1a 80 be 82 02 81 3e bc 0f 8f be
       0.2872329 -0.25019857 0.25197226 -0.27941692
000090 ba 8f 9f 3e c6 7a a1 bb 7e 0d 9e 3d 1e 75 b5 3d
       0.31164342 -0.004927966 0.07717417 0.08860229
0000a0 15 3d ef 3e a7 86 3d bd 00 6f aa be 3d 05 d7 be
       0.4672629 -0.046270993 -0.3328781 -0.41996184
0000b0 e6 ee 57 bd 16 61 ce bd 1f 3a eb 3d a7 2f 1b 3e
       -0.052718066 -0.100771114 0.11485695 0.15154897
0000c0 2a ac 4d be d8 99 e8 be 33 70 63 bd 4f ad 2f be
       -0.20085207 -0.45429873 -0.055526923 -0.17155956
0000d0 2c d6 4a be e8 6e 4a 3e 93 1d 83 3d 95 e8 07 be
       -0.19808263 0.1976887 0.06402125 -0.13272317
0000e0 25 78 90 3b 21 35 0b 3e d9 30 26 3e 99 4b aa be
       0.0044088536 0.13594486 0.16229571 -0.332608
0000f0 be 7c 2b be d2 c6 28 bd 87 60 3e be 4c e7 14 3e
       -0.16746804 -0.041205235 -0.1859151 0.14541358

Predict/spark2/expand3x3/BiasAdd/ReadVariableOp/resource f4 [64]
000000 38 d6 b2 be 85 a1 f0 3b e1 31 1c bf 1d 45 77 be
       -0.3492906 0.0073434734 -0.6101361 -0.24147458
000010 5b 16 62 be 14 45 04 3d 78 b3 6f be eb da 53 be
       -0.2207884 0.03229244 -0.23408306 -0.2068898
000020 5c 81 ce be 6d cd 87 be 60 db 92 3d f9 4a a0 3c
       -0.40333068 -0.26523915 0.07170749 0.019567
000030 a6 24 7e bc 59 9d 56 be 97 a1 5e 3e 1d 83 9c be
       -0.015511667 -0.20958461 0.21741329 -0.30568781
000040 64 f7 a2 be cb 92 9f 3d 67 a4 a7 be 16 be 28 3e
       -0.3182937 0.077916704 -0.32742617 0.16478762
000050 f3 c9 d6 bd 92 89 d8 be 5f 7a 29 be 63 fe c7 bd
       -0.104877375 -0.42292458 -0.16550587 -0.09765317
000060 6f c7 ab be 45 1b 01 be 07 9e 5b be ed b4 34 3c
       -0.33550593 -0.12608059 -0.21447001 0.011029464
000070 3d d6 7b be 7b 48 47 be 0a 44 2a be 13 b9 71 be
       -0.24593444 -0.19461243 -0.16627517 -0.23605756
000080 1b e3 fd be 7a 6a 95 be bf fa 98 be e5 a6 57 be
       -0.4958733 -0.29182798 -0.29878804 -0.21059759
000090 43 4e b9 be 7a 80 b9 be d0 aa 2a be 92 a7 3e be
       -0.3619252 -0.36230832 -0.16666722 -0.1861861
0000a0 f8 6b c9 bc f0 52 65 bd 20 2a 07 bf 1f d7 65 be
       -0.024587616 -0.0559873 -0.5279865 -0.22445343
0000b0 6a 7a 21 be e1 fa 15 be ca 7a 88 be f8 25 ae bd
       -0.15769354 -0.14646484 -0.2665618 -0.08503336
0000c0 55 0a c6 be df 5b 03 bd 85 75 cb be 56 3e 39 be
       -0.38679758 -0.032070037 -0.39738098 -0.18090186
0000d0 4d 24 8d be 3d 2e d1 be 79 ab de be 82 81 ba 3c
       -0.27566758 -0.4085559 -0.43490198 0.022766832
0000e0 f3 95 1c bd 24 05 c5 be f4 31 a7 bc 99 1e 80 3e
       -0.03822894 -0.38480484 -0.020409562 0.25023344
0000f0 f5 c7 2d bd 05 94 6e be 8f 1c 80 be 8e d3 ab be
       -0.042427022 -0.23298652 -0.25021788 -0.3355984

Predict/spark2/squeeze1x1/BiasAdd/ReadVariableOp/resource f4 [16]
000000 70 e3 fb bd 99 25 c5 be 44 e5 6c be 65 5c 2e 3d
       -0.1229924 -0.38505247 -0.23134333 0.042568583
000010 9e 02 87 be 7a 19 8f 3d b7 64 f7 bd 43 2f f7 bb
       -0.26369184 0.06987281 -0.12079757 -0.007543476
000020 c1 4e 0d bf 6d 83 3d be 30 8b 2b bd d8 e4 d5 be
       -0.55198294 -0.18507166 -0.041880786 -0.41776156
000030 14 38 b5 3e 3f 91 07 3e 27 a4 81 3d 89 58 dd bc
       0.35394347 0.13239 0.06330138 -0.027019756

Predict/spark3/expand1x1/BiasAdd/ReadVariableOp/resource f4 [128]
000000 4b 1a 6b 3d a7 14 65 3d 28 fc 9f be 76 5e 99 bd
       0.05739812 0.0559279 -0.31247067 -0.0748872
000010 4d c7 58 3e bd 04 a9 be 02 c1 93 be 20 f3 04 bf
       0.21169777 -0.33011428 -0.2885819 -0.5193348
000020 58 ca 50 be 1e 5d e5 be 85 a2 f0 bd 6a 55 27 bd
       -0.20389688 -0.44797605 -0.11749748 -0.04085294
000030 81 23 6d 3d e0 ab 62 bd 0d 62 33 bf 4a 26 ca 3d
       0.057895187 -0.055339694 -0.7007149 0.09870584
000040 c5 92 bd be d1 21 b5 be 4a b6 29 be f8 e8 a3 bc
       -0.3702604 -0.35377362 -0.16573444 -0.02000855
000050 37 d8 06 3d da b6 b3 be a4 76 a7 be f7 a0 98 3c
       0.032921042 -0.35100442 -0.32707703 0.018631442
000060 ea 37 de bd 75 f6 90 be 24 c6 92 be 11 80 ec bd
       -0.108505085 -0.28313032 -0.28666794 -0.11547864
000070 f5 4f c1 be 0b ec a3 be 78 78 26 3e 15 f5 4b be
       -0.37756315 -0.32016024 0.16256893 -0.1991771
000080 82 c5 16 3e 79 3b 06 bf 96 4a b1 bd 39 c5 39 be
       0.14723781 -0.524345 -0.08656804 -0.1814164
000090 da a4 4e be e1 d1 76 be 49 77 73 3c cb 9b f7 bd
       -0.20180073 -0.241035 0.014859983 -0.12090262
0000a0 89 a6 a3 be 0a 46 8b be a3 ed a3 bd a2 74 e9 be
       -0.31962994 -0.27201873 -0.0800431 -0.45596796
0000b0 09 5c 1d bc 59 82 37 be dd 0b 13 be 1a 4f 24 3e
       -0.009604462 -0.17920817 -0.14359994 0.160458
0000c0 7c 9e b7 3c 58 5a 4e be 17 43 31 be 7a 47 5d 3e
       0.022414438 -0.20151651 -0.17310749 0.21609297
0000d0 6d 97 a0 be 00 0e 14 be 37 15 4b be 31 0e 05 be
       -0.3136553 -0.14458466 -0.19832312 -0.12993695
0000e0 a2 84 20 be ee ce 17 be 6b 8e 08 bf 13 4d 23 3e
       -0.15675595 -0.14825031 -0.5334231 0.1594737
0000f0 91 a8 89 be d8 50 27 be d6 f9 1f bf ee 3e 9a 3c
       -0.26886418 -0.16339433 -0.62490594 0.018828835
000100 78 3a 67 3c 32 4a c9 be 93 80 44 3e 75 ad 4b 3e
       0.014113061 -0.3931442 0.19189672 0.19890387
000110 fe 9f 80 3d 9e 23 46 be 80 70 33 bd 2a 96 0f bc
       0.06280516 -0.19349524 -0.04380846 -0.008763829
000120 1a a7 36 bd 68 3c c9 be 71 4e 13 3e df 29 b3 be
       -0.044592954 -0.393039 0.14385392 -0.34992883
000130 6a 0f ba be c4 c3 ac be a5 43 04 3e 04 29 3b 3d
       -0.36339885 -0.33743107 0.1291643 0.045693412
000140 42 26 bb 3d 81 4b 23 3e 00 eb 00 bd d3 39 9e be
       0.091381565 0.15946771 -0.031474113 -0.3090349
000150 07 c2 97 3b fe 71 ef be 11 f7 ad bd 99 41 46 bd
       0.004631284 -0.46766657 -0.0849439 -0.048402403
000160 bb 55 ab 3d 1c dd bb bd 54 8e 37 3e 61 08 b4 be
       0.08365961 -0.09173033 0.17925388 -0.35162643
000170 68 fd 1c be 41 4e ae bd da f1 59 be 0f 47 44 be
       -0.15331042 -0.085110195 -0.21283665 -0.19167732
000180 45 3d a4 be e8 8a 7c bd 4e 70 5f 3d 33 74 95 be
       -0.32077995 -0.06165591 0.05455046 -0.29190215
000190 e8 ca 11 bf b1 45 46 be c0 23 a6 be c6 7b 76 3d
       -0.56950235 -0.19362523 -0.3244915 0.060176633
0001a0 69 96 90 be d9 14 4c be ff 0f ca 3d 82 b8 05 be
       -0.28239754 -0.19929828 0.09866332 -0.13058665
0001b0 87 40 01 bf 7e 17 03 bf 9e a6 83 be 61 85 be bd
       -0.50489086 -0.5120772 -0.25713056 -0.09302784
0001c0 59 d7 bb be 1b 57 1a be eb 53 6e be 4a 2d 05 bf
       -0.36687735 -0.1507229 -0.232742 -0.5202223
0001d0 02 93 c4 be 5e ec ed 3d 13 e2 05 3e 10 f4 28 bd
       -0.38393408 0.11617349 0.13074522 -0.04124838
0001e0 7b 78 fb bd 00 dc 31 be cb ba 3b 3e ec 26 9c be
       -0.12278839 -0.1736908 0.18332975 -0.30498445
0001f0 b7 12 6a 3e 9b 52 a9 be e0 db 75 3c b5 3d 7c 3d
       0.22858702 -0.33070835 0.015006036 0.061582286

Predict/spark3/expand3x3/BiasAdd/ReadVariableOp/resource f4 [128]
000000 47 f7 0e 3e 06 7c ef bd bf e0 84 be a0 99 c3 3d
       0.13961516 -0.116935775 -0.25952718 0.09550786
000010 1a 61 b7 be bf b9 50 3d 99 53 88 be 8a b6 df bd
       -0.3581627 0.05095839 -0.2662628 -0.109234884
000020 95 7d 48 bd 58 07 db be 9a 1b 3e be e3 b0 19 3e
       -0.04894789 -0.4277904 -0.18565217 0.15008883
000030 fe d9 49 bd c6 4b de be 50 fe cc 3d fe 84 d6 be
       -0.04928016 -0.43417186 0.10009444 -0.4189834
000040 67 b0 97 bc 48 c7 7f be bf 01 f5 bd 24 ec 50 be
       -0.018516732 -0.24978364 -0.11963224 -0.2040258
000050 e5 65 c9 be e6 fe 51 3e 52 2c 64 be 16 c6 45 3e
       -0.39335552 0.20507392 -0.22282532 0.19313845
000060 84 84 b0 bd b3 e5 d1 be 0f 04 8f be ee 8a 13 be
       -0.08619025 -0.4099556 -0.27932784 -0.14408466
000070 f4 91 b1 be a5 98 97 be 5d db 97 be ed 52 52 be
       -0.34681666 -0.29608646 -0.29659548 -0.20539446
000080 f3 fe 4d bd a2 4c 3a 3e 1c 81 3f be b4 97 54 bd
       -0.050291967 0.18193296 -0.18701595 -0.051902488
000090 b2 36 bd be e8 c1 72 be 68 60 01 3e ab b6 ac be
       -0.36955792 -0.23706782 0.12634432 -0.33733115
0000a0 53 cb 66 be 61 08 83 3e 64 b4 1d be e9 0e 60 be
       -0.225385 0.2559233 -0.15400845 -0.21880688
0000b0 27 8b 28 3e 44 f0 3c be 7a 6f 86 be 7c 6b 00 be
       0.16459332 -0.18451029 -0.26256925 -0.12541002
0000c0 30 1b 1b bc 42 3b a2 be c8 8b d6 be 80 ac 94 3d
       -0.009466931 -0.31685835 -0.4190352 0.07259464
0000d0 1b f9 9d be de e9 2f 3e 21 e7 82 be c5 ed fb bd
       -0.30854115 0.17179057 -0.25566962 -0.1230121
0000e0 6d e6 6a 3e a4 9f 8a be d3 3b 90 bd b6 56 76 3d
       0.22939463 -0.2707492 -0.070426606 0.060141288
0000f0 1e 4c 63 be f1 04 15 3e a7 db b7 bd c0 17 fd bd
       -0.22197005 0.14552666 -0.08977442 -0.123580456
000100 bc ad 75 be 68 ca b9 be cd f2 29 3e 2b 66 80 be
       -0.23992056 -0.36287236 0.16596527 -0.25077948
000110 af d4 9d 3c 72 32 4a 3e 9b 4d 38 3e be cd 4f 3e
       0.019266455 0.19745806 0.17998354 0.20293328
000120 e4 c0 12 3e 1e 88 68 be 1c dc 81 be c4 e4 06 3e
       0.14331394 -0.22708175 -0.25363243 0.13173205
000130 29 c0 61 be 30 4b 5b be 09 4c a3 be f0 39 18 bc
       -0.2204596 -0.214154 -0.31893948 -0.009291157
000140 f3 88 8a be 08 f8 b7 be 61 45 3d be 6e 1d 22 3e
       -0.2705761 -0.3593142 -0.18483497 0.15831539
000150 ce 82 2a be 6d 20 57 be 25 77 21 be 63 4d 8b bd
       -0.1665146 -0.21008463 -0.15768106 -0.0680187
000160 24 a1 5f bd d9 c0 55 be b8 39 cc be 2d 74 e5 be
       -0.054597035 -0.20874347 -0.39887786 -0.44815198
000170 0c 5c 97 bd 74 d6 b1 be 3e e7 4a bd 6e 34 18 be
       -0.073906034 -0.34733927 -0.049536936 -0.1486375
000180 83 b0 83 be 2d 5e b2 be 95 54 36 bd 88 2a bc be
       -0.25720605 -0.34837475 -0.044514257 -0.367512
000190 f4 73 81 be 4c 00 10 3d 53 6d aa be 3c 29 23 3e
       -0.25283778 0.035156533 -0.33286533 0.15933698
0001a0 c3 51 b6 be 33 25 2a bd f4 90 19 3d 64 2c ac be
       -0.35609254 -0.041539382 0.037491754 -0.33627617
0001b0 cd 54 df 3d 28 8b a0 bb e6 7e db bd 4f 81 7d be
       0.10904846 -0.004899401 -0.10717563 -0.24756359
0001c0 c0 9f 89 be 7a 98 97 be 5a d4 b5 be 0a 30 6a be
       -0.26879692 -0.29608518 -0.35513574 -0.22869888
0001d0 57 0a 35 3d 32 1d 15 3e 25 f0 1d 3c d4 a9 30 be
       0.044199314 0.14561918 0.009639774 -0.17252284
0001e0 36 0b 91 be bf 2f 57 3c 18 45 81 be c3 d2 4d be
       -0.28328866 0.013133942 -0.25248027 -0.2009993
0001f0 c2 87 94 be fa d7 a4 be 7f be 2c be 13 b4 4d 3e
       -0.29009825 -0.32196027 -0.16869543 0.20088224

Predict/spark3/squeeze1x1/BiasAdd/ReadVariableOp/resource f4 [32]
000000 bb 51 a8 be 1d 44 ab bc db df 78 bb 7b f3 df 3c
       -0.32874855 -0.020906502 -0.0037975225 0.02733778
000010 12 85 a3 be 14 91 77 be 55 f7 9d 3e 45 da c6 bc
       -0.31937462 -0.24176437 0.30852762 -0.024274
000020 e5 90 83 bd 52 38 4e be 2b 6a 4a be ac 8a 1f be
       -0.06424121 -0.20138672 -0.19767062 -0.15580243
000030 ba 10 3e bd ce 07 40 3e 22 69 64 be eb 0b 8c bc
       -0.04640267 0.18752977 -0.2230573 -0.017095527
000040 e2 65 45 be 08 51 36 3e 2c 11 c1 3e 1e ca 79 be
       -0.19277146 0.17804348 0.37708414 -0.24393508
000050 e3 9c 95 be c8 46 df bd 01 6e 8e be 6e 91 de 3c
       -0.29221258 -0.10902172 -0.278183 0.027168956
000060 9d f2 82 be 8d ef de bd cd 4d de 3d 12 f8 b1 bd
       -0.25575724 -0.108855344 0.10854683 -0.08689894
000070 11 8e e8 3d a2 62 4e be d2 cf 71 be ff a9 66 be
       0.11355222 -0.20154813 -0.23614433 -0.22525786

Predict/op/MatMul f4 [4, 256]
000000 6f 6b c6 be 29 3e a8 be 91 4a 16 bf 66 0d bf be
       -0.3875384 -0.32859924 -0.5870753 -0.3731491
000010 48 47 6c be db e9 93 be 8d 78 8d 3d f4 07 17 be
       -0.23074067 -0.28889355 0.06907759 -0.14749128
000020 26 8f e0 bc a1 11 2e 3e a0 b8 e2 bc 0e c5 c6 be
       -0.027412008 0.16998912 -0.027675927 -0.38822216
000030 5c 9c 15 be 8e b0 0c bf 4a 05 fb bd d2 9b f8 3c
       -0.14610428 -0.549569 -0.12256868 0.030347738
000040 66 15 a3 be 63 99 a1 be 6a 29 ad be fb 80 84 be
       -0.31852263 -0.31562337 -0.3382066 -0.25879654
000050 f9 bf 8b bd 2a 4b 29 bf df e7 36 bf f4 81 df be
       -0.06823725 -0.66130316 -0.7144756 -0.43653834
000060 49 5c 6f 3d 5e 9e ac be 78 b6 4e 3d cc 96 a7 be
       0.05843762 -0.33714575 0.050466985 -0.32732236
000070 fb 27 a0 be c1 ae 2e bf c4 97 36 bd bc 7a 46 be
       -0.31280503 -0.68235403 -0.04457833 -0.19382757
000080 77 5c 99 bc 3c 64 96 be b0 11 c6 be c4 d2 d1 3c
       -0.018720848 -0.29373348 -0.3868537 0.025613196
000090 72 61 b8 be 87 fa 19 bf c5 bf d7 be a5 ce e6 be
       -0.36011845 -0.601479 -0.42138496 -0.45079532
0000a0 e9 d8 66 3d 30 b6 06 bf 4d 9c f8 be e1 1d f6 be
       0.056359205 -0.52621746 -0.48556748 -0.4806967
0000b0 e3 d5 ec be dd db df be d2 58 df be 2d 16 ee be
       -0.46256933 -0.4372243 -0.43622452 -0.46501294
0000c0 c0 06 14 3e 31 6a d7 be 05 e6 bc bd be 33 12 be
       0.144557 -0.42073205 -0.0922356 -0.1427755
0000d0 8d 73 8c be d4 18 b2 be 7e 12 21 bf 42 7d fa be
       -0.27431908 -0.34784567 -0.6291884 -0.4892369
0000e0 8a d0 fb bd a8 0d aa 3e 55 de 3a be 83 1f e2 bd
       -0.12295635 0.33213544 -0.18248875 -0.11041167
0000f0 b7 fc a6 be 6b 70 98 bd 39 1d c4 bd 7e 15 91 be
       -0.3261468 -0.07443317 -0.09575886 -0.2833671
000100 6f e0 ae be 51 9b 1b 3c c5 dc e8 bc 6e 14 d9 bc
       -0.34155604 0.00949748 -0.028425584 -0.026499
000110 77 11 a9 be dc 1e 6c be ff 69 60 be 55 5b 1c be
       -0.33021137 -0.23058647 -0.21915434 -0.15269215
000120 4d 26 b8 be 16 4e 08 bd 93 0e 07 bf 9d f6 a5 be
       -0.3596672 -0.033277594 -0.52756613 -0.32414714
000130 9c 0d 3d bf eb 96 a0 3c cb db 5c be 3d ea 29 3e
       -0.7384889 0.019603213 -0.2156822 0.16593261
000140 a1 65 ac be b9 af bf bd 93 93 2e 3e 80 b2 e8 3d
       -0.33671287 -0.09359688 0.17048483 0.11362171
000150 87 92 09 3e d3 13 2a be 13 29 ac 3d 70 a6 87 be
       0.13434802 -0.16609125 0.08406272 -0.2649417
000160 81 e7 de be a1 ac dc be f5 39 17 be ee 3a d2 3e
       -0.43535998 -0.43100455 -0.14768203 0.41060585
000170 89 98 4e bf ac 1e 41 3e 33 78 bc 3e 42 a4 d5 be
       -0.807015 0.18859357 0.36810455 -0.4172688
000180 24 a0 e4 be 4d 74 f3 be 10 1e e9 3d aa 05 7a be
       -0.44653428 -0.47549668 0.11382687 -0.24416223
000190 f7 d6 ce bd a3 a7 ac be 53 8b 93 3c 81 1c fc bd
       -0.10099595 -0.33721647 0.01801077 -0.12310124
0001a0 a3 5a 0b bf 72 bf 05 bf 98 f3 a7 bc 01 b0 d8 be
       -0.54435176 -0.5224525 -0.020501897 -0.4232178
0001b0 f6 93 f7 3d aa 96 17 be 0e cb 73 be 4d e4 e2 3c
       0.12088768 -0.14803568 -0.23807928 0.027696753
0001c0 8e 94 ab 3e 93 4e 21 bf 78 47 c1 be bc 1c b7 bd
       0.33511776 -0.6301052 -0.3774984 -0.089410275
0001d0 32 c7 84 3d a3 7b d6 be 60 ef e1 be 09 02 8b be
       0.06483306 -0.41891202 -0.4412794 -0.2714999
0001e0 51 f1 0f bf 0a 1c 9a 3d 0c 53 1f 3b e2 9d 37 bd
       -0.56227595 0.07524879 0.0024310974 -0.044828303
0001f0 87 56 94 bc 92 50 87 bd 1d 9c 45 3e 08 65 25 3e
       -0.018107666 -0.066071644 0.19297834 0.16151822
000200 e0 c3 a4 3e 58 a8 fa be a2 19 80 3e 5f df 03 bf
       0.3218069 -0.4895656 0.25019556 -0.5151271
000210 f9 a2 9c 3e 7e fc 60 be 17 94 7a be 2b 57 69 3e
       0.30593088 -0.21971318 -0.24470554 0.22787158
000220 f1 ad e6 3e 58 5c 5e bd 3c 18 84 3e a1 0a 4d bf
       0.45054582 -0.054287285 0.2579974 -0.80094343
000230 1b aa 32 bf 6c 5a dc 3d 9b 7e ce 3e e5 7a bf 3e
       -0.6979081 0.10759434 0.40330967 0.3739845
000240 94 2f 0b 3f f0 61 34 3e 19 d3 19 bf c5 99 d4 3c
       0.54369473 0.17615485 -0.60087734 0.02595223
000250 c9 52 21 3e ea 0d b3 3e a2 60 7a be 42 6d b0 3e
       0.15754236 0.34971553 -0.24450925 0.34458357
000260 38 e6 8a bd 79 7c ac be f7 bc 30 be 41 a2 0e be
       -0.06782192 -0.33688715 -0.17259584 -0.13929082
000270 a8 88 0b 3e 3d 83 96 3e 50 99 7a 3e a2 f4 6b 3e
       0.13626349 0.29397002 0.24472547 0.23042539
000280 e0 18 99 be 3b 69 49 3d 54 30 5c 3e 84 66 ce be
       -0.2990179 0.04917262 0.2150281 -0.40312588
000290 5c cc 26 3e 30 47 fd 3e 23 d9 c9 3d 82 7d 88 3e
       0.16288894 0.49468374 0.09855869 0.26658255
0002a0 be 92 0b 3f 51 50 fa bd 80 98 3b be c9 0e 25 3f
       0.54520786 -0.122223504 -0.18319893 0.64475685
0002b0 39 01 e7 3e a4 00 93 be b0 87 23 be ca 50 09 bf
       0.4511812 -0.28711426 -0.1596973 -0.536389
0002c0 0a 60 b3 be c2 e7 d0 3e b4 1a ea 3d 25 0f 88 3e
       -0.3503421 0.40801817 0.114308745 0.26574054
0002d0 1e 9d a8 3e c4 22 66 bc 81 0f 97 3d 9d 7f f2 bd
       0.3293237 -0.014046375 0.07376004 -0.118407466
0002e0 54 36 03 be 89 89 78 3d b0 02 06 bf e0 6b 52 3e
       -0.12813693 0.06067804 -0.5234785 0.20548964
0002f0 50 90 be be d4 4c 84 be 86 0d 03 bf ea 46 e6 be
       -0.37219477 -0.25839865 -0.5119251 -0.44975978
000300 01 7e 6b 3b 1e 9e 76 3e 15 6b 11 bf 2f 4d d1 3e
       0.0035933258 0.24083754 -0.5680402 0.408792
000310 b0 9c e5 be bc 5b a1 be ce 3f 89 3e 64 e3 90 be
       -0.44846106 -0.315153 0.26806492 -0.28298485
000320 f1 ac 8f 3e 4d 36 96 3e 8c 25 ae 3e f1 cc 6c 3e
       0.2806163 0.29338303 0.3401302 0.23125054
000330 4d 9c bd 3e 13 77 0b 3f e2 5f 60 3e 30 0b c7 be
       0.3703331 0.5447857 0.21911576 -0.38875723
000340 74 cb 92 bd 13 b1 ac 3d 98 cb 77 be cc 4b c3 be
       -0.07167712 0.08432212 -0.24198759 -0.38143766
000350 48 c7 6c 3e ee ba af bc 5f f4 89 be 75 ff 03 bf
       0.23122895 -0.02145144 -0.26944253 -0.5156167
000360 33 28 f8 be a5 f1 6b 3e 61 3c 97 bd 66 f8 2e 3e
       -0.4846817 0.23041399 -0.07384563 0.17086944
000370 a8 92 d4 bc d3 5d 56 3d f1 18 a5 bd b0 65 61 be
       -0.025948837 0.05233557 -0.08061398 -0.22011447
000380 da 8f 07 3e 1b be 46 3e 7b ba 91 be 94 0c a2 3d
       0.13238469 0.19408457 -0.28462586 0.07912555
000390 8a 3d c1 3e 7f 63 c4 be 30 cc 57 3e 67 b5 ed be
       0.37742263 -0.3835716 0.21073985 -0.46427462
0003a0 8c 31 6b 3e 13 0d 17 bf 06 4e fb be cf 15 2f 3e
       0.2296812 -0.59004325 -0.49082965 0.17098163
0003b0 1d c9 27 3e 2e 70 f9 be b9 6e 2c 3f c3 27 d6 be
       0.16385312 -0.487184 0.6735645 -0.4182721
0003c0 22 48 a6 3e b9 d4 9a 3e 27 75 b9 be 28 4a ab 3d
       0.32476908 0.3024042 -0.36222193 0.083637536
0003d0 eb 6c d0 3e 47 0a 95 bd 8d c6 96 3e 45 3e 99 be
       0.40708098 -0.07277351 0.29448357 -0.2993032
0003e0 1a 2d 31 3e 51 fe 0a 3f ed a6 a7 3e 68 d9 76 3c
       0.17302361 0.54294306 0.32744542 0.015066482
0003f0 f9 b0 af 3c 5f ba b1 3d b0 85 64 be 6e de d0 bd
       0.021446692 0.086781256 -0.22316623 -0.10198675

Predict/conv2d/Conv2D f4 [1, 16, 16, 1]
000000 00 97 f3 3d ee f0 b5 3d d0 ae da 3d a7 0b dd 3d
       0.11894035 0.08883844 0.10677874 0.10793238
000010 8d f5 ad 3d c0 a9 45 3d ef dd 7c 3d 4e 72 5d 3e
       0.08494101 0.04825759 0.06173509 0.21625635
000020 af 5a c8 3c 23 01 38 bd ea 55 8f bd 77 f3 ac bd
       0.024457304 -0.04492296 -0.06998809 -0.08444875
000030 a6 e8 b4 bd 09 ee 7f 3d 5e f3 4e 3d 45 64 a9 3d
       -0.08833437 0.062482867 0.05052506 0.08271078
000040 1e a6 ab 3d 13 0d 0e bd 2a 23 f4 bd 6a cc f3 3d
       0.08381294 -0.034680437 -0.119207695 0.11904223
000050 ef e1 5a bd 63 71 18 3e 1e fc 7f 3e df c9 27 3e
       -0.053438123 0.14887004 0.24998519 0.16385601
000060 cd 06 26 3e e8 c9 00 3d a7 2a 93 bd a0 90 15 be
       0.16213532 0.031442553 -0.0718587 -0.14605951
000070 4c bb 4e 3d 01 c3 ef 3d 47 5d e5 3d a5 74 05 3d
       0.05047159 0.11707116 0.11199432 0.032581944
000080 80 15 aa 3c 28 3b 15 3b dc 85 d9 3d de c4 ba 3d
       0.020762205 0.0022770856 0.10621235 0.09119581
000090 dc 9c 47 3e ef ac 0c 3e dd 91 24 3e 39 b1 0d 3e
       0.19493431 0.13737844 0.16071267 0.13837136
0000a0 ad 8c 85 3e e4 29 a7 3e b3 66 a6 3e d8 c9 2a 3e
       0.2608389 0.32649148 0.32500228 0.1667856
0000b0 1a e4 e4 bb 75 82 67 bc fb 67 1b bb 96 66 e9 bd
       -0.0069851996 -0.0141302245 -0.00237131 -0.1139652
0000c0 e9 2e 3c 3d 8b 84 e4 bb cb 08 be 3d 2b c3 12 3d
       0.045943175 -0.006973808 0.09279021 0.035830658
0000d0 26 ae 85 bd 0a dd 42 3e b0 58 88 3e ce 68 8e 3e
       -0.06527357 0.19029632 0.26630163 0.27814335
0000e0 74 40 91 3e c7 f5 27 3e 47 3f 6e 3e 0e df c6 3d
       0.28369486 0.1640235 0.23266326 0.09710513
0000f0 c5 dd b9 bd 12 d3 32 3d e2 57 e0 bd a0 77 88 3d
       -0.09075502 0.043658324 -0.10954262 0.06663442
000100 27 cc 96 be 7a cb 9b bd b4 a5 ad 3d 93 0a c7 3d
       -0.2945263 -0.076071694 0.08478871 0.09718814
000110 33 5f 06 3e 1e 94 77 3e 3e 9f ac 3d 7b a3 90 3e
       0.13122253 0.24177596 0.084288105 0.28249726
000120 be 41 c8 3d f1 a0 60 3e c6 65 50 3e f5 7c 5b bc
       0.09778164 0.21936394 0.20351323 -0.013396491
000130 47 4a ca bd ae 82 6b bd 63 75 c9 bd 85 51 71 bc
       -0.098774485 -0.057497673 -0.09836843 -0.014728908
000140 c7 7f 87 be 66 df 0b be 4b 4c 1e 3e 4b a5 43 3d
       -0.26464674 -0.13659438 0.15458791 0.047765058
000150 41 04 92 3e c8 8d 21 3e fd e1 58 3e e1 54 a0 3d
       0.2851887 0.15776742 0.21179958 0.07828689
000160 d2 17 ef 3d 15 66 d2 3d 89 71 ad 3d 58 e1 87 3d
       0.11674465 0.10273377 0.08468921 0.06634778
000170 40 71 12 ba 20 5c 2f be 27 e6 85 bd f0 db 2c be
       -0.00055863336 -0.17124987 -0.06538039 -0.16880774
000180 0c 93 14 be ab fa 27 bd 77 ff f9 3d 2d 20 67 3e
       -0.14509219 -0.04101054 0.12206929 0.22570868
000190 91 5e 83 3e 9a cd 7a 3e b3 87 93 3e 18 1e 9c 3e
       0.25658086 0.24492493 0.28814468 0.3049171
0001a0 30 c8 d6 3d 48 21 0f 3e da 50 60 3e 4e 19 4c 3e
       0.104874015 0.1397754 0.21905842 0.19931528
0001b0 10 0d 4e bd cb 40 8f bd cd 0f 81 be 40 85 9e 3c
       -0.050305426 -0.0699478 -0.25207368 0.019350648
0001c0 e1 7d 55 3d 04 90 ff 3d 6c 8d 44 3d 9c 32 6d 3e
       0.052122 0.12478641 0.047986433 0.23163837
0001d0 c8 ce 10 3e 67 2d 52 3e 2f 4f 9c 3e 87 3f fd 3d
       0.14141381 0.20525132 0.30529162 0.123656325
0001e0 3a 00 97 3d 0d 11 17 3e 6d 8a 77 3d cd 03 6b 3d
       0.0737309 0.14752598 0.060434747 0.05737667
0001f0 1a b9 39 be dc 6c 47 be cb 16 06 be c3 86 97 bd
       -0.18137017 -0.1947512 -0.13094632 -0.07398751
000200 45 63 9c 3c a5 0b 1f 3e df 00 9f 3d 40 35 ca 3e
       0.019090304 0.15531786 0.07763838 0.39493752
000210 bb be e4 3e 12 3b 8d 3e 05 06 80 3e b3 af 25 3e
       0.44676766 0.2758413 0.25004593 0.16180305
000220 51 f9 8e 3e 20 d2 91 3e 7e c9 0d 3e 30 54 73 bd
       0.27924588 0.28480625 0.13846394 -0.05940646
000230 04 f5 b0 bd 78 31 36 be f0 65 40 be 44 f7 51 be
       -0.08640483 -0.17792308 -0.18788886 -0.2050448
000240 82 3b 49 bd 0e f8 92 3d a8 04 e5 3d 0a 57 6e 3e
       -0.049129017 0.07176219 0.11182529 0.2327539
000250 ed d0 26 3e 17 95 43 3e b7 1d 60 3d 91 d9 ff 3d
       0.16290636 0.19099842 0.05471584 0.124926694
000260 8a fd 17 3e e6 a1 46 3e 6b b6 ec 3d ef f5 be 3d
       0.14842811 0.19397697 0.11558231 0.09324252
000270 38 4b 87 3d 49 b2 12 bd 9b 86 1f be ab b3 9a be
       0.06606144 -0.035814557 -0.15578692 -0.302152
000280 e9 91 0b be a4 1c 01 3e ad 0d 4a 3d f3 4d 2f 3d
       -0.13629879 0.12608582 0.04932945 0.042798948
000290 00 cb c1 3d 32 8a d4 3d 9d 22 e9 3d 72 1f 2b 3e
       0.09462547 0.10377921 0.11383555 0.16711214
0002a0 ef a7 50 3d ad 08 4c 3d 27 98 07 3d 03 14 0b 3e
       0.050941404 0.04981296 0.03310409 0.13581853
0002b0 57 4c d6 3d 86 43 95 3c 3d 20 1d 3d 13 d8 15 3c
       0.104637794 0.018220674 0.038360823 0.009145754
0002c0 ba ae 8d bd 67 db 39 3c eb d7 ee 3d 37 ef 3d 3e
       -0.06918092 0.0113438135 0.11662277 0.18548284
0002d0 fe 23 81 bb 6b 0d 5a 3d cc 3a 87 bd 52 cb 17 bc
       -0.003941058 0.053235453 -0.066030115 -0.009264784
0002e0 d8 4a 33 bd b8 8c 39 bc 4b 85 cc bd 51 f3 01 3e
       -0.04377255 -0.011325054 -0.09986361 0.12690474
0002f0 1a 3d d3 3c e1 fa 16 3e eb 8d 3e 3d 6e f9 b6 3c
       0.025785971 0.1474414 0.046522062 0.022335734
000300 6c 7c fb bd 4d 21 92 bc 95 36 11 bd 62 9e 0b 3e
       -0.12279591 -0.017838145 -0.035452444 0.13634637
000310 40 69 16 bc 9b c4 4b 3e b0 09 ae ba 12 71 ba bc
       -0.009180367 0.19899218 -0.0013278034 -0.022758994
000320 a7 68 ed 3d 26 58 37 bd 3b e1 95 bd d3 6f 9c 3c
       0.115922265 -0.0447618 -0.0731835 0.01909629
000330 4f a3 f0 3c 13 4d ad 3d 52 d7 ab 3d 6a 82 62 bd
       0.029374747 0.08461966 0.083906785 -0.055300154
000340 f8 62 22 3d 45 bd 57 3d 19 31 89 bd 0b 3e a2 bd
       0.039645165 0.052670736 -0.06698818 -0.0792199
000350 95 e6 48 3d be ca 2b bd 1f 8c 11 3e a7 9f 78 bc
       0.049048025 -0.041941397 0.14213608 -0.015174783
000360 44 83 a0 bd 63 58 32 3d 79 61 9f bc 7c 8a 31 be
       -0.07837537 0.043541323 -0.019455658 -0.17337984
000370 74 3b 0f bd 08 b1 ae 3d ee e3 1f 3e a7 5f 07 3c
       -0.03496881 0.0852986 0.15614292 0.008262551
000380 06 28 2a bd a4 87 fd bd 17 f9 9b 3d 56 ac 19 be
       -0.041542076 -0.12379387 0.076158695 -0.15007147
000390 db e6 06 be ca 85 b2 3c 22 b1 5d 3c 63 33 56 3d
       -0.13174002 0.021792311 0.013531001 0.0522951
0003a0 53 1f 15 be 9c ff 24 bd 0f 22 91 3d 4d c1 fd bd
       -0.1456273 -0.04028283 0.07086574 -0.12390385
0003b0 8c ca 1a 3e 97 0c b5 3d e4 3c 3d 3d 2b 2f a6 bd
       0.15116328 0.08840292 0.046200648 -0.08114465
0003c0 dd ac 3b bd b5 9d 28 be dd 5e b3 bd 90 25 35 bc
       -0.045819152 -0.1646641 -0.08758328 -0.011056319
0003d0 13 03 86 be 15 47 91 be e7 33 60 bd 99 5e 2b 3d
       -0.2617422 -0.28374544 -0.054736998 0.041838262
0003e0 90 b1 91 3d fe 79 ab 3d 01 7d bf 3d 0d 07 59 bc
       0.071139455 0.083728775 0.093500145 -0.01324631
0003f0 89 dd 1e 3c 2d 02 23 bd 81 ef 08 3e e6 ab 8c bd
       0.009696373 -0.039796997 0.13372613 -0.068687245

Predict/spark1/squeeze1x1/Conv2D f4 [8, 1, 1, 1]
000000 56 99 0e bf 43 af 3c bf 6e 70 85 be 78 ba 09 3f
       -0.5570272 -0.7370493 -0.2606234 0.53800154
000010 78 de 0f 3f 56 54 ec 3e ad 7e 03 bf 7e 8a 1c 3f
       0.56198835 0.46158093 -0.51365167 0.6114882

Predict/spark1/expand1x1/Conv2D f4 [32, 1, 1, 8]
000000 2a 0b a2 be 30 88 a2 be 60 31 bd bc c6 36 a9 be
       -0.31649143 -0.31744528 -0.023094833 -0.330496
000010 e2 78 0e 3d 20 9d 1b 3e bc a8 86 be 91 49 a1 be
       0.03478325 0.15196657 -0.2630061 -0.3150144
000020 88 11 3b 3d 39 29 aa be a8 dc 23 bd 1d a0 31 be
       0.045671016 -0.33234575 -0.040005356 -0.17346235
000030 ca 98 4c bd d8 29 c3 be c4 7d 3c be d1 74 a5 be
       -0.0499504 -0.38117862 -0.18407351 -0.32315686
000040 89 76 6b be 00 fe a9 bc 68 9c 8a be 52 f8 e8 3c
       -0.22994436 -0.020751 -0.27072453 0.02843872
000050 79 0e 08 3d f9 6d 82 3e d6 e0 63 be 36 94 57 be
       0.033216927 0.25474527 -0.22253737 -0.21052632
000060 fd f4 3d be 2c 2c 8a 3e 62 91 0b be 4d 20 10 3f
       -0.18550487 0.26986825 -0.13629678 0.5629929
000070 11 18 ab be 27 6b 71 bd 59 f2 bd be 6d 52 03 be
       -0.334168 -0.05894008 -0.3709896 -0.12824412
000080 08 8c a4 be 58 8d 7a 3d c2 65 bf 3e e5 7c 5a bf
       -0.32138085 0.061169952 0.37382323 -0.85346824
000090 ff ea 93 be f3 48 a2 3e 70 50 21 be 6a f8 b6 be
       -0.28890225 0.3169628 -0.1575334 -0.357364
0000a0 47 8b 20 be d0 b5 9a 3d 60 b7 1c 3d 32 be 15 3c
       -0.1567813 0.07554209 0.038260818 0.009139584
0000b0 f4 b3 f0 be 65 58 78 3e d4 e7 9f 3e 66 cd 82 be
       -0.47012293 0.2425247 0.31231558 -0.25547332
0000c0 a8 0e 9d bd ba 88 84 be 48 00 06 3d 1b 66 cc be
       -0.07668811 -0.25885564 0.032715112 -0.3992165
0000d0 18 ec 3c 3d 42 fb 6f be 49 0d 71 be e2 72 19 3e
       0.046123594 -0.23435691 -0.23540224 0.1498523
0000e0 c9 c9 88 be 84 10 8d 3d 78 a8 b7 bd 89 7d f8 3d
       -0.2671645 0.06887916 -0.0896768 0.12133319
0000f0 e1 aa 04 bf 93 5a 10 bc 28 a2 15 3e 0f f7 b9 3d
       -0.5182324 -0.008810657 0.14612639 0.09080326
000100 58 f2 34 bd 37 d3 a5 be c8 b3 72 be f7 fe c2 bd
       -0.04417643 -0.32387707 -0.23701394 -0.09521287
000110 02 e1 45 3d cc 28 0e 3e 90 c0 a0 bc d5 8d 4e 3e
       0.048310287 0.1388275 -0.019623071 0.20171292
000120 80 ff ba 3e dc b5 4f be 5c 51 39 3e 24 ed ab be
       0.36523056 -0.20284218 0.18097442 -0.3357936
000130 45 b2 a2 be 10 ad fc bd d4 f9 49 be 9d 52 2f 3d
       -0.31776634 -0.123376966 -0.19724208 0.042803396
000140 04 33 c2 bd 52 c8 84 3e 00 ba 62 3e c5 93 90 be
       -0.09482387 0.25934082 0.22141266 -0.2823774
000150 50 92 b8 3e 9d cc d5 3d e6 25 70 be 4e b7 ae 3d
       0.36049128 0.104394175 -0.23451957 0.08531056
000160 7c f4 a5 3e f8 e0 92 be 68 83 64 3e a3 ab 04 3e
       0.3241309 -0.28687263 0.22315753 0.12956099
000170 40 b7 96 39 e5 59 57 be e8 86 6f 3e 48 ad ac be
       0.0002874676 -0.21030386 0.23391306 -0.33725953
000180 0c 25 9e 3e 00 79 e2 bc b8 55 6f 3d 63 f3 23 be
       0.3088764 -0.027645588 0.058431357 -0.16010813
000190 9d 14 d3 3e c2 11 ca 3e d0 5a 36 3d 4a 5c 87 3d
       0.41226664 0.39466673 0.0445202 0.066093996
0001a0 44 61 a3 3e 90 67 c4 3d fa e8 a2 3e b4 d3 af be
       0.31910145 0.095900655 0.31818372 -0.34341204
0001b0 c9 46 4c 3e 47 d4 60 3e 3c 07 9e 3e 01 52 26 bd
       0.19948877 0.21955977 0.30864894 -0.04060555
0001c0 20 d2 02 3c 40 7c 28 bc 2e e2 2c be 36 d2 58 be
       0.007984668 -0.01028353 -0.16883156 -0.21173939
0001d0 d4 59 52 3e e4 4b 39 3e 38 54 b4 3d 09 a1 06 be
       0.20542079 0.18095356 0.08805126 -0.13147368
0001e0 b8 a5 5c 3d 1a da 78 be c8 05 2a 3e 6a 1c 71 be
       0.05386898 -0.24301949 0.16603768 -0.23545995
0001f0 24 71 1b be b2 9e 7e be c4 fb 9a 3e ec 11 16 bf
       -0.15179878 -0.24865225 0.30270207 -0.58621097
000200 46 c3 85 be c0 de 60 3e ee 3d 52 be 3c 86 69 be
       -0.26125544 0.21959972 -0.20531437 -0.22805113
000210 d0 87 9d be 96 7b 49 3d 70 01 fb 3d 4a fa 24 be
       -0.3076768 0.049190126 0.122561336 -0.16111103
000220 b0 2f f5 bc 4a d9 64 be 0a 90 84 3e f7 a7 c6 3e
       -0.029929966 -0.22348514 0.25891143 0.38800022
000230 b3 1b f8 3e 34 68 dd 3e ba 48 c1 3e 8f ae d5 3e
       0.48458633 0.43243563 0.37750798 0.4173474
000240 d0 ef 34 3d d8 41 b3 be 5c 6c b1 3d 38 d8 2f 3e
       0.044174016 -0.35011172 0.08663246 0.17172325
000250 ba c2 8a 3c a8 98 06 be b4 08 29 3e f1 3e cb 3d
       0.016938556 -0.13144171 0.16507226 0.099241145
000260 28 20 4f 3d 30 d7 ce 3d ee e2 be 3e 87 27 1c be
       0.050567776 0.100996375 0.3728251 -0.15249453
000270 34 c0 07 bd 2d 11 39 3e 6c 30 bc bd 49 8a 3e be
       -0.033142284 0.18072958 -0.09188923 -0.18607439
000280 b9 89 9f be d0 3b db bc e8 9a 7a 3e 3e fc b6 bd
       -0.31159762 -0.02676192 0.24473155 -0.0893483
000290 4a dd bb 3d 4c be aa bd c8 f9 a1 be 6f d5 a1 bd
       0.09173067 -0.083370775 -0.3163588 -0.07902037
0002a0 20 cc c3 3c c0 d9 58 bc 7c f6 6a be 1c c9 da 3e
       0.023901045 -0.013235509 -0.22945589 0.4273156
0002b0 2f 25 86 be 3c 80 ae be 6c 86 ef bd f9 0d 74 be
       -0.26200244 -0.3408221 -0.11695561 -0.23833455
0002c0 e4 21 34 3e d2 0a 87 3e 40 72 2c be 14 01 ba bd
       0.17591053 0.26375443 -0.16840458 -0.09082237
0002d0 50 dd ec bd 5c c2 88 bd 58 ff 55 3e a0 a6 36 bd
       -0.115656495 -0.06677696 0.20898187 -0.0445925
0002e0 f8 d0 0a 3e d9 55 96 be b0 0c f3 3d e0 03 c5 bd
       0.13556278 -0.29362372 0.11867654 -0.0961988
0002f0 0a c8 9a 3d ef 9e 2c be 90 f2 26 3e b0 9e f5 bd
       0.07557686 -0.16857503 0.16303468 -0.11993158
000300 32 cb a6 be 6c e9 56 3e 9c f2 97 3e e4 03 9a 3d
       -0.325769 0.20987481 0.29677284 0.07520273
000310 e9 02 52 bf 35 5e 58 bf 08 b7 17 3e ba ca f7 be
       -0.8203569 -0.8451875 0.14815915 -0.48396856
000320 73 29 a6 be 83 d0 8a be a0 16 84 bd e3 cb 77 be
       -0.32453498 -0.27112207 -0.06449628 -0.2419887
000330 f0 b0 93 3e 83 88 af 3e 2c a0 d5 bd a0 9a 94 be
       0.2884593 0.34283838 -0.10430941 -0.2902422
000340 52 81 90 be 86 f8 b8 be 60 4c 1d 3d 05 79 2a bd
       -0.28223664 -0.36127108 0.038402915 -0.04161932
000350 92 b1 0a be 0a c2 6a be 70 63 32 3e ad 69 82 3e
       -0.135443 -0.22925583 0.17420745 0.2547125
000360 b4 a5 a4 be c0 8e d8 bd b8 46 2a be 90 cf 93 be
       -0.3215767 -0.105741024 -0.1662854 -0.28869295
000370 02 5f f6 be a7 8f 51 bd 63 d6 bf be 22 c9 86 be
       -0.4811936 -0.05116239 -0.37468252 -0.26325327
000380 d8 29 0c 3e 80 82 5a 3e b3 95 a6 be 81 a1 62 3c
       0.13687837 0.21338844 -0.32536086 0.013832451
000390 37 2a 7a be 6d 0b a4 3e f8 5c b9 be b8 5b fc bd
       -0.24430166 0.32039967 -0.36203742 -0.123221815
0003a0 80 83 f3 3b c0 48 b5 3d c4 d9 1e 3e 74 43 cc 3e
       0.0074314475 0.088517666 0.15512758 0.39895213
0003b0 2b 0a 1e be 31 55 35 3e c2 a4 99 3e 9d 61 32 3e
       -0.15433566 0.17708279 0.30008513 0.17420049
0003c0 d2 3a 81 be 2c 57 6e 3e 68 0a a3 be 71 8b 5f 3c
       -0.2524019 0.23275441 -0.31843877 0.013644085
0003d0 5e 90 c0 be 9d 86 f4 bc 50 9f d9 3c 42 76 62 bd
       -0.37610143 -0.029849345 0.026565224 -0.05528856
0003e0 7c 93 ec bd 44 bf c1 3d 70 21 86 3d e4 5b eb 3d
       -0.11551568 0.09460309 0.065493464 0.11492136
0003f0 aa 43 b1 be c0 1f c6 be 20 0d 2b bd a4 79 a7 be
       -0.34621936 -0.38696098 -0.041760564 -0.32709992

Predict/spark1/expand3x3/separable_conv2d/depthwise f4 [8]
000000 00 00 00 00 00 00 00 00 00 00 00 00 00 00 00 00
       0.0 0.0 0.0 0.0
000010 00 00 00 00 00 00 00 00 00 00 00 00 00 00 00 00
       0.0 0.0 0.0 0.0

Predict/spark1/expand3x3/separable_conv2d/depthwise1 f4 [1, 3, 3, 8]
000000 04 e6 57 be 1e 5c 9f bd 2c 71 66 bd 8f 70 df 3e
       -0.21083838 -0.07781242 -0.056260273 0.43640563
000010 96 02 32 be 76 2f a2 bd b2 6c 7d be fa d6 d3 bd
       -0.17383799 -0.07919209 -0.24748495 -0.10343738
000020 b8 f5 b0 bd e8 ad 88 3d a4 4e 2b bd 78 8e 85 3e
       -0.08640617 0.06673795 -0.041823044 0.26085258
000030 2e cf 60 bd 3f fc ab 3e 21 51 31 be af 9a ff bd
       -0.054885082 0.33590886 -0.17316104 -0.124806754
000040 84 64 1b be 98 e9 cd 3d b8 31 74 3e e0 4b cc 3e
       -0.15175062 0.1005432 0.23847091 0.39901638
000050 fb 63 3e be 5c 75 bb 3d b2 34 88 bd d2 6d 08 be
       -0.18592827 0.09153244 -0.06650676 -0.13323143
000060 00 1c 60 3e 8e 13 85 3e de 3f ba bd 37 72 bd be
       0.21885681 0.25991482 -0.09094213 -0.37001202
000070 45 21 76 be 93 4e c4 3d 6e b2 b1 bd 98 96 a2 be
       -0.24036129 0.09585299 -0.08676611 -0.3175552
000080 94 cc 52 3e f0 ae 76 3e 58 c6 e9 3d e6 5c 00 be
       0.20585853 0.24090171 0.11414784 -0.12535438
000090 42 db 97 bb 1a 53 9b 3e 80 d7 d6 3c 0f 67 c9 3e
       -0.004634292 0.3033684 0.026225805 0.3933644
0000a0 90 66 fc 3c 16 da 44 3e 54 dc 1c bd 28 64 96 bd
       0.030810624 0.19223818 -0.03829606 -0.07343322
0000b0 03 10 34 be 21 ca d5 bd d0 ba 76 bd e4 d6 03 3e
       -0.17584233 -0.10438944 -0.060236752 0.12874943
0000c0 ec f3 a6 bd 12 7e d5 bd 2e 8a 13 be 34 b0 c9 be
       -0.08151993 -0.10424437 -0.1440818 -0.39392245
0000d0 a0 fd 3c be 9e d2 09 bf 8c ec 95 3d b5 74 bc be
       -0.18456125 -0.53837 0.07320508 -0.3680779
0000e0 ec a8 08 3e 80 36 a2 bb 74 fd 4a 3e 37 ab 56 be
       0.13345689 -0.0049503446 0.19823247 -0.20963751
0000f0 9a 81 d2 3e 95 73 b8 3d d4 b3 d6 bd 96 53 20 3c
       0.41114503 0.090064205 -0.10483518 0.009785553
000100 20 27 57 be ca 7e 82 3e b5 f8 00 be 42 4d 9c 3d
       -0.21011019 0.25487357 -0.12594874 0.07631923
000110 e2 06 d4 3c 7a 75 4f be 44 3b 04 bd 41 c4 ee 3e
       0.025882188 -0.20259658 -0.032283083 0.46634105

Predict/spark1/expand3x3/separable_conv2d f4 [32, 1, 1, 8]
000000 2c 4a 7e 3e a4 18 96 3d 70 d7 fb bc c0 39 b1 be
       0.24832982 0.073289186 -0.030742377 -0.34614372
000010 53 fd 04 be ce a3 00 3f 00 72 10 3d cf 62 f9 be
       -0.1298726 0.50249946 0.03526497 -0.48708197
000020 6e 80 14 be 69 b2 4c be a0 69 7f 3e 7c 1f 61 be
       -0.14502117 -0.19989933 0.24942636 -0.21984667
000030 8c a0 3d 3f ae c2 7a 3e 2e 6c 99 be 20 54 53 3e
       0.740731 0.24488327 -0.29965347 0.2063756
000040 22 8e 83 be 08 1e 03 be 40 c5 d2 3d 7e 90 87 bd
       -0.25694376 -0.12804425 0.10291529 -0.066193566
000050 17 b9 a0 be 53 41 ad be e4 1f b2 be a7 5c 51 3e
       -0.31391212 -0.338389 -0.34789956 0.204455
000060 d6 21 bf 3e a0 62 1d bc 84 0d 57 3e 2a fd 7a bd
       0.37330502 -0.009606034 0.2100125 -0.061276592
000070 f3 c6 3d be a3 c6 00 bf 18 b7 67 bd 0f e2 80 be
       -0.18532924 -0.50303096 -0.056571096 -0.2517247
000080 18 53 66 3e b0 c6 e1 bc c8 31 a1 3e 4a aa c7 be
       0.22492635 -0.027560562 0.31483293 -0.38997108
000090 0c 06 2f bd 10 cf a8 bd 44 31 69 3e a3 f1 41 3f
       -0.042730376 -0.08242619 0.227727 0.75759333
0000a0 a8 64 3a 3e e8 eb 3d 3e 0c 82 b2 3e 6b 28 ec 3e
       0.1820246 0.18547022 0.34864843 0.46124586
0000b0 fb 56 88 be 7b 1a 71 3e a8 17 97 3e 48 eb b1 3e
       -0.2662886 0.23545258 0.29510236 0.34749818
0000c0 b0 1c 71 3e 68 9d 8e 3d 54 d4 cc bd 93 00 0c 3f
       0.235461 0.069636166 -0.10001436 0.54688376
0000d0 45 5d ff 3e dc 63 83 be 88 6c a8 be 8b 13 db be
       0.49875847 -0.25662124 -0.32895303 -0.42788348
0000e0 37 e9 35 be b0 46 65 bd 50 d9 6f be e0 f7 aa 3e
       -0.17764746 -0.055975616 -0.23422742 0.3339224
0000f0 ee 6f 15 be 49 0b 3f 3e 8c e2 f8 bd a3 ed 64 3f
       -0.14593479 0.18656649 -0.121525854 0.89425105
000100 67 d6 29 be f0 29 a4 3c e4 53 a0 bd f4 aa 06 be
       -0.16585694 0.020039529 -0.07828501 -0.13151151
000110 a4 70 cc be 22 77 e7 bd 38 e1 9c be 38 b9 83 be
       -0.39929688 -0.1130202 -0.30640578 -0.25727248
000120 20 3f 95 be f0 38 eb 3c 44 56 72 3e af 5d 0a bf
       -0.29149723 0.028713673 0.2366572 -0.540492
000130 92 ef 85 be 6b 32 79 be 2c 41 74 be f0 b2 a0 3e
       -0.2615934 -0.24335639 -0.23852986 0.31386518
000140 9f 7c ba be 0b 1e 72 be f2 70 b2 be 6c 1f 82 3e
       -0.36423203 -0.23644273 -0.34851795 0.25414598
000150 e1 fa 97 3e 29 5c 22 3f 7a 97 a3 3e d0 75 91 3e
       0.29683593 0.63421875 0.31951505 0.28410196
000160 fc 31 c9 bd e0 b0 bf 3d dc ed 57 3e a4 bc b5 3e
       -0.09823987 0.09359908 0.2108683 0.35495484
000170 6a d1 41 be 80 ee 89 3e 3e 9f ad be 0e 00 91 3e
       -0.18927541 0.26939774 -0.33910555 0.28320354
000180 0c 8a a6 3e 48 7d 75 be f6 05 b9 3e 61 f0 00 3f
       0.32527196 -0.23973572 0.3613736 0.5036679
000190 2f a7 b2 be e4 67 0f bf 98 d7 f6 bd 6f de ac be
       -0.34893176 -0.560179 -0.1205284 -0.33763453
0001a0 35 73 c3 be 09 cb a0 be 66 c3 8f 3e 60 d5 3f 3f
       -0.38173833 -0.31404904 0.28078765 0.7493496
0001b0 d7 a9 2b be 4d 91 df bd 2c 0f 2c 3e a2 bc 6a be
       -0.16764008 -0.10916386 0.16802663 -0.2292352
0001c0 f3 94 95 be 10 3b 89 3c 78 17 74 3e 18 7d bf be
       -0.29215202 0.016751796 0.23837078 -0.37400126
0001d0 3e ef 66 be 0a 5e 94 3d 3c e7 3d 3e 13 ad 88 be
       -0.22552201 0.07244499 0.1854524 -0.26694545
0001e0 40 65 5a bc 9a cb 73 be 20 9a 4c 3d d6 95 de be
       -0.013329804 -0.23808137 0.049951673 -0.4347369
0001f0 bc 1c 70 be ac bd ad 3e f4 ed 33 3e e9 9d 36 3d
       -0.23448461 0.3393377 0.1757124 0.04458419
000200 72 95 c3 3e b5 3e 30 be 6d 4b 1b be cb ab eb be
       0.38199955 -0.17211421 -0.15165491 -0.46029505
000210 c0 22 9e bd e2 96 1c be d8 73 e8 3d ff 65 1d 3f
       -0.07721472 -0.15291932 0.113502204 0.6148376
000220 b0 27 54 3e 96 d1 b5 be 08 99 38 3e c3 0e d4 bc
       0.20718265 -0.35511464 0.18027127 -0.025885945
000230 2c d3 13 3f 4f a4 5b be d2 c5 80 3e 44 dd ac be
       0.577441 -0.21449398 0.25150925 -0.33762562
000240 90 c2 73 bd a2 3d 9c 3e 2e 77 0d be e2 1f 34 be
       -0.05951172 0.30515772 -0.13814995 -0.17590287
000250 17 2d 75 be ed 62 16 3e a0 c8 bc 3e fa bc c3 3c
       -0.23942982 0.14686175 0.36871815 0.023893822
000260 52 20 a2 be 60 39 95 3c 56 ec b5 3e 8d 4d b7 bc
       -0.31665283 0.018215835 0.35531873 -0.022375846
000270 82 9b 4b 3f d7 c9 45 3e 32 a2 4d be e6 9f 73 bc
       0.7953416 0.19315277 -0.20081404 -0.014869666
000280 40 18 d6 bb 0a af 6d be a8 ec 26 bd 55 06 8e be
       -0.0065336525 -0.23211303 -0.040753037 -0.27739206
000290 9d b8 0c 3f 3c c8 bd 3e d6 21 ba 3e 8a 8e 76 bc
       0.549692 0.3706683 0.3635394 -0.015048632
0002a0 6f 8a 4f be d2 71 83 3e 80 70 6f be cb f3 bc bd
       -0.20267652 0.25672776 -0.23382759 -0.09226187
0002b0 f3 c5 6e be ec 1b bd 3e fa 52 ac 3e 84 22 7f bc
       -0.23317699 0.36935365 0.33657056 -0.015572194
0002c0 c3 c5 c3 be 00 b2 09 3e b0 ff 0f 3e 10 d5 8d be
       -0.38236818 0.13446808 0.14062381 -0.27701616
0002d0 b3 fe 7d be dc 4b aa be 58 92 3b 3e fc 49 01 be
       -0.24804191 -0.33261 0.18317544 -0.12625879
0002e0 48 0c 9b 3e cd 74 23 be 98 fb 70 3e e4 76 81 bd
       0.30282807 -0.15962525 0.23533475 -0.06321505
0002f0 50 dd d6 be af 99 9e be 60 e9 3e 3d 92 09 9b be
       -0.41965723 -0.30976626 0.046609282 -0.3028074
000300 ea 73 b1 3e 38 b8 81 3d 60 b5 31 3e 3d 66 89 be
       0.34658748 0.06333965 0.17354345 -0.26835814
000310 f7 87 52 3f e0 73 20 3d 0a 1a 5f be bf 0c 9c 3e
       0.82238716 0.039173007 -0.21787277 0.30478474
000320 38 07 0b 3e 60 a2 b8 bd 84 54 4b 3e 8f fa 33 3f
       0.13576972 -0.090153456 0.19856459 0.703042
000330 8d 0a fb bd 7b 11 93 3e 68 c1 5a bd 08 5a 98 3d
       -0.12257872 0.28724274 -0.053407103 0.07439047
000340 61 b9 92 be 43 5f 63 be 17 78 ad be 5b 72 8c 3e
       -0.28657058 -0.22204308 -0.33880684 0.27430996
000350 da 42 a6 3d fe 67 c4 3d 14 09 84 3e 2a db 00 bf
       0.0811822 0.095901474 0.25788176 -0.5033442
000360 50 69 03 bd 88 eb 8f 3e 40 39 a7 bd ce 11 13 3f
       -0.032082856 0.28109384 -0.081652164 0.5744904
000370 8d 73 83 bd 1a e9 e5 3e 19 ea 7d be bb fb e7 be
       -0.06418524 0.44904405 -0.24796332 -0.45309243
000380 cd fd 15 be 40 90 79 be a2 47 c5 3e 31 30 c7 be
       -0.14647599 -0.24371433 0.38531214 -0.38903955
000390 12 f5 ec 3e ff 1d 05 be 28 8e b1 3e d5 f8 dc be
       0.46280724 -0.12999724 0.3467877 -0.43158594
0003a0 16 92 b6 3e 78 e3 2f 3e 91 c2 49 be 26 4d e2 3d
       0.3565833 0.17176616 -0.19703127 0.11049871
0003b0 cf d0 50 be b1 88 0d be 28 b1 ea 3d d1 de b1 3e
       -0.20392154 -0.13821675 0.11459571 0.34740308
0003c0 cc b5 a3 3d cc 5d 4e 3e f4 46 91 be 1f f7 9d be
       0.079936594 0.20152968 -0.28374445 -0.308526
0003d0 32 46 0e 3d 2a 12 06 be a4 ec a1 bd 0f e1 11 bf
       0.034734912 -0.13092867 -0.07906464 -0.5698404
0003e0 98 b7 96 be 14 ed 8b bd 7a 92 88 be b4 dd 06 3e
       -0.29436946 -0.068323284 -0.26674253 0.1317051
0003f0 e6 2b 1f 3f 3b 07 04 3f 68 b1 45 3e 78 fa e3 3e
       0.6217636 0.5157353 0.19305956 0.4452703
