v3/PreConv_TFLite.tflite (tflite, 938964 bytes, 21 tensors)

Predict/fc0/BiasAdd/ReadVariableOp/resource f4 [64]
00000000: 16ad aabb 4f07 66bc 1597 e1bc 9ec3 60bc
00000010: d016 98bb ded9 7abc 37bc 453c 342e 2f3b
00000020: 6c38 1abd 7393 a3b9 a30b 083b 3307 2ebc
00000030: 61f8 00bd 8bf0 4abb 5cba d33c 5d7c 103c
00000040: 50d8 903b f443 a73b 6e56 7dbb 7ea9 e33a
00000050: e90e 97bb 0542 143a 60b2 c83c 1347 b43b
00000060: 52a5 43bc f5fd 033b 46a8 c4bb a836 483c
00000070: f1b3 c03b f99b b53b ad25 02bc 83ae 91bc
00000080: 7a65 09bb 24c5 6fbb d706 97bc 9530 95bc
00000090: 1c7a a4bc 66e7 ebbc 85a7 5dbb 3a48 77ba
000000a0: 7bee 05bd 11d4 4c3c 43a7 28bd 26eb 2b3b
000000b0: 6793 30bb da47 e8bb b24f 24bb bdc0 ba3c
000000c0: c69f 5a3c 0000 0000 2160 e43c 304c d1ba
000000d0: 8d3d cfba 4ecc 7bbc d63e 093c 4e85 72ba
000000e0: d487 34bb 5c1b 52b9 5a5c 9abb 5381 7cbb
000000f0: e3b8 f13b 698c 803c c1d4 ca3c 6d0a 6d3c
-0.0052086217 -0.014039828 -0.027537862 -0.013718514 -0.0046413913 -0.015310733 0.0120688 0.002673042
-0.037651464 -0.0003119964 0.002075889 -0.010621834 -0.031486873 -0.0030966129 0.025845699 0.008818713
0.0044203177 0.005104536 -0.0038656252 0.0017369238 -0.0046099317 0.00056555896 0.024499118 0.005501637
-0.011941271 0.0020140384 -0.006001505 0.012220062 0.0058808257 0.005542275 -0.007943553 -0.017783409
-0.0020965026 -0.003658601 -0.018435879 -0.018211642 -0.020077758 -0.028796863 -0.0033821773 -0.0009433065
-0.032698136 0.012501732 -0.04117514 0.0026232689 -0.0026943327 -0.0070886435 -0.0025071916 0.022796983
0.013343757 0.0 0.02787787 -0.001596814 -0.001581119 -0.015368534 0.008376798 -0.00092514313
-0.002754678 -0.00020037353 -0.004710716 -0.0038529232 0.0073767765 0.015691953 0.024759652 0.014467818

Predict/fc1/BiasAdd/ReadVariableOp/resource f4 [32]
00000000: a6fe 013b e1b4 303d 0ab6 debc 79c3 103d
00000010: 17fd a1bb 8f19 1e3d 55cb db3c d7ad 553d
00000020: 66c7 483d 143b a63d bc0e 0abc 3b18 f03c
00000030: 4716 f9bb 87da 5ebd 8f53 a7bc f2ec b1bc
00000040: 46b4 2d3d 8b91 833c 3f0c b2bc 4a96 0f3d
00000050: 5f95 423d ed3d f9bb 33e1 13bc 1546 f2bb
00000060: b693 163d 812a 1dbd 9ea0 1ebd 2090 50bc
00000070: 2532 033d db4f 2dbd e3de 84bd e484 6a3b
0.001983562 0.04314125 -0.027186412 0.035342667 -0.0049435007 0.038598593 0.026830355 0.05216774
0.049018286 0.08116737 -0.0084263645 0.029308429 -0.0076015326 -0.054407623 -0.020425586 -0.02171943
0.04240825 0.016060611 -0.021734355 0.035055436 0.047505733 -0.007606259 -0.00902586 -0.0073936083
0.036761962 -0.038370613 -0.038727395 -0.012729675 0.032030243 -0.042312484 -0.06487825 0.0035784775

Predict/fc2/BiasAdd/ReadVariableOp/resource f4 [32]
00000000: df44 98bd 2a2e b93c 2f80 d43b e4ca 8e3d
00000010: cd7f 0e3e 7537 c9bd b982 323c 03bd aa3d
00000020: e3ec a53c 51db 8d3d fb9a b33c 2ed6 fbbc
00000030: 2dec 1f3d a8f0 4b3d 1f51 b43d 054e 72bc
00000040: c102 f03d a9d7 c03d b00a d03d 056d ef3b
00000050: 83db 983c 357b ca3d e4a0 db3d 9368 c43d
00000060: 1ee8 803d aad0 7b3d 3d80 e93d bd14 a53c
00000070: ce93 f73d fdcb 123d b688 a03d 4c07 d0bd
-0.07435011 0.02260502 0.0064850072 0.06972292 0.1391594 -0.09825031 0.0108954245 0.083368324
0.020254558 0.06926597 0.021924486 -0.030741777 0.039043594 0.049790055 0.08804535 -0.014789109
0.11719275 0.09416134 0.101582885 0.0073066973 0.018659359 0.09886781 0.10724047 0.095902584
0.06294273 0.061478294 0.11401413 0.02015149 0.120887384 0.03583907 0.078385755 -0.10157642

Predict/layer_conv1/BiasAdd/ReadVariableOp/resource f4 [4]
00000000: e94f 51bd ebef ab3c 2cd9 d93c 53d2 003c
-0.0511016 0.020988425 0.026592813 0.007862645

Predict/layer_conv2/BiasAdd/ReadVariableOp/resource f4 [8]
00000000: 8a67 f53c 5631 5e39 54a1 03bd 46dc 14bd
00000010: 3648 e4bb ecb5 eeb9 986b 79bd 7e7f 29bc
0.029956598 0.00021189949 -0.032136276 -0.03634288 -0.006966616 -0.0004553044 -0.060893625 -0.010345338

Predict/layer_conv3/BiasAdd/ReadVariableOp/resource f4 [16]
00000000: 3e4c c3bc 79c1 4dbb 6c69 b93b 67c7 213d
00000010: 74a6 b3bc e8cb 17bd ecf3 be3c 623b 00bc
00000020: b7a6 a4bc a0f2 29bc ba0d d63c eb4b 0e3d
00000030: 2758 143d 4a00 bcbc 9833 b43c 1fb8 33bc
-0.023840066 -0.0031395836 0.005658319 0.039496806 -0.021929957 -0.037059695 0.02330967 -0.007826658
-0.020099027 -0.010372788 0.026129592 0.03474037 0.03621688 -0.022949357 0.021997258 -0.010969191

Predict/layer_conv4/BiasAdd/ReadVariableOp/resource f4 [32]
00000000: d763 26bd 1cb0 ff3c 436c 4dbd 9b32 673c
00000010: a989 ce3c a67b fb3c 9dcc 03bd 1973 c5bc
00000020: a31e d2bc 7f9d de3c 0535 13bb 2e58 1e3d
00000030: 576a fbbc 63d0 ad3c d47c 9b3c 2fbb b33c
00000040: 2636 d93c 86b5 a93a bc47 823c b0ca d0bc
00000050: 50ab abbc 7783 06bc e7d2 fe3c 5119 3ebc
00000060: 8881 803c 449d 0b3d 4dbc e5bc 1908 97bc
00000070: fba2 d7bb e5e8 f7bc 2715 1a3d a3ee bbbc
-0.04062256 0.031211905 -0.050152075 0.014111186 0.025212126 0.030698609 -0.032177556 -0.024102734
-0.025649374 0.02717471 -0.0022462022 0.038658313 -0.030690355 0.02121753 0.018980421 0.021939842
0.026515078 0.0012947775 0.015903346 -0.025487274 -0.020955712 -0.008210055 0.031106425 -0.011602716
0.015686765 0.034085527 -0.02804389 -0.018436478 -0.006580708 -0.03026242 0.03761783 -0.02294094

Predict/layer_conv5/BiasAdd/ReadVariableOp/resource f4 [64]
00000000: ef7d acba 426e 8c3c 8a10 f6bc 6399 ae3c
00000010: 8043 053c d50c a33c fd93 17bd 1c6b aebc
00000020: fc56 06bd b1ac d5bc 0c6b 14bc 2178 76bc
00000030: e611 3e3d 221a 8c3c 8289 333d 4704 7bbb
00000040: debb 29bd d33c 023d c9c1 0ebd f668 4f3d
00000050: e1ed 0dbc 32a8 b83c 6fdc 62bc 08ad 8c3c
00000060: aa39 dfbc aaed a2bc 597d 05bd 695f da3c
00000070: cfe0 d4bc aa0e 9aba 6469 f4bc 6c00 01bd
00000080: cb14 db3c 6d96 40bd 69c9 233d a744 fa39
00000090: ba68 b83c 9a5c da3c 61df 03bd 003c 8d3c
000000a0: 3f21 e03c f2fc d13c ef25 01bd 5569 2abd
000000b0: ba25 1fbd 38e0 fd3b d973 0bbd 1386 063d
000000c0: 0431 60bd 169b 21bd deee 1a3d bc92 97bc
000000d0: e18c b2bc 32cd dbbc b775 b9bc ac2d 903c
000000e0: 521b 3a3d d4cd 95bb eb6b 00bd dd1c 6fbb
000000f0: 2cb1 8fbc e0b0 0c3d ad34 8aba cb3d f6bb
-0.001316009 0.017142419 -0.030037183 0.021313375 0.008133769 0.01990358 -0.037006367 -0.021291308
-0.0327978 -0.026083322 -0.009058725 -0.015043289 0.046403788 0.017102305 0.04383231 -0.003830211
-0.04143893 0.031796288 -0.034852777 0.050637208 -0.008662672 0.02254114 -0.013846501 0.017172351
-0.027249176 -0.019888718 -0.032590244 0.026656823 -0.025986103 -0.0011753638 -0.02983541 -0.031494543
0.026743313 -0.047018457 0.039987 0.00047734866 0.022510875 0.026655484 -0.032195453 0.017240524
0.027359603 0.025633309 -0.031530317 -0.04160436 -0.03885434 0.007747676 -0.034046028 0.032842707
-0.054734245 -0.039454542 0.037825458 -0.018502586 -0.021795692 -0.026831243 -0.022639139 0.017599903
0.04543621 -0.0045716558 -0.03135292 -0.003648571 -0.017540537 0.03434837 -0.0010544263 -0.0075146905

Predict/layer_conv6/BiasAdd/ReadVariableOp/resource f4 [128]
00000000: 401e f3ba d324 93bc 5887 0e3d 67ee ebbb
00000010: fe7e ac3c 5b06 14bc 9e35 19bc aaf4 a2bc
00000020: 6dc2 2bbc a009 13bd d115 f93b 23cb fabc
00000030: 28fb bcbc 9bea df3b 42d6 093d 8015 09bc
00000040: 71fd d3bc ad83 af3c 7544 03bc ae4d e8bc
00000050: f25e 413b e406 0fbb 16a0 b0bb e26f 53bb
00000060: 254e bbbc 82dd a1bc 4461 3c3d 969a c5bc
00000070: 2eb8 8fbb a438 39bc 3902 39bd 1b2e 3ebc
00000080: d7f4 51bc 8b36 9f3c 53a6 8ebc 75e5 7a3c
00000090: dfd4 cfbc 85f4 f93b 5a4e d7bc cf29 b2bb
000000a0: 07d2 8cbc 183d 1cbd e649 f1ba 6ad8 18bb
000000b0: 8754 c1bc 711b 60bb 9bb9 06bd 65db b6bc
000000c0: 243b 0cbd 0341 31bc 2321 06bd 8482 3dbb
000000d0: 54b6 4cbc 9d81 85bc 01b0 ad3c be65 b5bb
000000e0: 37df 11bc ede5 b13c ea9a 10bd 1439 9eb8
000000f0: 1a8d d3bc ef90 4ebc 282e 2bbb fc88 05bd
00000100: c810 30bc 61a4 febc e6e0 e73c 8d43 93bc
00000110: 5f20 63bc a39d 2bbc b3db be3c 81af 8f39
00000120: 12b3 9f3a 02f1 a33c 1c9b b4bc 5875 a03c
00000130: cf84 1bbc 3538 023d 29f6 c23c 12ba 12bd
00000140: 95b2 183d 9f95 12bd 360f 8abc 6932 37bb
00000150: cd2f d9ba 134d 67bc 48a6 83bc dcbb 4ebc
00000160: 3c91 22bd a654 c2bc 7e5a f43b d7ec 153b
00000170: 0ca4 6cbc 13e1 d03c 832b 96bc d01e b6bc
00000180: 3a51 593c ae5a d2bc 8e63 16bd 506a d03c
00000190: e00e 083c 0a20 b5bb 3a93 df3c 3cc7 603c
000001a0: b9c2 20bd 058d d53c 34bc 08bd b061 dcbc
000001b0: cb00 90bc 5dec 19bc 2486 0c3c f6bc a63c
000001c0: 7e14 fabc f02f 2abd 93ec 72bb aa77 0f3d
000001d0: f68d 4dbc d137 afbc 78ca 5ebc aafe bebc
000001e0: 0863 cabc 1d58 243b a57c 143d 9744 1cbd
000001f0: d3ac 22bd ebb4 55bc 4d95 15bd 981f 9ebc
-0.0018548444 -0.017961895 0.034797043 -0.0072000506 0.021056648 -0.009034718 -0.009351162 -0.019892056
-0.010483366 -0.03589785 0.0076014777 -0.030614441 -0.02306898 0.006833387 0.033651598 -0.008366942
-0.025877686 0.021425093 -0.008011927 -0.028357353 0.0029506055 -0.0021824175 -0.0053901775 -0.0032262732
-0.02286441 -0.019758943 0.045991197 -0.024121564 -0.0043859696 -0.011305008 -0.045168135 -0.011607672
-0.012814722 0.019435188 -0.017413294 0.015313496 -0.02537006 0.007628026 -0.026282478 -0.005437113
-0.017189993 -0.0381442 -0.0018408864 -0.0023322352 -0.023599876 -0.0034196044 -0.03289185 -0.022321412
-0.03423609 -0.010818723 -0.032746445 -0.0028916905 -0.012494642 -0.016297156 0.02120209 -0.0055358103
-0.008903316 0.021716082 -0.035303988 -7.544659e-05 -0.025824118 -0.012607797 -0.002612004 -0.03260134
-0.010746188 -0.031084241 0.028305482 -0.017976547 -0.013862698 -0.010474595 0.02329812 0.00027405846
0.0012184104 0.020012382 -0.022046618 0.019587204 -0.009492113 0.031791884 0.023799019 -0.03582198
0.037279684 -0.03578722 -0.016852956 -0.002795363 -0.0016570032 -0.014117497 -0.0160705 -0.012618031
-0.039689288 -0.023722004 0.0074570766 0.0022876763 -0.014443409 0.025497949 -0.018331295 -0.02223149
0.013263995 -0.025678005 -0.036716036 0.025441319 0.008304328 -0.005527501 0.027291883 0.013719376
-0.039248202 0.02606822 -0.03338261 -0.02690205 -0.017578503 -0.009394732 0.0085769035 0.020353775
-0.03052735 -0.041549623 -0.0037067279 0.03502623 -0.012546053 -0.02138892 -0.013598077 -0.023314793
-0.024705425 0.0025076934 0.036251683 -0.03815135 -0.0397156 -0.0130436225 -0.036519337 -0.019302174

Predict/op/BiasAdd/ReadVariableOp/resource f4 [4]
00000000: 02bd 5ebd a551 40bd fb25 d53d 4cfb 7fbe
-0.05437947 -0.046952862 0.10407635 -0.24998206

Predict/fc0/MatMul f4 [64, 2048]
00000000: 7d48 133d b8dd ce3c d0b6 213d 8a38 433d
00000010: e573 623d f6aa c6bb 9e5c 1b3d 1788 233d
00000020: 411b e23b 48ce 9d3c f050 a13c e0fc 993d
00000030: 8f58 4b3b 3561 113d 73c4 c9b9 3a05 a43b
00000040: 470e d2bb 4331 443c 4798 acba 69b8 c53a
00000050: 40b9 d6bc 2c9c f93c a1ce cfbc 3859 543c
00000060: 47d6 a6bc 4715 52bc e13f 0d3d 989c 1f39
00000070: 292f 243d a7f5 2a3c 000b 813d 3409 1e3d
00000080: f8c3 b93c 9bba 703d 75ad 4a3c 1f03 8fbc
00000090: 1850 263d 4418 0c3d 615b a4bc e4ff 89bc
000000a0: 569b 9abc 13c2 f83c b634 4e3d 5870 1bbd
000000b0: f6e3 453c 291f 5c3c 24b2 2e3d 15c7 0cbd
000000c0: e4e5 773d 7bc4 03bd b1be 0ebb fac1 a63c
000000d0: eeb5 d9bb 9cf6 593d f1c1 9cbc 0fc5 f7bc
000000e0: ce38 bcbb 7d20 e9bc c7f0 0a3d c6ef 9e3c
000000f0: 0ae4 0fbb 2afa 36bb 7168 403c 4e72 253c
00000100: 76e1 63bc 2dae 173d ed1f 57bd 527a 773d
00000110: 9beb 013b 8641 153d 5b45 f3bc 824d 2fbb
00000120: 88a1 15bd 43bd a9bc 7e9a 6f3d d116 f5bc
00000130: ac6e 913c 23d8 3abd 8433 e2bc ce53 a5bc
00000140: 069d 223d 54ad 0a3d 97fe 123d 1267 f33c
00000150: c3a7 fd3a 8a65 4d3d dd0f 903b 49f8 8cbc
00000160: 9513 1abd a4a1 e8bc 6157 d63c 3968 4d3d
00000170: 74f2 41bd 0046 4b3d 8015 e8ba 60b8 d0bb
00000180: 8248 e4bc 538d c6bb 7e3b 93bc b0db eabc
00000190: eaf5 6a3d 262b eb3b 77c1 c93c c4e4 bd3c
000001a0: f965 21bd 6109 2cbc e3f9 3d3d d57b e53c
000001b0: 5410 c03b d7a8 463c 9109 1ebc 8f79 20bb
000001c0: dd49 b43c 22ea e4bc b8da 25bd 76c9 263d
000001d0: 59cb 133d 6fa7 d63b f02c 6abc 1907 55bd
000001e0: 4573 bd3d 526f 2cbd 5d2a 12bc 6ff1 a5ba
000001f0: 3826 84bc 5089 08bd c3e9 1c3d 8326 783c
00000200: 24e7 fabc f0ff c2bc eddd b1bc 0e08 0c3d
00000210: d5c3 75bc 2d3a f03c 301f 2fbd 6103 a4bc
00000220: cf44 00bd 30be cfbc 4f01 3bbd cf85 223d
00000230: 1986 243d 5738 2fbd 3926 af3c 61cc 84bc
00000240: 1d52 713d cfc7 56bd c8b1 04bc b8ec 803d
00000250: aa92 163d 90e6 c13b c84f 523d c487 3ebd
00000260: 3c90 4a3d b4d4 ad3c 541a a8ba fb12 18ba
00000270: c3a9 d73c abe9 1d3d 1b07 4bbd a6bd 393d
00000280: a80e 063d 1867 b9bb 6271 993b 9f1c 6ebc
00000290: 5f9b e239 fd45 293d f5cc 3e3c 45f8 f6bc
000002a0: a1e2 383d 66c3 30bc 7636 51bd 75ed 74b9
000002b0: 9e13 23bd 9aca 3d3d bc04 d93c 5fde 0abd
000002c0: 2c23 453d ed41 3bbc 9b4a 043d d70c 9f3d
000002d0: 7bf6 28bb 42f1 763c a404 913d dc98 333c
000002e0: f781 bd3b d428 45bd 1f0f 173d 63a0 e1bc
000002f0: 0722 443d 2b17 8abb a724 3ebd 4ace 6ebd
00000300: 6d28 413d 62b6 9a3c 07b4 0d3c 63f8 f3bc
00000310: 727f 083d 2d82 6e3d 3a35 73bc 61fb ce3c
00000320: 1ef4 1e3d 279f 5abd 370c cf3c ee31 05bd
00000330: 3a1e dc3c 9f57 0fbd 7d45 b7bb a0a8 2b3d
00000340: 5ac9 3c3d fe37 f5bc 88f3 4a3c af40 cf3c
00000350: 8dc8 9abb 938a bc3c 5897 15bc 80d2 d1bc
00000360: 643c 1e3d 0dc4 45bd 3cbe 793c a6e4 55bc
00000370: 31d9 88bd c677 723c e62b 873d 0dd6 8b3b
00000380: 9a87 b03c 876e 06bd bfe5 873d d68f fcbc
00000390: 0eb0 6abc 5829 3abc 9762 c43b 4fa3 e43c
000003a0: 055d a1bc cdef c3bb 3871 5f3b 5c4a 113d
000003b0: 4944 03bd c9e7 e3bc c7bb 26bd 15ca 49bd
000003c0: 691f 1fbc 7b1e 2d3c 57b4 753d 5a07 ecbc
000003d0: 86dc 803c 4240 bcbc 4dbd bcbc 9f45 ffbc
000003e0: 8425 02bd 346f 86bd 6d55 033d 0e98 d43c
000003f0: 5a46 043d 7717 4a3d bf39 91bc ee9c 1c3d
0.035957802 0.025252208 0.039480984 0.04766134 0.055286307 -0.0060628606 0.037930124 0.039924707
0.0069002216 0.019263402 0.019691914 0.07518935 0.0031028127 0.035493094 -0.00038484074 0.005005506
-0.0064103934 0.0119746355 -0.0013167941 0.0015084866 -0.026211381 0.030469976 -0.025367083 0.0129607245
-0.020365847 -0.012822456 0.034484748 0.00015221757 0.040084038 0.010434545 0.06300926 0.038582996
0.022676453 0.05877171 0.012370457 -0.017457543 0.040603727 0.03420283 -0.020063104 -0.016845651
-0.018872898 0.03036598 0.050343238 -0.037948936 0.012078276 0.013435164 0.042650357 -0.034369547
0.060521975 -0.0321698 -0.0021781141 0.020356167 -0.006644002 0.0532137 -0.019135447 -0.030245332
-0.0057440763 -0.028457874 0.03392103 0.019401442 -0.002195599 -0.0027920105 0.011743651 0.010098053
-0.013908735 0.03703134 -0.05252068 0.060419388 0.001982427 0.03643944 -0.029696157 -0.002674908
-0.036531 -0.02072013 0.058496945 -0.029918106 0.017752968 -0.04561628 -0.027612455 -0.020181563
0.03970053 0.033856705 0.035887327 0.029712234 0.0019352365 0.050145663 0.0043964223 -0.017208235
-0.03761633 -0.028397389 0.026164712 0.050148223 -0.047350362 0.049627304 -0.0017706603 -0.0063696355
-0.027866606 -0.0060593276 -0.017972704 -0.028669208 0.05736343 0.0071767746 0.024628384 0.023180373
-0.03940389 -0.010500283 0.04638089 0.02801315 0.0058613215 0.0121252155 -0.0096458355 -0.0024486517
0.022007877 -0.027943674 -0.04049179 0.040719472 0.0360826 0.0065507214 -0.0142929405 -0.052008722
0.092505015 -0.04209835 -0.008921233 -0.0012660454 -0.016131505 -0.033334076 0.03830887 0.015145901
-0.030627795 -0.023803681 -0.021712268 0.03418737 -0.015000303 0.029324615 -0.042754352 -0.020021142
-0.03131562 -0.025359243 -0.045655545 0.03967839 0.040166948 -0.04277834 0.02138053 -0.016210737
0.0589162 -0.052436646 -0.008099027 0.062951505 0.036760963 0.005917378 0.051345617 -0.046516195
0.04945396 0.021219589 -0.0012825229 -0.0005801168 0.026326066 0.03855292 -0.049567323 0.04534688
0.03272882 -0.0056580417 0.0046827057 -0.014533191 0.0004322184 0.04132651 0.011645545 -0.030147681
0.045138005 -0.010788774 -0.05107733 -0.00023358113 -0.03981363 0.046335794 0.026491515 -0.033903476
0.048129246 -0.011429292 0.03229771 0.07766121 -0.002578168 0.015072169 0.07080963 0.0109617375
0.0057833153 -0.04813464 0.036879655 -0.027542299 0.047884014 -0.0042141876 -0.046421673 -0.0583022
0.047157694 0.018885795 0.008648879 -0.029781526 0.033324666 0.058229614 -0.014844233 0.025266351
0.038807027 -0.053374436 0.02527438 -0.03251832 0.026869882 -0.03499567 -0.0055930004 0.04190886
0.04609046 -0.029933926 0.012387164 0.025299398 -0.0047236145 0.023015296 -0.009130321 -0.02561307
0.03863181 -0.04828267 0.015243109 -0.013055002 -0.06682051 0.014799064 0.0660017 0.00426746
0.021549035 -0.03282025 0.066356175 -0.030830305 -0.014324201 -0.011362396 0.005993198 0.027909903
-0.019697675 -0.005979514 0.0034094583 0.035471305 -0.032047544 -0.027820485 -0.040706422 -0.049264986
-0.009712079 0.010566349 0.05998644 -0.0288121 0.015730154 -0.02297986 -0.023039484 -0.031161128
-0.03177406 -0.06564179 0.03206389 0.025951412 0.032293655 0.049338784 -0.01772773 0.038235597

Predict/fc1/MatMul f4 [32, 64]
00000000: f244 bfbd f65e 003e 8c47 b73d e10a d13d
00000010: 89d8 9bbd 3e47 093e 3c50 a03e d9c6 cf3d
00000020: aefb 033e 60c5 d2bc bb82 113e 5394 423e
00000030: 2138 8cbd 1059 60be d862 9e3d 8886 91be
00000040: 6553 dbbd b979 3ebe 2847 25be 45c5 21be
00000050: 3a88 b6bd 1336 afbe 4728 9e3d 75db 7f3e
00000060: 479d 813e acd8 9a3e cef7 163e 5487 213e
00000070: d539 a23e 5d5b 18be e13e 6cbe 4a12 93bd
00000080: 27f8 76be cb3f 623e a30b 33be b64d 973b
00000090: 21e9 e5bc f120 63be c2a6 163e cc60 a6bc
000000a0: 2ce4 2dbe 0a81 30be 0721 bdbc 1ae2 babd
000000b0: 55d9 75be fbc4 30be dcbb 01be a494 993c
000000c0: b99e 4a3e d85a 3cbe 9247 86be 4078 8e3e
000000d0: 6067 243b c09d 563e 4c81 803e a412 da3d
000000e0: c70b 48be fa44 763e 4837 7bbe 0f6f 833e
000000f0: ddf3 09be 04d3 693d 8b4d a73b 96b5 653e
00000100: e571 54be a4a7 8fbe 90c2 0c3e b883 883e
00000110: 05d9 da3d ad2a b23e 9645 203d 6207 dcbd
00000120: 1632 c4bd d486 3d3e ca96 b6bd 63a0 e6bd
00000130: 5fc9 393c e975 ad3c a76f 333d 1b91 393e
00000140: b073 333e bbcb aa3d 80e9 37be f09f 35be
00000150: 13e3 b6bd ff7b d4bd 8614 f9b9 e9ab a6bc
00000160: 41e9 d53d c235 2a3d c883 87bd d43d e4bd
00000170: d330 4a3e f799 d7bd fa03 433e 01dc 713e
00000180: bb95 3e3c 88a6 e73d d497 05bd e904 ae3d
00000190: a508 74bd d9e9 57be 0fee 0b3e fc29 443d
000001a0: c3f0 52be e1da 8f3d de83 afbc be88 6f3e
000001b0: 4de9 2fbe c09a 033e f59a 07be 3cbd 8fbe
000001c0: 6925 56be d442 643e 0dbc 44bd 6dea c3bd
000001d0: 80fd fabc a5a0 363e 6662 32be 6664 adbc
000001e0: ddad e8bd 62ff 63be c06b 22be 0bdd f73d
000001f0: 5a1e 163e 0cdf 4d3e 6860 dbbd b3c6 3bbe
00000200: 8697 d3bc 0903 bb3d 59c3 51bd 41b5 763e
00000210: 470b 0dbe 4d04 fc3c a473 803e ef11 343e
00000220: 29a7 6f3d 854c c13d 7b9a 673e dd44 fa3c
00000230: e343 a83e d76b bfbd 429f ae3d 04da 61be
00000240: c332 15be 0195 003e 17a7 eebd 7952 cabd
00000250: 7120 63be eba7 e8bd b3ff 323e 7efd 273e
00000260: 4e62 a03e e722 983e 90c5 713e 2449 3bbe
00000270: c35e 9c3e 29d5 24be 0d4e 06be e302 013e
00000280: 3f73 71be 590d 2abe b568 893e 456c 8a3e
00000290: 2dfe ef3d e260 88bd c33e 783e 094e 213e
000002a0: b28d 8c3e 2858 43be c230 f83d da5c f6bc
000002b0: ca36 a93d fcfe fe3d a1ca 493e 630a 85bd
000002c0: 07a1 32bd f066 fe3d a08d 4dbe b69c ab3e
000002d0: 03a2 d33d 1f8e 8f3e d27a 913d f637 c3bc
000002e0: cf43 10bd 5996 debc aba3 9f3d 5737 903e
000002f0: 8ba5 16be f796 243e a647 fbbd eeb8 8c3d
00000300: 2391 1abd 44ed 3ebc cc92 44be f07a 253d
00000310: b923 f5bd d42f 35be 0d4a 733e f551 bfbd
00000320: c62c b53d 4e6d 3c3e 006d f33d 4c14 373d
00000330: 2069 81bd 8b05 04be 6f24 4dbb 163e 053e
00000340: 0cca 59be d248 2c3e 216f fdbd ac90 213e
00000350: 0684 123e a5dd 9cbc 644a 81bc f6df 2fbe
00000360: 3ec0 cf3d ea62 a83e 4553 b93e 88b8 6f3d
00000370: 8525 173e 4888 68be d7d4 3e39 2546 1ebe
00000380: 76f7 53be 0e87 e23c c228 5a3e 1838 733e
00000390: c360 69be f55f 01be 43c4 313e fd5e c53d
000003a0: 308e e0bc 07d1 3ebc 73b5 823e 7f1a 56be
000003b0: eb6a e9bd a8cb e83d 642c c3bb 202e 83bd
000003c0: 1ddd 543e 64bf 0e3e d0c2 003d 0ddf 193e
000003d0: 39e4 183e 5a6d 383d 3d7d 9c3e 2d6b 5dbe
000003e0: 3837 943e 9ce6 17bd 2f1b 433e ab74 5f3e
000003f0: b635 8abd 75c6 3c3e d579 91bd cb8d f5bd
-0.09339322 0.12536225 0.08949193 0.10207153 -0.0760966 0.13406083 0.31311214 0.10145349
0.12888977 -0.025728881 0.14210026 0.19001894 -0.06846643 -0.21908975 0.07733697 -0.28422952
-0.107092656 -0.18601121 -0.16140425 -0.15797909 -0.08912702 -0.34220943 0.07722526 0.2498606
0.25315306 0.30243433 0.14742967 0.1577428 0.31684747 -0.14878602 -0.23070861 -0.07181223
-0.241181 0.22094648 -0.17484908 0.004617418 -0.028065266 -0.22180535 0.1471205 -0.020309828
-0.16981572 -0.17236724 -0.023087038 -0.09125157 -0.24008687 -0.17262642 -0.12669319 0.018747635
0.1978711 -0.18394029 -0.2622648 0.27826118 0.002508603 0.20958614 0.25098646 0.10648087
-0.19535743 0.2404975 -0.24532807 0.25670668 -0.13471933 0.057086006 0.0051056794 0.22432551
-0.20746572 -0.28057587 0.13746095 0.26662993 0.106859244 0.34798184 0.039128862 -0.10743596
-0.09579866 0.18508464 -0.089154795 -0.1126106 0.0113395145 0.021174388 0.04380765 0.1812176
0.175246 0.0833964 -0.17960167 -0.17736793 -0.0893003 -0.10375213 -0.00047508272 -0.020345645
0.1044488 0.041555174 -0.06616932 -0.11144605 0.19745187 -0.10527413 0.19044486 0.23619081
0.011632378 0.1131106 -0.032615498 0.0849703 -0.059578557 -0.210853 0.13665031 0.047891602
-0.20599656 0.0702417 -0.021425184 0.23392007 -0.17178841 0.12852001 -0.13242705 -0.28074062
-0.20912708 0.22291118 -0.0480309 -0.095661975 -0.030638456 0.17834719 -0.17420349 -0.021166038
-0.11361287 -0.2226539 -0.15861416 0.121027075 0.14660016 0.20104617 -0.107117474 -0.18337516
-0.025829088 0.09131438 -0.05121169 0.2409258 -0.13773833 0.03076377 0.25088227 0.17584966
0.058509026 0.09438423 0.22617523 0.030550415 0.32864293 -0.09346741 0.0852647 -0.22055823
-0.14570145 0.1255684 -0.116529636 -0.09879012 -0.22180344 -0.11360153 0.17480354 0.16405293
0.31325 0.29714128 0.2361052 -0.1828962 0.30541047 -0.16096939 -0.13115712 0.12598757
-0.23579119 -0.16606654 0.26837698 0.27035728 0.11718402 -0.06659104 0.24242692 0.15752424
0.27451855 -0.19076598 0.12118675 -0.030073572 0.08262403 0.12450978 0.19706203 -0.06496122
-0.0436106 0.124219775 -0.20073557 0.33517998 0.10333636 0.28038117 0.07103504 -0.023830395
-0.035220917 -0.0271713 0.07794889 0.2816722 -0.14711587 0.16073214 -0.12269525 0.0687121
-0.03773607 -0.011653248 -0.19196624 0.040400445 -0.11969704 -0.17694026 0.23758717 -0.09341804
0.088464305 0.18401071 0.118860245 0.04469709 -0.06318879 -0.1289274 -0.0031302234 0.13011965
-0.21268481 0.16824654 -0.12374712 0.15777844 0.14308175 -0.019148657 -0.015782543 -0.17175278
0.10144089 0.32887965 0.36196342 0.058525592 0.14760406 -0.22708237 0.00018199101 -0.15456446
-0.20699868 0.02765229 0.2130461 0.23751867 -0.22790818 -0.12634261 0.17360024 0.09637258
-0.02741155 -0.011646516 0.2552906 -0.20908545 -0.11397346 0.11366969 -0.0059562195 -0.06405282
0.20787473 0.13940197 0.031435788 0.15026493 0.1493081 0.04502616 0.305643 -0.21622916
0.2894838 -0.03708516 0.19053338 0.21821849 -0.06748526 0.1843508 -0.07103316 -0.119899355

Predict/fc2/MatMul f4 [32, 32]
00000000: 8666 a0be 6f43 8bbb 95d8 463e 79f9 053e
00000010: ffec 953e ecd9 94be e19b 1abe 8f17 2a3d
00000020: e611 483e 98e6 30be 77ee afbd dbf1 bebd
00000030: 50b2 113e 4082 3b3d 38f8 c33d 6f9f d43d
00000040: a7d0 8f3d 3fd4 cb3d 384c 8e3e 2dd8 d73d
00000050: 6c94 30bd 855a e63c d943 8fbe 98f2 b93e
00000060: 594d 19be bf9e 843e eb85 783e e495 673e
00000070: 3ec9 383d 11a7 35be d997 bc3e 8b3e 5a3e
00000080: f006 e73d 2532 903e 9e8f e8bd c121 2cbc
00000090: ad44 803e e3c4 933e a335 823d 3106 263e
000000a0: 5103 383e 712a 8f3d 7cc8 4ebe c8db 75bd
000000b0: 2ee0 703e 17e9 c03e 6e93 39be 47a8 0d3e
000000c0: 7311 b73d 8b3a aa3e 6ab8 37be 7c08 90be
000000d0: 6c66 9f3e 2309 5f3e bd54 b83d 6c72 313e
000000e0: 7ce7 9dbe 17c8 cf3e 706a 5ebe 63ca 2f3e
000000f0: 0687 7a3e 8690 fa3b 684c 13be ef81 63be
00000100: f264 e13d bfe5 fb3d 3161 863e 4d5d d43e
00000110: 0b91 92be 72c3 43be f524 33be ef80 84be
00000120: a827 6fbd 0851 9f3d 66da 42be 8ca2 b93e
00000130: bfd2 133e 31d8 9c3d bbdc 803c 68b4 34be
00000140: 4822 88be 80ad 94be da1a 4abe 6a55 613e
00000150: 9d5b 593e 4261 60be 0409 5cbe 7ff6 e83d
00000160: 4b23 31be b628 52be f773 353e bd00 9abe
00000170: abce 3a3d 7abe 35be 5edf 033e c26a b7bd
00000180: 0901 903e 09b3 963d ffb4 613e b619 9f3e
00000190: 5225 853d 68fb b13e b449 833e 6ccf b43e
000001a0: 8a86 903e bcc9 23be 06b8 e3bc 66af 8fbd
000001b0: d237 0abe 6771 6f3e 2dd8 2e3d 4800 63be
000001c0: e521 d1bd dff6 0f3e 0fba b8bd fc74 903e
000001d0: 0f8e 793d c405 943e 3f90 413e 9c06 1f3c
000001e0: c9e2 1cbe ce29 e6bc b791 41be 975d 42be
000001f0: 1e40 5f3e 62c7 363e ac4a 003e e35c 8bbe
00000200: 6326 bb3e 37be 1f3e 2134 223e 4397 6fbd
00000210: afd2 4dbe b430 8c3d ee80 76be a774 7e3d
00000220: 524a 2cbd 56c2 873e 925a c6bd 5063 9d3e
00000230: ecbc a3bd 2011 3f3e 565d 123c 28f2 0d3e
00000240: fc0f 37be c129 4ebe 9f29 8a3d 3f15 1d3e
00000250: be4e 0c3e c731 18bb 245f 71bd ec48 1e3c
00000260: b435 473e f237 9cbe f60e 0cbe 3b5a c33c
00000270: ab60 b73e 5222 24be 8c52 763d 81e8 21be
00000280: 8533 333e 0b9e 8c3e 1acf de3e ed3e d73c
00000290: 2227 4e3e b6b0 9ebe a8ff 1d3e 71b6 dc3d
000002a0: bf9f 05be 1984 353e a8b1 9a3e 3eee 853e
000002b0: f7a3 c23c 7d42 003e 27f6 d83d beb6 0dbe
000002c0: 05d7 433e dfaf 88be 0cd3 a6bd cadb 65be
000002d0: 9981 95be ba42 a33e 6101 e6bd f441 493e
000002e0: 3cac a43d b73e 893e 6734 833e bc7d 97be
000002f0: ce62 2c3d 859e 8b3e 1243 2d3c 3eb2 9c3e
00000300: c078 943e fd9c e6bd 6ef5 aa3e 4444 21be
00000310: 0992 debd 2b0c 0cbe a544 1cbd d288 a0bd
00000320: 7f9a d0bd 2485 b0bd 072b bc3e c9c3 46be
00000330: 4f94 99bd 4198 73be dfb7 ac3e 245e 5f3d
00000340: ffc6 223e 7ac5 59be 3481 773e 76b2 35be
00000350: daa8 69be 32c5 503e aed9 9cbe a416 463e
00000360: 44e9 6c3e 9599 16be d4b0 ef3d ee70 d6bc
00000370: f2c6 113c 3bd0 02be 220c ab3e ad42 8d3e
00000380: 8322 513e 3b58 abbd 4371 883e 2085 153e
00000390: 8f29 9bbe f5c2 3bbe 9a27 863c e66d 43bc
000003a0: f117 1fbd 9e6d 59be fa75 7dbc d121 80bd
000003b0: 837e 923d 8371 30be 08d5 8bbe 9d97 e93d
000003c0: 2671 553e f308 e3bc 19bc 8cbe 093b 803e
000003d0: 2de7 083e 1f3e 883d 0e0d 9bbe 9f95 36be
000003e0: 4516 11bd f4f7 84bc ed88 6e3d 881a 42be
000003f0: 2582 34be c01e a2bd 8055 a83d e711 fb3c
-0.3132822 -0.004249982 0.19418557 0.13083448 0.29282376 -0.2907251 -0.15098526 0.041526373
0.19538078 -0.17275465 -0.085904054 -0.09323474 0.14228177 0.045778513 0.09568828 0.10381972
0.07022219 0.09952592 0.27792525 0.10539279 -0.043110296 0.028119335 -0.2798145 0.36317897
-0.14970912 0.25902364 0.24269836 0.22615772 0.045113795 -0.17739512 0.368346 0.21312921
0.1128062 0.28163257 -0.11355518 -0.010506094 0.25052395 0.2886115 0.06357887 0.162133
0.17970015 0.06990517 -0.20193666 -0.060024053 0.23523018 0.37677833 -0.18122646 0.13833724
0.08938875 0.3324779 -0.17941442 -0.28131473 0.3113283 0.21780829 0.090005375 0.17328805
-0.3084067 0.40582344 -0.2172029 0.17167048 0.2446557 0.007646623 -0.14384615 -0.22217534
0.11005582 0.1229968 0.26246026 0.41477433 -0.28626284 -0.19117525 -0.17494567 -0.2587962
-0.05838743 0.07779127 -0.19028625 0.36256826 0.14435862 0.07658423 0.015730252 -0.17646945
-0.26588655 -0.2903862 -0.19736806 0.22005239 0.21226354 -0.21912101 -0.21487814 0.113751404
-0.1729862 -0.20523342 0.17720018 -0.30078688 0.04560725 -0.17748442 0.12878177 -0.08955909
0.2812579 0.07358367 0.22041701 0.31074303 0.06501259 0.3476212 0.2564217 0.353145
0.28227645 -0.15994924 -0.02779771 -0.070158765 -0.13497856 0.23383103 0.04268663 -0.22168076
-0.10211543 0.14059018 -0.09019863 0.28214252 0.060926493 0.2891065 0.18902682 0.009706166
-0.15320887 -0.028096106 -0.18903242 -0.18981014 0.21801803 0.17849496 0.12528485 -0.27219304
0.36552724 0.15599905 0.15840198 -0.058493864 -0.200999 0.06845227 -0.2407262 0.062122967
-0.042063065 0.26515454 -0.09685244 0.30739832 -0.07995018 0.18658876 0.008933386 0.13861907
-0.17877191 -0.20133115 0.0674622 0.15340136 0.13701913 -0.002322303 -0.058928624 0.009660941
0.1945408 -0.30511433 -0.13677582 0.023846736 0.3581594 -0.16028717 0.060137317 -0.1581135
0.17500122 0.27464327 0.4351738 0.026275123 0.20132115 -0.30994195 0.15429556 0.107769854
-0.1304922 0.17726173 0.30213666 0.26158327 0.023759825 0.12525363 0.10593825 -0.13839242
0.19124992 -0.2669668 -0.08145723 -0.22447124 -0.29200438 0.31886846 -0.11230732 0.19654065
0.080406636 0.2680566 0.25625917 -0.29588115 0.042086415 0.27269378 0.010575073 0.30604738
0.28998375 -0.11260412 0.33390373 -0.15748698 -0.10867698 -0.13676517 -0.038151402 -0.078385964
-0.10185718 -0.086191446 0.36751577 -0.19410624 -0.07498991 -0.23788549 0.33734033 0.05453314
0.15896223 -0.21266738 0.24170381 -0.17743859 -0.22818318 0.20387724 -0.30634826 0.19344574
0.23135859 -0.14707024 0.11703649 -0.026176896 0.00889753 -0.12774746 0.33407694 0.27589932
0.20423321 -0.08366438 0.26648912 0.14601564 -0.30305144 -0.18336089 0.016376305 -0.011928057
-0.03884119 -0.21233222 -0.015470022 -0.0625645 0.071530364 -0.17230801 -0.27310967 0.11405871
0.20843944 -0.027714228 -0.27487257 0.2504504 0.13369437 0.06652474 -0.30283397 -0.17830513
-0.03542163 -0.016231515 0.05823605 -0.18955433 -0.17627771 -0.07916021 0.08219433 0.030648185

Predict/op/MatMul f4 [4, 32]
00000000: f837 2abe 3d27 90be 0b31 89bc f2d0 40bd
00000010: f62b 703d 9ef4 f83d 6803 573e e982 f23e
00000020: d4fd ad3e 6996 983e a6ff dcbd c257 debe
00000030: 4b43 70be b2b2 c3be 1bcc f5be 504a a8be
00000040: 683f e1be a0a5 54be 8ff8 9a3e a705 00bf
00000050: 76fe 59be 28ec f23e fc9b 07bf 82c4 c43e
00000060: 3787 bc3e 68b2 463e 4f67 423d f433 153e
00000070: b047 b33c ab57 b7be 2ea0 2abf 23ad 9fbe
00000080: ee59 c03e 54b1 c8bd 4bb7 febe 5c4a 1abf
00000090: 4b64 80be bd1a 133e 2b6c b53e ceee d2be
000000a0: 6efb bebe cdcb 25bf 4377 b9be 05bb d43e
000000b0: 69d0 86bc 4be5 c1be 5de6 6ebe c11b 2abd
000000c0: 099d f4be 19d4 b23e d8c7 c5be c90a d23e
000000d0: ca9f b53d 09a4 fcbe a954 0dbe f84a 84be
000000e0: 3869 103e 05f3 e73e b60c 36bf 8b25 7e3e
000000f0: db10 a2bd 6306 dfbe e006 78be be64 dbbe
00000100: 8f09 1ebe c07f 1e3e ada1 9cbe 3fb9 0f3e
00000110: 2a6b 383e 7d8f e1be 1297 e4be bea0 92be
00000120: 012f ffbe 38dc e7be 3b65 553e 7cff 98be
00000130: 7950 dbbe 52be af3e f268 203e a6c7 82be
00000140: 5034 8c3e ee56 ba3e 8788 a93e 5950 833e
00000150: 249b 4fbe 2f69 2bbe 3e88 cc3e 1c24 0bbc
00000160: 43d6 01bf ed1d 343e 1fac 31bf 5986 babe
00000170: 771c 543e 3629 003f 0886 f03e cb99 f8be
00000180: bc42 e2be cbba e63e 46a1 8cbe d4c0 803d
00000190: d5ca 1cbf 3f89 e53d 8630 0abf e17e c4bd
000001a0: 0299 9c3e 4d8b 113e 5f28 cb3e afb4 973e
000001b0: b602 ecbe 89fc 8dbe 40c0 413d c770 b83e
000001c0: 4d76 8abe 2857 0cbf 47d2 ecbe ec18 893d
000001d0: f5e2 14bf c658 d43d 21ae 56bf 2de6 4dbe
000001e0: e31e a73e d7f2 c0be b266 4f3e 636e 2abe
000001f0: 1004 18bf d971 79be 30d5 20bf 6941 fa3e
-0.16622913 -0.28154936 -0.016747018 -0.047074266 0.058635674 0.12156032 0.20997393 0.47365502
0.33982718 0.29802254 -0.107909486 -0.4342633 -0.2346317 -0.3822227 -0.48007283 -0.32869196
-0.43993688 -0.20766306 0.3026776 -0.50008625 -0.21288475 0.47445798 -0.5297239 0.38431174
0.3682191 0.19403994 0.047461804 0.145706 0.02188477 -0.35809073 -0.66650665 -0.3118678
0.3756861 -0.09799448 -0.49749216 -0.60269713 -0.25076517 0.14365669 0.35434088 -0.4119782
-0.373012 -0.647641 -0.36223802 0.41548935 -0.0164568 -0.3787025 -0.23330064 -0.041530374
-0.47776058 0.34927443 -0.3862903 0.41023853 0.08868368 -0.493439 -0.13801827 -0.25838447
0.14102638 0.45302597 -0.71113145 0.24819009 -0.07913371 -0.4355956 -0.24221373 -0.42850298
-0.15433334 0.1547842 -0.305921 0.1403551 0.1800963 -0.44054785 -0.44646508 -0.28638262
-0.4984055 -0.452852 0.20839398 -0.2988242 -0.42834833 0.3432489 0.15665033 -0.25542945
0.2738366 0.36394447 0.33111975 0.25647238 -0.20274025 -0.16739343 0.39947695 -0.008492496
-0.5071756 0.17589541 -0.6940326 -0.36430624 0.20713983 0.5006288 0.46977258 -0.48554835
-0.4419154 0.45064387 -0.27466792 0.06286779 -0.61247 0.11207818 -0.5398029 -0.09594513
0.30585486 0.14213295 0.39679238 0.29630038 -0.46095818 -0.27731732 0.047302485 0.36023542
-0.2704338 -0.5482049 -0.4625418 0.066942066 -0.5815881 0.10368495 -0.8385945 -0.20107336
0.32640752 -0.37685272 0.20254019 -0.16643672 -0.593812 -0.24359836 -0.628253 0.4887803

Predict/conv2d/Conv2D f4 [1, 16, 16, 1]
00000000: e182 4ebd 8693 6a3d c6ec 1ebd 0940 afbb
00000010: b814 b73d 3f38 2839 0b87 c8bd e999 b53b
00000020: 0b1e 3236 77bb b83d 817c bbbd c176 05bd
00000030: 5679 033d f02b 55bc 1592 b63b b760 f0ba
00000040: b574 353d ac5b e83d 4288 753d e4e7 c23d
00000050: cf74 0ebc 651c f73d 5681 e13d c96c 853d
00000060: b420 97bc d03d 9ebd 67ab 21bd 6a36 13bd
00000070: 5dd5 89bd 11d4 b83d d1d9 3abd e5bd 73bd
00000080: 1458 043e 5d97 443d cedf 373d 0ff0 3f3d
00000090: 1b04 aa3c dee9 54bc de3a b73a e4fb 583d
000000a0: bad5 65bd c704 47bd 5745 dfbd c9df eabd
000000b0: 5e6b 3b3d 6368 aabb 138b 1c3d f6c7 68bd
000000c0: c72a fcbc 0792 ba3d 889b dd3b ca5f 76bd
000000d0: 6f97 a4bd c2d5 e23c b284 a3bb 0fc1 183b
000000e0: a05f b13d f6f9 0c3d a951 63bb 34f5 df3c
000000f0: f41a f5bd 6957 e23c d2d5 0e3c 26b1 883d
00000100: 40db 633c 3891 df3d b2d0 2cbd 96c5 77bd
00000110: 36ad 263d 144c 673d 1109 b63d 1ff4 b8bd
00000120: ed91 1d3b 6672 64bc f3a6 7f3d 36d3 24bd
00000130: ecf1 18bc 31c5 72bc 812b 9e3c 494e b4bd
00000140: f5fc 703d 9129 6c3d 5de2 0a3e 75df ba3d
00000150: cea4 ec3d 75ed ad3d f4d5 10bd 60dc 6c3c
00000160: 01f1 97bc da44 843d 7856 91bc 8a8f 2bbd
00000170: 3d99 afbc 189c f0bb e5e6 2a3c 4871 c53c
00000180: 3cf5 a53d 3044 423d 4ad8 64bd 262e be3c
00000190: 3442 5c3c 5dc7 71bd 7d6a f3bc 092e b13d
000001a0: 0aa7 15bd 760a 82bc 3d31 8cbd e7b6 853d
000001b0: 3e37 963b 993d 61bd 778f adbc 15c4 0dbb
000001c0: 34c2 83bd 7030 043d a58f be3d 8112 bf3d
000001d0: f371 c93d af29 163d 90df e53d f388 8a3d
000001e0: ab10 a03c dc49 a93d 700a 89ba 7edc b03c
000001f0: 737c 583d f34a 023d e194 b13d 1b6e e7bd
00000200: 215c 66bd 03c2 2b3d e25f 053e 1730 b9bc
00000210: fa76 cf3d efe1 c13c 3a1c 273e 00bd dcbc
00000220: 57ef 003e 31c6 b7bc ec1b 173c a093 533d
00000230: 0528 b5bd 5cdd 07bd afa3 b4bc 7b90 1abc
00000240: e057 663d ddfc d83d dc40 b93d 3fa9 023e
00000250: be98 273e 2d74 f63d 455c d73d 9872 173e
00000260: 6973 3d3e a8d5 273e 209c babc 1081 0a3e
00000270: 173a 92bd cb61 cb3a 896a 7d3c 010f b23c
00000280: 083c dc3d f834 3cbc 5fb9 86bc 201c ea3d
00000290: 639e 2f3d 7fbc 2d3e af92 c6bb 17eb a43d
000002a0: 0406 243e 5188 a03d c0c8 1e3e a118 873c
000002b0: ccd5 373d 8b0c 58bd 18cd 3abd 55cf 95bc
000002c0: 69d4 473c a03e c63d 9527 65bd ec78 613d
000002d0: 5154 80bc 59f0 213d 4240 f03d d12e 443e
000002e0: b2ed 323e 2d3d 0c3e 1137 9e3d 0625 223e
000002f0: 52ba a23d 3506 353c 6298 033d 794f 9e3d
00000300: 21a8 dd3d 7030 acbc ee24 bb3c 01ee 13bd
00000310: ffbf 1abc c616 943c 5dfa c73b fd98 b2bc
00000320: fd20 d63d 597c 26bc 8d6c 233e 963b ea3b
00000330: 3bdf a13d fbef e33b 7131 81bc 206f af3d
00000340: b5ef a23d 2b07 903d 44be 0e3d dc8a 243d
00000350: e8f1 d73d 0867 bb3c 4b4f bb3d 258b 073e
00000360: 1ffe a6bc b24d 353e 9789 313e f51d f2bc
00000370: 7f62 913d 644f de3d 5ed4 da3d 3dfe 80bd
00000380: 29eb 9abc 6774 c3bd 5bfe ba3d a47a 1abd
00000390: ff09 d6bc a7ee 4bbd c041 f93d 38ae a23d
000003a0: 50f2 cf3c 87bd 2cbd cdc2 203c 4767 0b3e
000003b0: d9be f53b 5d7d d43d 6a46 9a3d 8c4e d63c
000003c0: f618 0dbd f0d3 9c3b fc48 94bb d9c2 b6bc
000003d0: c541 9c3c d47d 163d 04c1 073d d54f 4ebc
000003e0: 981a d7bc cd6f 7abd 9333 4b3d 58a3 5d3d
000003f0: 6970 123e a2fb 4d3d 5b93 dd3d e8d5 5b3d
-0.050417785 0.057269596 -0.038800023 -0.0053482098 0.08939499 0.00016042682 -0.097913824 0.005542029
2.6541554e-06 0.09020131 -0.091546066 -0.032583956 0.032098137 -0.013010964 0.0055716136 -0.001833937
0.044300754 0.1134561 0.0599444 0.09516886 -0.0086948415 0.12065963 0.11010997 0.0651489
-0.018448211 -0.077266335 -0.039470103 -0.035940565 -0.06730149 0.090248235 -0.045617882 -0.05950727
0.12924224 0.047995914 0.04489117 0.046859797 0.02075391 -0.012995211 0.0013979336 0.052974597
-0.05611203 -0.04858854 -0.109018974 -0.11468465 0.04575669 -0.005200432 0.03821857 -0.056831323
-0.030782117 0.09109884 0.0067629255 -0.060149945 -0.08036696 0.027689818 -0.0049901837 0.0023308431
0.08660817 0.03441807 -0.0034686124 0.027338602 -0.119680315 0.027629571 0.008717971 0.066744134
0.013907254 0.1091637 -0.042191215 -0.060491167 0.04069253 0.056469038 0.08888448 -0.090309374
0.0024043277 -0.01394329 0.062415075 -0.04024049 -0.009335022 -0.014817522 0.019307854 -0.08803994
0.05883499 0.05765683 0.13562913 0.09124652 0.115548715 0.08492557 -0.03536029 0.014456838
-0.018547537 0.06458445 -0.017741427 -0.041884936 -0.021435374 -0.0073428266 0.010431026 0.024101868
0.08103415 0.04742831 -0.05587033 0.023215365 0.013443518 -0.05902802 -0.029713864 0.08651359
-0.036536254 -0.015874129 -0.06845329 0.065290265 0.004584222 -0.054990385 -0.021186573 -0.0021631767
-0.06433526 0.032272756 0.09304742 0.09329701 0.09836187 0.036660846 0.11224282 0.06764402
0.019539198 0.08266041 -0.0010455381 0.021589514 0.05285306 0.03180976 0.086709745 -0.11300298
-0.056240205 0.04193307 0.13024858 -0.022605939 0.10130115 0.023667304 0.16319361 -0.026945591
0.12591301 -0.022433372 0.009222966 0.051654458 -0.08845524 -0.03317009 -0.022050707 -0.009433861
0.056236148 0.10595105 0.09045574 0.12759875 0.1636686 0.120338775 0.10515646 0.14789808
0.18501057 0.16390097 -0.022779524 0.13525796 -0.07139986 0.0015516815 0.0154672945 0.02173567
0.107536376 -0.011487238 -0.016445814 0.11431146 0.04287566 0.16966437 -0.0060599665 0.08052652
0.1601792 0.078385 0.15506268 0.016491236 0.044881627 -0.052746337 -0.04560575 -0.01828734
0.012196639 0.096799135 -0.05594595 0.05504696 -0.015665205 0.039535854 0.11731006 0.19158484
0.17473486 0.13695212 0.07725347 0.15834436 0.07945694 0.011048843 0.032127745 0.07730002
0.10823084 -0.02101919 0.022844758 -0.03611565 -0.0094451895 0.018077265 0.0061028437 -0.021801466
0.10455511 -0.010161483 0.15959378 0.0071482165 0.07903906 0.006956098 -0.015770646 0.08566117
0.07955877 0.07032617 0.03484942 0.04017149 0.10544187 0.022876278 0.09145983 0.13236673
-0.020384846 0.1770542 0.17337643 -0.0295553 0.07098865 0.10854986 0.10685037 -0.06298492
-0.018910961 -0.09543686 0.09130546 -0.037714615 -0.026127813 -0.049788143 0.12170744 0.07943386
0.025384098 -0.042172935 0.009812069 0.13613616 0.0074995575 0.10375474 0.07532962 0.026160501
-0.034447633 0.004786007 -0.004525302 -0.022309707 0.01907433 0.036741093 0.03314306 -0.012592276
-0.026257798 -0.061141778 0.049609732 0.054110855 0.14300694 0.050288804 0.108191215 0.053670794

Predict/layer_conv1/Conv2D f4 [4, 3, 3, 1]
00000000: 37cb 633e 0d17 0d3d 5bf4 a9be eb05 4d3e
00000010: 8334 ce3c 97c9 4e3e a71f 8fbd 9eaa 803e
00000020: f37f 273e b939 4ebd 72d5 7abc 9a26 ba3c
00000030: 90fe ebbd 1a64 9fbe 4ac3 cd3d 5f1e 6b3d
00000040: fcfa 8e3e 15ad 99be e7af 4d3e 7530 a3be
00000050: 914f d3bd 3578 0bbe 8385 253e 7a33 993e
00000060: f2ec b5be 4671 4abd 4c87 98bc d93b a63e
00000070: 6b4b c5bd 414b 413e 11a3 8a3e 68d2 b8be
00000080: 69e0 94be abef 92be f0b2 a0be fdc5 973e
0.22245489 0.03444581 -0.3319424 0.20021789 0.025171524 0.20194088 -0.06988459 0.2513017
0.16357403 -0.050348017 -0.015309678 0.022723485 -0.11523163 -0.3113106 0.10047014 0.05740201
0.2792586 -0.30014864 0.20086633 -0.31872907 -0.103179105 -0.13620074 0.16164212 0.29922086
-0.35532337 -0.049424432 -0.018619202 0.32467535 -0.096335255 0.18876363 0.27077535 -0.36098027
-0.2907746 -0.28698477 -0.31386518 0.2964324

Predict/layer_conv2/Conv2D f4 [8, 3, 3, 4]
00000000: 762c 153d 6ba7 ef3b 2be7 653e d3bd 6dbb
00000010: 7c72 7e3e c0cd 1c3e 7e6a a13c 8d42 653e
00000020: a75a 083e 8dca 5d3e 2af3 7e3e 1fc6 4e3d
00000030: adaf 49be 42d6 b2bc 212e 4abe bd06 0a3e
00000040: 1d56 51be 5d8f 623e 44bb f43d 75f7 e6bd
00000050: e797 0a3e 436f 47be e0ef 563b 6ab9 f8bd
00000060: 7df6 52be a9a0 12bc 1023 873d 99a6 3638
00000070: cbbd 71bd e657 eebd bbb0 2b3d fa7f 833e
00000080: 3777 543e 88d1 973d 8f1e f53d 2788 51be
00000090: a6ff 4dbd 63e2 afbd 420a 2a3e 9024 5cbd
000000a0: 903a 863d 415c 42be 1bf8 b1bd c864 003e
000000b0: e40f 8f3d 4696 12be 4238 babc c7b1 5e3e
000000c0: 63b8 90bd 7634 0cbe 56a8 4fbd 3258 6cbe
000000d0: 8f71 81bb af36 603d 7d39 b9bd 6a22 9abd
000000e0: 921a 743b 3da1 553e c9e3 8ebd 1629 3cbb
000000f0: 1a64 0abe fe02 73bd cb12 1f3c ded9 633e
00000100: 77b7 e53d b00b 213e 7900 99bd c4b6 073e
00000110: 5c0b 0f3e a358 7d3e 2ac4 4c3d 0f94 d3bd
00000120: 41e7 c43b 7dbb 163e 202c 3e3e 4cc0 473e
00000130: 4a96 2c3d 5b52 423e b39d dc3b 1197 9a3e
00000140: cfb0 803e 7f4f 0cbc 6950 db3c db4f db3d
00000150: 8642 14be 51e3 133e 2db4 75bd 7073 74bc
00000160: 0339 68bc 2117 1b3e fea3 ed3d 935b 2a3e
00000170: af04 643e b9fd c13c 962c dabd ddf5 adbd
00000180: ff33 f83d b296 0cbd 4c6b 3b3e b539 193e
00000190: 1801 583e a711 b03d 639b b83d feb8 203e
000001a0: 8f96 f0bd e7bc 35be c1e2 e53d b0de 6e3e
000001b0: e7f6 273e 374a 9e3d 1337 3bbe 95aa fe3d
000001c0: a7c7 903d 9593 5fbe 13ef b3bd df5c 3bbe
000001d0: d0ce 743e 4b15 4cbc 7de2 283e 52cd 443d
000001e0: 54bc 1b3e 9387 4dbc b093 e83d df21 a03d
000001f0: 167f 09be 8ea3 26be ef73 14bd b470 1fbd
00000200: 5f8e 44be 9051 5c3e c60a 72be 17a0 e43c
00000210: 187a 8e3d c1b6 02be 6955 f0bc 1279 f7bd
00000220: b629 453c 73ba 853e a128 c4bd 54f1 acbc
00000230: b455 af3c 2bae 3ebc 61f9 21be 343b 7b3d
00000240: cd87 2ebe fe04 953b 2aa7 0cbe fb07 983c
00000250: 1d2a babd 5c6c 0d3e c831 703e 4f91 53be
00000260: 8642 4cbd e650 70be 9143 573e 5e98 11be
00000270: a209 803e f47f d5bd e2c9 263d 6ec0 e13d
00000280: 9a7d 693d 4fb7 59be e48e 843e f5bb 253e
00000290: e691 8e3c a740 30be d5a9 84be a559 313e
000002a0: 07fb e2bd 733b bd3d e3bc 873e fcb4 dc3d
000002b0: 75ca ddbd 09cf 8ebd 6038 a33d f9a2 603e
000002c0: ec11 243d cd40 81be 3117 e0bd 212e bebd
000002d0: 8a31 5d3e b1e6 28be ff99 523e 48f4 2bbe
000002e0: 982d 7b3e 1ed2 a3bc a30e e83d e6b0 663d
000002f0: a527 a6bd a126 e73d 5773 78be 8d98 2b3e
00000300: 064e 3ebe 9040 9d3c 9d05 193e 9dc2 963d
00000310: 0d50 1fbe 13ac 3bbe a4a3 8f3d 5f17 98bc
00000320: 7e77 51be f82d d3bc 5e33 173e a406 c43d
00000330: ff02 7fbd 8e15 283e 3b1f b2bb 5c96 833e
00000340: 98fd 43bd 28c6 50be 4c5f 283d 8a8e 8dbd
00000350: 3083 1c3e e0b4 3a3e 3e76 43be 87ce 553e
00000360: f0c2 56bd 69e4 5e3c 024c e23c 277e 193e
00000370: f4b8 e53d 70c6 86bc 0c23 e53c a893 6bbc
00000380: 117c 8abd d4de a3bd 4f35 30be 4e77 28be
00000390: 9824 32bd 9129 cdbd 8b6d 10be a952 f6bd
000003a0: 8d0c 343e 8253 1ebd 4f18 013d a8b3 8dbd
000003b0: d172 34bd 6a39 873e b527 4f3e 8c80 31be
000003c0: d17c ea3d 5c66 be3d 7809 093e 23fd 28bd
000003d0: 9a70 963d c1b2 cb3c 81b9 173e ef7b 8f3d
000003e0: 0a43 7b3e 1127 58bd ab35 06be d05c d8bd
000003f0: b792 b83d 68c6 203e 6850 303d ef4e 553e
0.036419354 0.007313659 0.22451465 -0.0036276474 0.2484836 0.15312862 0.0197041 0.22388668
0.13315831 0.21659298 0.24897447 0.05048191 -0.19695921 -0.021830682 -0.1974416 0.13479133
-0.20443006 0.22125001 0.119497806 -0.112776674 0.13534509 -0.19476037 0.0032796785 -0.1214474
-0.2060184 -0.008949437 0.065984845 4.3547338e-05 -0.05901889 -0.11637859 0.04191659 0.25683576
0.20748602 0.07413012 0.11968719 -0.20462094 -0.050292633 -0.08588102 0.16605476 -0.053745806
0.06554139 -0.18980505 -0.086899005 0.12538445 0.06985453 -0.14315137 -0.022731904 0.21747504
-0.07066419 -0.13691887 -0.050697647 -0.23080519 -0.003950305 0.05473965 -0.09044168 -0.07526095
0.0037247282 0.20862289 -0.0697704 -0.0028711013 -0.13514748 -0.059329025 0.00970907 0.22251078
0.11216634 0.15727115 -0.07470793 0.13253313 0.13969177 0.24740843 0.049991764 -0.10330974
0.006009013 0.14719959 0.1857152 0.19506949 0.042135514 0.18976729 0.0067326664 0.3019338
0.25134894 -0.008563875 0.026771741 0.107085906 -0.14478502 0.14442183 -0.059986282 -0.014920101
-0.014173749 0.15145542 0.11603545 0.16636495 0.22267412 0.023680555 -0.10653035 -0.0849416
0.121192925 -0.0343234 0.1830265 0.1496342 0.21094167 0.08597117 0.09014013 0.15695569
-0.11747467 -0.17747842 0.112248905 0.23327136 0.1640278 0.07728999 -0.18282728 0.1243488
0.07069331 -0.21833642 -0.08785834 -0.18297146 0.23907018 -0.0124562485 0.16492648 0.04804737
0.1520856 -0.01254453 0.11356294 0.078189604 -0.13427386 -0.16273329 -0.036243375 -0.03892584
-0.19194935 0.21515489 -0.23636922 0.027908368 0.06956881 -0.12765028 -0.029337602 -0.12083639
0.01203387 0.26118812 -0.09578062 -0.021111168 0.021403171 -0.011638205 -0.15817787 0.061335757
-0.17043991 0.0045477143 -0.13735643 0.018558493 -0.09090064 0.13810867 0.2345649 -0.206609
-0.04986813 -0.2346836 0.21021868 -0.1421828 0.2500735 -0.10424796 0.040719874 0.11023031
0.05700455 -0.21261333 0.25890267 0.16184981 0.017403554 -0.17212163 -0.25910822 0.17319353
-0.11083036 0.09239855 0.26511297 0.107767075 -0.10829631 -0.069730826 0.07969737 0.21937169
0.040056154 -0.25244752 -0.109419234 -0.09286142 0.21600929 -0.16494252 0.20566557 -0.16792405
0.24529111 -0.019997653 0.11330917 0.056321047 -0.0811303 0.11286665 -0.24262749 0.16757412
-0.18584451 0.019195825 0.14943548 0.07361338 -0.1555788 -0.1832736 0.07013634 -0.018565832
-0.20455739 -0.025778756 0.14765689 0.09571579 -0.062258717 0.16414472 -0.005435852 0.25700653
-0.047849268 -0.2038809 0.041106507 -0.06911953 0.15284419 0.18233061 -0.19088075 0.20879565
-0.052432 0.013604262 0.027624134 0.1498953 0.11216918 -0.016452044 0.027970813 -0.014378466
-0.06761945 -0.080014855 -0.17207836 -0.16451761 -0.04349193 -0.10017694 -0.14104287 -0.12027485
0.17582913 -0.038653858 0.031517323 -0.06919032 -0.04405481 0.2641099 0.20229991 -0.17334193
0.11449588 0.09296867 0.13382518 -0.041257035 0.07345696 0.02486551 0.14816858 0.0700606
0.24537292 -0.05277163 -0.1310641 -0.105645776 0.09012359 0.15700686 0.04304543 0.20830892
