v3/PreConv_Spark_Quantized.tflite (tflite, 42832 bytes, 27 tensors)

Predict/op/BiasAdd/ReadVariableOp/resource f4 [4]
00000000: a794 3cbe 40cd 72be 7eb4 bd3e 2d82 1dbe
-0.18416081 -0.23711109 0.37051767 -0.1538169

Predict/spark1/expand1x1/BiasAdd/ReadVariableOp/resource f4 [32]
00000000: 1a07 cfbb 841a 913e 5d12 f6be 4d5a 213e
00000010: 2707 053e ee89 413d c254 4f3e 1e20 2fbd
00000020: 9468 3abf 24c9 cdbb 10ec 1bbf 791b 31bd
00000030: 52e7 1abf 0612 90be 2472 1dbe 4cb0 833e
00000040: b8b2 4fba 37d6 90be db04 20bf 46f5 a53d
00000050: 3c06 f33d e172 573e 0000 0000 490e cfbb
00000060: a8f6 9d3e b713 f8be dbf3 f8bc 233c 9e3e
00000070: 9943 3e3e e28b ccbe de51 b6bb 52be 11bd
-0.0063179852 0.28340542 -0.48060885 0.15757103 0.1299101 0.04725068 0.20247176 -0.04275524
-0.72815824 -0.0062800813 -0.6090708 -0.04323909 -0.60509217 -0.2813875 -0.15375572 0.2572044
-0.00079230545 -0.28288433 -0.6250741 0.08103423 0.118664235 0.21039917 0.0 -0.0063188416
0.30852246 -0.4845254 -0.030389717 0.30905256 0.18580474 -0.39950472 -0.0055639585 -0.035581894

Predict/spark1/expand3x3/BiasAdd/ReadVariableOp/resource f4 [32]
00000000: 9317 92be e16c f0bc 963b 04bf e9da edbe
00000010: 9956 9cbe 6fe2 adbd 226b a83d c083 35be
00000020: 38e5 43be 7c70 8b3e 69fb eebc 1d43 85be
00000030: 99a2 6d3d 050b 2e3d 786b e9be 68fe 8a3d
00000040: b788 b9be 6aaf cebd 5372 0bbf 3d14 3c3e
00000050: 1890 56be a93e 8d3e cef2 9bbe ea1d a4be
00000060: c213 4dbe b2c9 dd3d 2cbd 1ebe 4d24 dc3b
00000070: 8aaf 643d a5d3 e1be 0dee fcbc eb9b cc3c
-0.2853361 -0.029348793 -0.5165342 -0.46456078 -0.3053482 -0.084904544 0.08223559 -0.1772604
-0.19130409 0.27234256 -0.029172616 -0.26027766 0.058016393 0.042490978 -0.45589805 0.067868054
-0.36237118 -0.10092051 -0.5447132 0.18367095 -0.20953405 0.27586868 -0.30458683 -0.32054073
-0.20027068 0.10829486 -0.15501851 0.0067181946 0.05583147 -0.44106784 -0.03087523 0.024976691

Predict/spark1/squeeze1x1/BiasAdd/ReadVariableOp/resource f4 [8]
00000000: 0000 0000 0000 0000 0000 0000 1211 a6be
00000010: 8a9a 1abf dba7 2cbf 0000 0000 d9a9 21bf
0.0 0.0 0.0 -0.324349 -0.6039206 -0.6744363 0.0 -0.6314979

Predict/spark2/expand1x1/BiasAdd/ReadVariableOp/resource f4 [64]
00000000: 7952 443d d1e8 88be 25e1 97bd fbba 903e
00000010: 6897 253e 5cb5 bc3d a48b 8dbe 3466 c3bd
00000020: d25f 53bd d8b3 02bd c900 8a3d 089d fcbd
00000030: b022 8e3d eca0 a73e d591 65bd 3df2 40be
00000040: 88b7 46be 4150 dfbd 99f6 563c 518c 50be
00000050: 4217 ba3e 179d b1be c094 0abf 49fd 523d
00000060: 535c 27bf 3194 e1bd 8af3 743e e994 b73e
00000070: a51e e5be 748a 303d 0e64 673e d178 04be
00000080: 3110 933e 071a 80be 8202 813e bc0f 8fbe
00000090: ba8f 9f3e c67a a1bb 7e0d 9e3d 1e75 b53d
000000a0: 153d ef3e a786 3dbd 006f aabe 3d05 d7be
000000b0: e6ee 57bd 1661 cebd 1f3a eb3d a72f 1b3e
000000c0: 2aac 4dbe d899 e8be 3370 63bd 4fad 2fbe
000000d0: 2cd6 4abe e86e 4a3e 931d 833d 95e8 07be
000000e0: 2578 903b 2135 0b3e d930 263e 994b aabe
000000f0: be7c 2bbe d2c6 28bd 8760 3ebe 4ce7 143e
0.047930215 -0.26740125 -0.0741599 0.28267655 0.16171038 0.09214279 -0.276456 -0.09540978
-0.051605053 -0.031909794 0.06738431 -0.12334639 0.0694021 0.3273996 -0.05604728 -0.18842407
-0.19405949 -0.10903979 0.013120317 -0.20366026 0.3634587 -0.34690163 -0.54133224 0.051511083
-0.6537525 -0.110145934 0.23921028 0.35855797 -0.44749942 0.04310079 0.22596762 -0.12936713
0.2872329 -0.25019857 0.25197226 -0.27941692 0.31164342 -0.004927966 0.07717417 0.08860229
0.4672629 -0.046270993 -0.3328781 -0.41996184 -0.052718066 -0.100771114 0.11485695 0.15154897
-0.20085207 -0.45429873 -0.055526923 -0.17155956 -0.19808263 0.1976887 0.06402125 -0.13272317
0.0044088536 0.13594486 0.16229571 -0.332608 -0.16746804 -0.041205235 -0.1859151 0.14541358

Predict/spark2/expand3x3/BiasAdd/ReadVariableOp/resource f4 [64]
00000000: 38d6 b2be 85a1 f03b e131 1cbf 1d45 77be
00000010: 5b16 62be 1445 043d 78b3 6fbe ebda 53be
00000020: 5c81 cebe 6dcd 87be 60db 923d f94a a03c
00000030: a624 7ebc 599d 56be 97a1 5e3e 1d83 9cbe
00000040: 64f7 a2be cb92 9f3d 67a4 a7be 16be 283e
00000050: f3c9 d6bd 9289 d8be 5f7a 29be 63fe c7bd
00000060: 6fc7 abbe 451b 01be 079e 5bbe edb4 343c
00000070: 3dd6 7bbe 7b48 47be 0a44 2abe 13b9 71be
00000080: 1be3 fdbe 7a6a 95be bffa 98be e5a6 57be
00000090: 434e b9be 7a80 b9be d0aa 2abe 92a7 3ebe
000000a0: f86b c9bc f052 65bd 202a 07bf 1fd7 65be
000000b0: 6a7a 21be e1fa 15be ca7a 88be f825 aebd
000000c0: 550a c6be df5b 03bd 8575 cbbe 563e 39be
000000d0: 4d24 8dbe 3d2e d1be 79ab debe 8281 ba3c
000000e0: f395 1cbd 2405 c5be f431 a7bc 991e 803e
000000f0: f5c7 2dbd 0594 6ebe 8f1c 80be 8ed3 abbe
-0.3492906 0.0073434734 -0.6101361 -0.24147458 -0.2207884 0.03229244 -0.23408306 -0.2068898
-0.40333068 -0.26523915 0.07170749 0.019567 -0.015511667 -0.20958461 0.21741329 -0.30568781
-0.3182937 0.077916704 -0.32742617 0.16478762 -0.104877375 -0.42292458 -0.16550587 -0.09765317
-0.33550593 -0.12608059 -0.21447001 0.011029464 -0.24593444 -0.19461243 -0.16627517 -0.23605756
-0.4958733 -0.29182798 -0.29878804 -0.21059759 -0.3619252 -0.36230832 -0.16666722 -0.1861861
-0.024587616 -0.0559873 -0.5279865 -0.22445343 -0.15769354 -0.14646484 -0.2665618 -0.08503336
-0.38679758 -0.032070037 -0.39738098 -0.18090186 -0.27566758 -0.4085559 -0.43490198 0.022766832
-0.03822894 -0.38480484 -0.020409562 0.25023344 -0.042427022 -0.23298652 -0.25021788 -0.3355984

Predict/spark2/squeeze1x1/BiasAdd/ReadVariableOp/resource f4 [16]
00000000: 70e3 fbbd 9925 c5be 44e5 6cbe 655c 2e3d
00000010: 9e02 87be 7a19 8f3d b764 f7bd 432f f7bb
00000020: c14e 0dbf 6d83 3dbe 308b 2bbd d8e4 d5be
00000030: 1438 b53e 3f91 073e 27a4 813d 8958 ddbc
-0.1229924 -0.38505247 -0.23134333 0.042568583 -0.26369184 0.06987281 -0.12079757 -0.007543476
-0.55198294 -0.18507166 -0.041880786 -0.41776156 0.35394347 0.13239 0.06330138 -0.027019756

Predict/spark3/expand1x1/BiasAdd/ReadVariableOp/resource f4 [128]
00000000: 4b1a 6b3d a714 653d 28fc 9fbe 765e 99bd
00000010: 4dc7 583e bd04 a9be 02c1 93be 20f3 04bf
00000020: 58ca 50be 1e5d e5be 85a2 f0bd 6a55 27bd
00000030: 8123 6d3d e0ab 62bd 0d62 33bf 4a26 ca3d
00000040: c592 bdbe d121 b5be 4ab6 29be f8e8 a3bc
00000050: 37d8 063d dab6 b3be a476 a7be f7a0 983c
00000060: ea37 debd 75f6 90be 24c6 92be 1180 ecbd
00000070: f54f c1be 0bec a3be 7878 263e 15f5 4bbe
00000080: 82c5 163e 793b 06bf 964a b1bd 39c5 39be
00000090: daa4 4ebe e1d1 76be 4977 733c cb9b f7bd
000000a0: 89a6 a3be 0a46 8bbe a3ed a3bd a274 e9be
000000b0: 095c 1dbc 5982 37be dd0b 13be 1a4f 243e
000000c0: 7c9e b73c 585a 4ebe 1743 31be 7a47 5d3e
000000d0: 6d97 a0be 000e 14be 3715 4bbe 310e 05be
000000e0: a284 20be eece 17be 6b8e 08bf 134d 233e
000000f0: 91a8 89be d850 27be d6f9 1fbf ee3e 9a3c
00000100: 783a 673c 324a c9be 9380 443e 75ad 4b3e
00000110: fe9f 803d 9e23 46be 8070 33bd 2a96 0fbc
00000120: 1aa7 36bd 683c c9be 714e 133e df29 b3be
00000130: 6a0f babe c4c3 acbe a543 043e 0429 3b3d
00000140: 4226 bb3d 814b 233e 00eb 00bd d339 9ebe
00000150: 07c2 973b fe71 efbe 11f7 adbd 9941 46bd
00000160: bb55 ab3d 1cdd bbbd 548e 373e 6108 b4be
00000170: 68fd 1cbe 414e aebd daf1 59be 0f47 44be
00000180: 453d a4be e88a 7cbd 4e70 5f3d 3374 95be
00000190: e8ca 11bf b145 46be c023 a6be c67b 763d
000001a0: 6996 90be d914 4cbe ff0f ca3d 82b8 05be
000001b0: 8740 01bf 7e17 03bf 9ea6 83be 6185 bebd
000001c0: 59d7 bbbe 1b57 1abe eb53 6ebe 4a2d 05bf
000001d0: 0293 c4be 5eec ed3d 13e2 053e 10f4 28bd
000001e0: 7b78 fbbd 00dc 31be cbba 3b3e ec26 9cbe
000001f0: b712 6a3e 9b52 a9be e0db 753c b53d 7c3d
0.05739812 0.0559279 -0.31247067 -0.0748872 0.21169777 -0.33011428 -0.2885819 -0.5193348
-0.20389688 -0.44797605 -0.11749748 -0.04085294 0.057895187 -0.055339694 -0.7007149 0.09870584
-0.3702604 -0.35377362 -0.16573444 -0.02000855 0.032921042 -0.35100442 -0.32707703 0.018631442
-0.108505085 -0.28313032 -0.28666794 -0.11547864 -0.37756315 -0.32016024 0.16256893 -0.1991771
0.14723781 -0.524345 -0.08656804 -0.1814164 -0.20180073 -0.241035 0.014859983 -0.12090262
-0.31962994 -0.27201873 -0.0800431 -0.45596796 -0.009604462 -0.17920817 -0.14359994 0.160458
0.022414438 -0.20151651 -0.17310749 0.21609297 -0.3136553 -0.14458466 -0.19832312 -0.12993695
-0.15675595 -0.14825031 -0.5334231 0.1594737 -0.26886418 -0.16339433 -0.62490594 0.018828835
0.014113061 -0.3931442 0.19189672 0.19890387 0.06280516 -0.19349524 -0.04380846 -0.008763829
-0.044592954 -0.393039 0.14385392 -0.34992883 -0.36339885 -0.33743107 0.1291643 0.045693412
0.091381565 0.15946771 -0.031474113 -0.3090349 0.004631284 -0.46766657 -0.0849439 -0.048402403
0.08365961 -0.09173033 0.17925388 -0.35162643 -0.15331042 -0.085110195 -0.21283665 -0.19167732
-0.32077995 -0.06165591 0.05455046 -0.29190215 -0.56950235 -0.19362523 -0.3244915 0.060176633
-0.28239754 -0.19929828 0.09866332 -0.13058665 -0.50489086 -0.5120772 -0.25713056 -0.09302784
-0.36687735 -0.1507229 -0.232742 -0.5202223 -0.38393408 0.11617349 0.13074522 -0.04124838
-0.12278839 -0.1736908 0.18332975 -0.30498445 0.22858702 -0.33070835 0.015006036 0.061582286

Predict/spark3/expand3x3/BiasAdd/ReadVariableOp/resource f4 [128]
00000000: 47f7 0e3e 067c efbd bfe0 84be a099 c33d
00000010: 1a61 b7be bfb9 503d 9953 88be 8ab6 dfbd
00000020: 957d 48bd 5807 dbbe 9a1b 3ebe e3b0 193e
00000030: fed9 49bd c64b debe 50fe cc3d fe84 d6be
00000040: 67b0 97bc 48c7 7fbe bf01 f5bd 24ec 50be
00000050: e565 c9be e6fe 513e 522c 64be 16c6 453e
00000060: 8484 b0bd b3e5 d1be 0f04 8fbe ee8a 13be
00000070: f491 b1be a598 97be 5ddb 97be ed52 52be
00000080: f3fe 4dbd a24c 3a3e 1c81 3fbe b497 54bd
00000090: b236 bdbe e8c1 72be 6860 013e abb6 acbe
000000a0: 53cb 66be 6108 833e 64b4 1dbe e90e 60be
000000b0: 278b 283e 44f0 3cbe 7a6f 86be 7c6b 00be
000000c0: 301b 1bbc 423b a2be c88b d6be 80ac 943d
000000d0: 1bf9 9dbe dee9 2f3e 21e7 82be c5ed fbbd
000000e0: 6de6 6a3e a49f 8abe d33b 90bd b656 763d
000000f0: 1e4c 63be f104 153e a7db b7bd c017 fdbd
00000100: bcad 75be 68ca b9be cdf2 293e 2b66 80be
00000110: afd4 9d3c 7232 4a3e 9b4d 383e becd 4f3e
00000120: e4c0 123e 1e88 68be 1cdc 81be c4e4 063e
00000130: 29c0 61be 304b 5bbe 094c a3be f039 18bc
00000140: f388 8abe 08f8 b7be 6145 3dbe 6e1d 223e
00000150: ce82 2abe 6d20 57be 2577 21be 634d 8bbd
00000160: 24a1 5fbd d9c0 55be b839 ccbe 2d74 e5be
00000170: 0c5c 97bd 74d6 b1be 3ee7 4abd 6e34 18be
00000180: 83b0 83be 2d5e b2be 9554 36bd 882a bcbe
00000190: f473 81be 4c00 103d 536d aabe 3c29 233e
000001a0: c351 b6be 3325 2abd f490 193d 642c acbe
000001b0: cd54 df3d 288b a0bb e67e dbbd 4f81 7dbe
000001c0: c09f 89be 7a98 97be 5ad4 b5be 0a30 6abe
000001d0: 570a 353d 321d 153e 25f0 1d3c d4a9 30be
000001e0: 360b 91be bf2f 573c 1845 81be c3d2 4dbe
000001f0: c287 94be fad7 a4be 7fbe 2cbe 13b4 4d3e
0.13961516 -0.116935775 -0.25952718 0.09550786 -0.3581627 0.05095839 -0.2662628 -0.109234884
-0.04894789 -0.4277904 -0.18565217 0.15008883 -0.04928016 -0.43417186 0.10009444 -0.4189834
-0.018516732 -0.24978364 -0.11963224 -0.2040258 -0.39335552 0.20507392 -0.22282532 0.19313845
-0.08619025 -0.4099556 -0.27932784 -0.14408466 -0.34681666 -0.29608646 -0.29659548 -0.20539446
-0.050291967 0.18193296 -0.18701595 -0.051902488 -0.36955792 -0.23706782 0.12634432 -0.33733115
-0.225385 0.2559233 -0.15400845 -0.21880688 0.16459332 -0.18451029 -0.26256925 -0.12541002
-0.009466931 -0.31685835 -0.4190352 0.07259464 -0.30854115 0.17179057 -0.25566962 -0.1230121
0.22939463 -0.2707492 -0.070426606 0.060141288 -0.22197005 0.14552666 -0.08977442 -0.123580456
-0.23992056 -0.36287236 0.16596527 -0.25077948 0.019266455 0.19745806 0.17998354 0.20293328
0.14331394 -0.22708175 -0.25363243 0.13173205 -0.2204596 -0.214154 -0.31893948 -0.009291157
-0.2705761 -0.3593142 -0.18483497 0.15831539 -0.1665146 -0.21008463 -0.15768106 -0.0680187
-0.054597035 -0.20874347 -0.39887786 -0.44815198 -0.073906034 -0.34733927 -0.049536936 -0.1486375
-0.25720605 -0.34837475 -0.044514257 -0.367512 -0.25283778 0.035156533 -0.33286533 0.15933698
-0.35609254 -0.041539382 0.037491754 -0.33627617 0.10904846 -0.004899401 -0.10717563 -0.24756359
-0.26879692 -0.29608518 -0.35513574 -0.22869888 0.044199314 0.14561918 0.009639774 -0.17252284
-0.28328866 0.013133942 -0.25248027 -0.2009993 -0.29009825 -0.32196027 -0.16869543 0.20088224

Predict/spark3/squeeze1x1/BiasAdd/ReadVariableOp/resource f4 [32]
00000000: bb51 a8be 1d44 abbc dbdf 78bb 7bf3 df3c
00000010: 1285 a3be 1491 77be 55f7 9d3e 45da c6bc
00000020: e590 83bd 5238 4ebe 2b6a 4abe ac8a 1fbe
00000030: ba10 3ebd ce07 403e 2269 64be eb0b 8cbc
00000040: e265 45be 0851 363e 2c11 c13e 1eca 79be
00000050: e39c 95be c846 dfbd 016e 8ebe 6e91 de3c
00000060: 9df2 82be 8def debd cd4d de3d 12f8 b1bd
00000070: 118e e83d a262 4ebe d2cf 71be ffa9 66be
-0.32874855 -0.020906502 -0.0037975225 0.02733778 -0.31937462 -0.24176437 0.30852762 -0.024274
-0.06424121 -0.20138672 -0.19767062 -0.15580243 -0.04640267 0.18752977 -0.2230573 -0.017095527
-0.19277146 0.17804348 0.37708414 -0.24393508 -0.29221258 -0.10902172 -0.278183 0.027168956
-0.25575724 -0.108855344 0.10854683 -0.08689894 0.11355222 -0.20154813 -0.23614433 -0.22525786

Predict/op/MatMul i1 [4, 256] scale=0.009673385 zero_point=0
00000000: d8de c3d9 e8e2 07f1 fd12 fdd8 f1c7 f303
00000010: dfdf dde5 f9bc b6d3 06dd 05de e0b9 fbec
00000020: fee2 d803 dbc2 d4d1 06ca cece d0d3 d3d0
00000030: 0fd5 f6f1 e4dc bfcd f322 edf5 def8 f6e3
00000040: dd01 fdfd dee8 e9f0 dbfd c9de b402 ea11
00000050: ddf6 120c 0eef 09e5 d3d3 f12a ad13 26d5
00000060: d2cf 0ce7 f6dd 02f3 c8ca fed4 0cf1 e703
00000070: 23bf d9f7 07d5 d2e4 c608 00fb fef9 1411
00000080: 21cd 1acb 20e9 e718 2ffa 1bad b80b 2a27
00000090: 3812 c203 1024 e724 f9dd eef2 0e1e 1918
000000a0: e105 16d6 1133 0a1c 38f3 ed43 2fe2 efc9
000000b0: dc2a 0c1b 22ff 08f4 f306 ca15 dae5 cbd2
000000c0: 0019 c52a d2df 1ce3 1d1e 2318 2638 17d8
000000d0: f909 e7d9 18fe e4cb ce18 f812 fd05 f8e9
000000e0: 0e14 e308 27d8 16d0 18c3 cd12 11ce 46d5
000000f0: 221f db09 2af8 1ee1 1238 2202 0209 e9f5
-0.3869354 -0.3288951 -0.5900765 -0.37726203 -0.23216124 -0.29020154 0.06771369 -0.14510077
-0.029020155 0.17412093 -0.029020155 -0.3869354 -0.14510077 -0.55138296 -0.125754 0.029020155
-0.3192217 -0.3192217 -0.33856848 -0.26118138 -0.06771369 -0.6577902 -0.7158305 -0.43530232
0.05804031 -0.33856848 0.048366927 -0.3288951 -0.30954832 -0.6868103 -0.048366927 -0.1934677
-0.01934677 -0.29020154 -0.3869354 0.029020155 -0.35791525 -0.59974986 -0.42562893 -0.4546491
0.05804031 -0.52236277 -0.48366925 -0.48366925 -0.46432248 -0.43530232 -0.43530232 -0.46432248
0.14510077 -0.41595554 -0.09673385 -0.14510077 -0.27085477 -0.34824187 -0.62877 -0.49334264
-0.125754 0.3288951 -0.18379432 -0.10640723 -0.3288951 -0.07738708 -0.09673385 -0.28052816
-0.33856848 0.009673385 -0.029020155 -0.029020155 -0.3288951 -0.23216124 -0.22248785 -0.15477416
-0.35791525 -0.029020155 -0.5320362 -0.3288951 -0.7351773 0.01934677 -0.21281447 0.16444755
-0.33856848 -0.09673385 0.17412093 0.11608062 0.13542739 -0.16444755 0.08706047 -0.26118138
-0.43530232 -0.43530232 -0.14510077 0.40628216 -0.80289096 0.18379432 0.36758864 -0.41595554
-0.4449757 -0.47399586 0.11608062 -0.24183463 -0.09673385 -0.33856848 0.01934677 -0.125754
-0.54170954 -0.52236277 -0.01934677 -0.42562893 0.11608062 -0.14510077 -0.24183463 0.029020155
0.33856848 -0.62877 -0.37726203 -0.08706047 0.06771369 -0.41595554 -0.4449757 -0.27085477
-0.5610563 0.07738708 0.0 -0.048366927 -0.01934677 -0.06771369 0.1934677 0.16444755
0.3192217 -0.49334264 0.251508 -0.5126894 0.30954832 -0.22248785 -0.24183463 0.23216124
0.4546491 -0.05804031 0.26118138 -0.80289096 -0.69648373 0.10640723 0.40628216 0.37726203
0.54170954 0.17412093 -0.59974986 0.029020155 0.15477416 0.34824187 -0.24183463 0.34824187
-0.06771369 -0.33856848 -0.17412093 -0.13542739 0.13542739 0.29020154 0.24183463 0.23216124
-0.29987493 0.048366927 0.21281447 -0.40628216 0.16444755 0.49334264 0.09673385 0.27085477
0.54170954 -0.125754 -0.18379432 0.64811677 0.4546491 -0.29020154 -0.16444755 -0.5320362
-0.34824187 0.40628216 0.11608062 0.26118138 0.3288951 -0.009673385 0.07738708 -0.11608062
-0.125754 0.05804031 -0.52236277 0.20314108 -0.36758864 -0.26118138 -0.5126894 -0.4449757
0.0 0.24183463 -0.57072973 0.40628216 -0.4449757 -0.3192217 0.27085477 -0.28052816
0.28052816 0.29020154 0.33856848 0.23216124 0.36758864 0.54170954 0.22248785 -0.3869354
-0.06771369 0.08706047 -0.24183463 -0.37726203 0.23216124 -0.01934677 -0.27085477 -0.5126894
-0.48366925 0.23216124 -0.07738708 0.17412093 -0.029020155 0.048366927 -0.07738708 -0.22248785
0.13542739 0.1934677 -0.28052816 0.07738708 0.37726203 -0.3869354 0.21281447 -0.46432248
0.23216124 -0.5900765 -0.49334264 0.17412093 0.16444755 -0.48366925 0.67713696 -0.41595554
0.3288951 0.29987493 -0.35791525 0.08706047 0.40628216 -0.07738708 0.29020154 -0.29987493
0.17412093 0.54170954 0.3288951 0.01934677 0.01934677 0.08706047 -0.22248785 -0.10640723

Predict/conv2d/Conv2D f4 [1, 16, 16, 1]
00000000: 0097 f33d eef0 b53d d0ae da3d a70b dd3d
00000010: 8df5 ad3d c0a9 453d efdd 7c3d 4e72 5d3e
00000020: af5a c83c 2301 38bd ea55 8fbd 77f3 acbd
00000030: a6e8 b4bd 09ee 7f3d 5ef3 4e3d 4564 a93d
00000040: 1ea6 ab3d 130d 0ebd 2a23 f4bd 6acc f33d
00000050: efe1 5abd 6371 183e 1efc 7f3e dfc9 273e
00000060: cd06 263e e8c9 003d a72a 93bd a090 15be
00000070: 4cbb 4e3d 01c3 ef3d 475d e53d a574 053d
00000080: 8015 aa3c 283b 153b dc85 d93d dec4 ba3d
00000090: dc9c 473e efac 0c3e dd91 243e 39b1 0d3e
000000a0: ad8c 853e e429 a73e b366 a63e d8c9 2a3e
000000b0: 1ae4 e4bb 7582 67bc fb67 1bbb 9666 e9bd
000000c0: e92e 3c3d 8b84 e4bb cb08 be3d 2bc3 123d
000000d0: 26ae 85bd 0add 423e b058 883e ce68 8e3e
000000e0: 7440 913e c7f5 273e 473f 6e3e 0edf c63d
000000f0: c5dd b9bd 12d3 323d e257 e0bd a077 883d
00000100: 27cc 96be 7acb 9bbd b4a5 ad3d 930a c73d
00000110: 335f 063e 1e94 773e 3e9f ac3d 7ba3 903e
00000120: be41 c83d f1a0 603e c665 503e f57c 5bbc
00000130: 474a cabd ae82 6bbd 6375 c9bd 8551 71bc
00000140: c77f 87be 66df 0bbe 4b4c 1e3e 4ba5 433d
00000150: 4104 923e c88d 213e fde1 583e e154 a03d
00000160: d217 ef3d 1566 d23d 8971 ad3d 58e1 873d
00000170: 4071 12ba 205c 2fbe 27e6 85bd f0db 2cbe
00000180: 0c93 14be abfa 27bd 77ff f93d 2d20 673e
00000190: 915e 833e 9acd 7a3e b387 933e 181e 9c3e
000001a0: 30c8 d63d 4821 0f3e da50 603e 4e19 4c3e
000001b0: 100d 4ebd cb40 8fbd cd0f 81be 4085 9e3c
000001c0: e17d 553d 0490 ff3d 6c8d 443d 9c32 6d3e
000001d0: c8ce 103e 672d 523e 2f4f 9c3e 873f fd3d
000001e0: 3a00 973d 0d11 173e 6d8a 773d cd03 6b3d
000001f0: 1ab9 39be dc6c 47be cb16 06be c386 97bd
00000200: 4563 9c3c a50b 1f3e df00 9f3d 4035 ca3e
00000210: bbbe e43e 123b 8d3e 0506 803e b3af 253e
00000220: 51f9 8e3e 20d2 913e 7ec9 0d3e 3054 73bd
00000230: 04f5 b0bd 7831 36be f065 40be 44f7 51be
00000240: 823b 49bd 0ef8 923d a804 e53d 0a57 6e3e
00000250: edd0 263e 1795 433e b71d 603d 91d9 ff3d
00000260: 8afd 173e e6a1 463e 6bb6 ec3d eff5 be3d
00000270: 384b 873d 49b2 12bd 9b86 1fbe abb3 9abe
00000280: e991 0bbe a41c 013e ad0d 4a3d f34d 2f3d
00000290: 00cb c13d 328a d43d 9d22 e93d 721f 2b3e
000002a0: efa7 503d ad08 4c3d 2798 073d 0314 0b3e
000002b0: 574c d63d 8643 953c 3d20 1d3d 13d8 153c
000002c0: baae 8dbd 67db 393c ebd7 ee3d 37ef 3d3e
000002d0: fe23 81bb 6b0d 5a3d cc3a 87bd 52cb 17bc
000002e0: d84a 33bd b88c 39bc 4b85 ccbd 51f3 013e
000002f0: 1a3d d33c e1fa 163e eb8d 3e3d 6ef9 b63c
00000300: 6c7c fbbd 4d21 92bc 9536 11bd 629e 0b3e
00000310: 4069 16bc 9bc4 4b3e b009 aeba 1271 babc
00000320: a768 ed3d 2658 37bd 3be1 95bd d36f 9c3c
00000330: 4fa3 f03c 134d ad3d 52d7 ab3d 6a82 62bd
00000340: f862 223d 45bd 573d 1931 89bd 0b3e a2bd
00000350: 95e6 483d beca 2bbd 1f8c 113e a79f 78bc
00000360: 4483 a0bd 6358 323d 7961 9fbc 7c8a 31be
00000370: 743b 0fbd 08b1 ae3d eee3 1f3e a75f 073c
00000380: 0628 2abd a487 fdbd 17f9 9b3d 56ac 19be
00000390: dbe6 06be ca85 b23c 22b1 5d3c 6333 563d
000003a0: 531f 15be 9cff 24bd 0f22 913d 4dc1 fdbd
000003b0: 8cca 1a3e 970c b53d e43c 3d3d 2b2f a6bd
000003c0: ddac 3bbd b59d 28be dd5e b3bd 9025 35bc
000003d0: 1303 86be 1547 91be e733 60bd 995e 2b3d
000003e0: 90b1 913d fe79 ab3d 017d bf3d 0d07 59bc
000003f0: 89dd 1e3c 2d02 23bd 81ef 083e e6ab 8cbd
0.11894035 0.08883844 0.10677874 0.10793238 0.08494101 0.04825759 0.06173509 0.21625635
0.024457304 -0.04492296 -0.06998809 -0.08444875 -0.08833437 0.062482867 0.05052506 0.08271078
0.08381294 -0.034680437 -0.119207695 0.11904223 -0.053438123 0.14887004 0.24998519 0.16385601
0.16213532 0.031442553 -0.0718587 -0.14605951 0.05047159 0.11707116 0.11199432 0.032581944
0.020762205 0.0022770856 0.10621235 0.09119581 0.19493431 0.13737844 0.16071267 0.13837136
0.2608389 0.32649148 0.32500228 0.1667856 -0.0069851996 -0.0141302245 -0.00237131 -0.1139652
0.045943175 -0.006973808 0.09279021 0.035830658 -0.06527357 0.19029632 0.26630163 0.27814335
0.28369486 0.1640235 0.23266326 0.09710513 -0.09075502 0.043658324 -0.10954262 0.06663442
-0.2945263 -0.076071694 0.08478871 0.09718814 0.13122253 0.24177596 0.084288105 0.28249726
0.09778164 0.21936394 0.20351323 -0.013396491 -0.098774485 -0.057497673 -0.09836843 -0.014728908
-0.26464674 -0.13659438 0.15458791 0.047765058 0.2851887 0.15776742 0.21179958 0.07828689
0.11674465 0.10273377 0.08468921 0.06634778 -0.00055863336 -0.17124987 -0.06538039 -0.16880774
-0.14509219 -0.04101054 0.12206929 0.22570868 0.25658086 0.24492493 0.28814468 0.3049171
0.104874015 0.1397754 0.21905842 0.19931528 -0.050305426 -0.0699478 -0.25207368 0.019350648
0.052122 0.12478641 0.047986433 0.23163837 0.14141381 0.20525132 0.30529162 0.123656325
0.0737309 0.14752598 0.060434747 0.05737667 -0.18137017 -0.1947512 -0.13094632 -0.07398751
0.019090304 0.15531786 0.07763838 0.39493752 0.44676766 0.2758413 0.25004593 0.16180305
0.27924588 0.28480625 0.13846394 -0.05940646 -0.08640483 -0.17792308 -0.18788886 -0.2050448
-0.049129017 0.07176219 0.11182529 0.2327539 0.16290636 0.19099842 0.05471584 0.124926694
0.14842811 0.19397697 0.11558231 0.09324252 0.06606144 -0.035814557 -0.15578692 -0.302152
-0.13629879 0.12608582 0.04932945 0.042798948 0.09462547 0.10377921 0.11383555 0.16711214
0.050941404 0.04981296 0.03310409 0.13581853 0.104637794 0.018220674 0.038360823 0.009145754
-0.06918092 0.0113438135 0.11662277 0.18548284 -0.003941058 0.053235453 -0.066030115 -0.009264784
-0.04377255 -0.011325054 -0.09986361 0.12690474 0.025785971 0.1474414 0.046522062 0.022335734
-0.12279591 -0.017838145 -0.035452444 0.13634637 -0.009180367 0.19899218 -0.0013278034 -0.022758994
0.115922265 -0.0447618 -0.0731835 0.01909629 0.029374747 0.08461966 0.083906785 -0.055300154
0.039645165 0.052670736 -0.06698818 -0.0792199 0.049048025 -0.041941397 0.14213608 -0.015174783
-0.07837537 0.043541323 -0.019455658 -0.17337984 -0.03496881 0.0852986 0.15614292 0.008262551
-0.041542076 -0.12379387 0.076158695 -0.15007147 -0.13174002 0.021792311 0.013531001 0.0522951
-0.1456273 -0.04028283 0.07086574 -0.12390385 0.15116328 0.08840292 0.046200648 -0.08114465
-0.045819152 -0.1646641 -0.08758328 -0.011056319 -0.2617422 -0.28374544 -0.054736998 0.041838262
0.071139455 0.083728775 0.093500145 -0.01324631 0.009696373 -0.039796997 0.13372613 -0.068687245

Predict/spark1/squeeze1x1/Conv2D f4 [8, 1, 1, 1]
00000000: 5699 0ebf 43af 3cbf 6e70 85be 78ba 093f
00000010: 78de 0f3f 5654 ec3e ad7e 03bf 7e8a 1c3f
-0.5570272 -0.7370493 -0.2606234 0.53800154 0.56198835 0.46158093 -0.51365167 0.6114882

Predict/spark1/expand1x1/Conv2D f4 [32, 1, 1, 8]
00000000: 2a0b a2be 3088 a2be 6031 bdbc c636 a9be
00000010: e278 0e3d 209d 1b3e bca8 86be 9149 a1be
00000020: 8811 3b3d 3929 aabe a8dc 23bd 1da0 31be
00000030: ca98 4cbd d829 c3be c47d 3cbe d174 a5be
00000040: 8976 6bbe 00fe a9bc 689c 8abe 52f8 e83c
00000050: 790e 083d f96d 823e d6e0 63be 3694 57be
00000060: fdf4 3dbe 2c2c 8a3e 6291 0bbe 4d20 103f
00000070: 1118 abbe 276b 71bd 59f2 bdbe 6d52 03be
00000080: 088c a4be 588d 7a3d c265 bf3e e57c 5abf
00000090: ffea 93be f348 a23e 7050 21be 6af8 b6be
000000a0: 478b 20be d0b5 9a3d 60b7 1c3d 32be 153c
000000b0: f4b3 f0be 6558 783e d4e7 9f3e 66cd 82be
000000c0: a80e 9dbd ba88 84be 4800 063d 1b66 ccbe
000000d0: 18ec 3c3d 42fb 6fbe 490d 71be e272 193e
000000e0: c9c9 88be 8410 8d3d 78a8 b7bd 897d f83d
000000f0: e1aa 04bf 935a 10bc 28a2 153e 0ff7 b93d
00000100: 58f2 34bd 37d3 a5be c8b3 72be f7fe c2bd
00000110: 02e1 453d cc28 0e3e 90c0 a0bc d58d 4e3e
00000120: 80ff ba3e dcb5 4fbe 5c51 393e 24ed abbe
00000130: 45b2 a2be 10ad fcbd d4f9 49be 9d52 2f3d
00000140: 0433 c2bd 52c8 843e 00ba 623e c593 90be
00000150: 5092 b83e 9dcc d53d e625 70be 4eb7 ae3d
00000160: 7cf4 a53e f8e0 92be 6883 643e a3ab 043e
00000170: 40b7 9639 e559 57be e886 6f3e 48ad acbe
00000180: 0c25 9e3e 0079 e2bc b855 6f3d 63f3 23be
00000190: 9d14 d33e c211 ca3e d05a 363d 4a5c 873d
000001a0: 4461 a33e 9067 c43d fae8 a23e b4d3 afbe
000001b0: c946 4c3e 47d4 603e 3c07 9e3e 0152 26bd
000001c0: 20d2 023c 407c 28bc 2ee2 2cbe 36d2 58be
000001d0: d459 523e e44b 393e 3854 b43d 09a1 06be
000001e0: b8a5 5c3d 1ada 78be c805 2a3e 6a1c 71be
000001f0: 2471 1bbe b29e 7ebe c4fb 9a3e ec11 16bf
00000200: 46c3 85be c0de 603e ee3d 52be 3c86 69be
00000210: d087 9dbe 967b 493d 7001 fb3d 4afa 24be
00000220: b02f f5bc 4ad9 64be 0a90 843e f7a7 c63e
00000230: b31b f83e 3468 dd3e ba48 c13e 8fae d53e
00000240: d0ef 343d d841 b3be 5c6c b13d 38d8 2f3e
00000250: bac2 8a3c a898 06be b408 293e f13e cb3d
00000260: 2820 4f3d 30d7 ce3d eee2 be3e 8727 1cbe
00000270: 34c0 07bd 2d11 393e 6c30 bcbd 498a 3ebe
00000280: b989 9fbe d03b dbbc e89a 7a3e 3efc b6bd
00000290: 4add bb3d 4cbe aabd c8f9 a1be 6fd5 a1bd
000002a0: 20cc c33c c0d9 58bc 7cf6 6abe 1cc9 da3e
000002b0: 2f25 86be 3c80 aebe 6c86 efbd f90d 74be
000002c0: e421 343e d20a 873e 4072 2cbe 1401 babd
000002d0: 50dd ecbd 5cc2 88bd 58ff 553e a0a6 36bd
000002e0: f8d0 0a3e d955 96be b00c f33d e003 c5bd
000002f0: 0ac8 9a3d ef9e 2cbe 90f2 263e b09e f5bd
00000300: 32cb a6be 6ce9 563e 9cf2 973e e403 9a3d
00000310: e902 52bf 355e 58bf 08b7 173e baca f7be
00000320: 7329 a6be 83d0 8abe a016 84bd e3cb 77be
00000330: f0b0 933e 8388 af3e 2ca0 d5bd a09a 94be
00000340: 5281 90be 86f8 b8be 604c 1d3d 0579 2abd
00000350: 92b1 0abe 0ac2 6abe 7063 323e ad69 823e
00000360: b4a5 a4be c08e d8bd b846 2abe 90cf 93be
00000370: 025f f6be a78f 51bd 63d6 bfbe 22c9 86be
00000380: d829 0c3e 8082 5a3e b395 a6be 81a1 623c
00000390: 372a 7abe 6d0b a43e f85c b9be b85b fcbd
000003a0: 8083 f33b c048 b53d c4d9 1e3e 7443 cc3e
000003b0: 2b0a 1ebe 3155 353e c2a4 993e 9d61 323e
000003c0: d23a 81be 2c57 6e3e 680a a3be 718b 5f3c
000003d0: 5e90 c0be 9d86 f4bc 509f d93c 4276 62bd
000003e0: 7c93 ecbd 44bf c13d 7021 863d e45b eb3d
000003f0: aa43 b1be c01f c6be 200d 2bbd a479 a7be
-0.31649143 -0.31744528 -0.023094833 -0.330496 0.03478325 0.15196657 -0.2630061 -0.3150144
0.045671016 -0.33234575 -0.040005356 -0.17346235 -0.0499504 -0.38117862 -0.18407351 -0.32315686
-0.22994436 -0.020751 -0.27072453 0.02843872 0.033216927 0.25474527 -0.22253737 -0.21052632
-0.18550487 0.26986825 -0.13629678 0.5629929 -0.334168 -0.05894008 -0.3709896 -0.12824412
-0.32138085 0.061169952 0.37382323 -0.85346824 -0.28890225 0.3169628 -0.1575334 -0.357364
-0.1567813 0.07554209 0.038260818 0.009139584 -0.47012293 0.2425247 0.31231558 -0.25547332
-0.07668811 -0.25885564 0.032715112 -0.3992165 0.046123594 -0.23435691 -0.23540224 0.1498523
-0.2671645 0.06887916 -0.0896768 0.12133319 -0.5182324 -0.008810657 0.14612639 0.09080326
-0.04417643 -0.32387707 -0.23701394 -0.09521287 0.048310287 0.1388275 -0.019623071 0.20171292
0.36523056 -0.20284218 0.18097442 -0.3357936 -0.31776634 -0.123376966 -0.19724208 0.042803396
-0.09482387 0.25934082 0.22141266 -0.2823774 0.36049128 0.104394175 -0.23451957 0.08531056
0.3241309 -0.28687263 0.22315753 0.12956099 0.0002874676 -0.21030386 0.23391306 -0.33725953
0.3088764 -0.027645588 0.058431357 -0.16010813 0.41226664 0.39466673 0.0445202 0.066093996
0.31910145 0.095900655 0.31818372 -0.34341204 0.19948877 0.21955977 0.30864894 -0.04060555
0.007984668 -0.01028353 -0.16883156 -0.21173939 0.20542079 0.18095356 0.08805126 -0.13147368
0.05386898 -0.24301949 0.16603768 -0.23545995 -0.15179878 -0.24865225 0.30270207 -0.58621097
-0.26125544 0.21959972 -0.20531437 -0.22805113 -0.3076768 0.049190126 0.122561336 -0.16111103
-0.029929966 -0.22348514 0.25891143 0.38800022 0.48458633 0.43243563 0.37750798 0.4173474
0.044174016 -0.35011172 0.08663246 0.17172325 0.016938556 -0.13144171 0.16507226 0.099241145
0.050567776 0.100996375 0.3728251 -0.15249453 -0.033142284 0.18072958 -0.09188923 -0.18607439
-0.31159762 -0.02676192 0.24473155 -0.0893483 0.09173067 -0.083370775 -0.3163588 -0.07902037
0.023901045 -0.013235509 -0.22945589 0.4273156 -0.26200244 -0.3408221 -0.11695561 -0.23833455
0.17591053 0.26375443 -0.16840458 -0.09082237 -0.115656495 -0.06677696 0.20898187 -0.0445925
0.13556278 -0.29362372 0.11867654 -0.0961988 0.07557686 -0.16857503 0.16303468 -0.11993158
-0.325769 0.20987481 0.29677284 0.07520273 -0.8203569 -0.8451875 0.14815915 -0.48396856
-0.32453498 -0.27112207 -0.06449628 -0.2419887 0.2884593 0.34283838 -0.10430941 -0.2902422
-0.28223664 -0.36127108 0.038402915 -0.04161932 -0.135443 -0.22925583 0.17420745 0.2547125
-0.3215767 -0.105741024 -0.1662854 -0.28869295 -0.4811936 -0.05116239 -0.37468252 -0.26325327
0.13687837 0.21338844 -0.32536086 0.013832451 -0.24430166 0.32039967 -0.36203742 -0.123221815
0.0074314475 0.088517666 0.15512758 0.39895213 -0.15433566 0.17708279 0.30008513 0.17420049
-0.2524019 0.23275441 -0.31843877 0.013644085 -0.37610143 -0.029849345 0.026565224 -0.05528856
-0.11551568 0.09460309 0.065493464 0.11492136 -0.34621936 -0.38696098 -0.041760564 -0.32709992

Predict/spark1/expand3x3/separable_conv2d/depthwise f4 [8]
00000000: 0000 0000 0000 0000 0000 0000 0000 0000
00000010: 0000 0000 0000 0000 0000 0000 0000 0000
0.0 0.0 0.0 0.0 0.0 0.0 0.0 0.0

Predict/spark1/expand3x3/separable_conv2d/depthwise1 f4 [1, 3, 3, 8]
00000000: 04e6 57be 1e5c 9fbd 2c71 66bd 8f70 df3e
00000010: 9602 32be 762f a2bd b26c 7dbe fad6 d3bd
00000020: b8f5 b0bd e8ad 883d a44e 2bbd 788e 853e
00000030: 2ecf 60bd 3ffc ab3e 2151 31be af9a ffbd
00000040: 8464 1bbe 98e9 cd3d b831 743e e04b cc3e
00000050: fb63 3ebe 5c75 bb3d b234 88bd d26d 08be
00000060: 001c 603e 8e13 853e de3f babd 3772 bdbe
00000070: 4521 76be 934e c43d 6eb2 b1bd 9896 a2be
00000080: 94cc 523e f0ae 763e 58c6 e93d e65c 00be
00000090: 42db 97bb 1a53 9b3e 80d7 d63c 0f67 c93e
000000a0: 9066 fc3c 16da 443e 54dc 1cbd 2864 96bd
000000b0: 0310 34be 21ca d5bd d0ba 76bd e4d6 033e
000000c0: ecf3 a6bd 127e d5bd 2e8a 13be 34b0 c9be
000000d0: a0fd 3cbe 9ed2 09bf 8cec 953d b574 bcbe
000000e0: eca8 083e 8036 a2bb 74fd 4a3e 37ab 56be
000000f0: 9a81 d23e 9573 b83d d4b3 d6bd 9653 203c
00000100: 2027 57be ca7e 823e b5f8 00be 424d 9c3d
00000110: e206 d43c 7a75 4fbe 443b 04bd 41c4 ee3e
-0.21083838 -0.07781242 -0.056260273 0.43640563 -0.17383799 -0.07919209 -0.24748495 -0.10343738
-0.08640617 0.06673795 -0.041823044 0.26085258 -0.054885082 0.33590886 -0.17316104 -0.124806754
-0.15175062 0.1005432 0.23847091 0.39901638 -0.18592827 0.09153244 -0.06650676 -0.13323143
0.21885681 0.25991482 -0.09094213 -0.37001202 -0.24036129 0.09585299 -0.08676611 -0.3175552
0.20585853 0.24090171 0.11414784 -0.12535438 -0.004634292 0.3033684 0.026225805 0.3933644
0.030810624 0.19223818 -0.03829606 -0.07343322 -0.17584233 -0.10438944 -0.060236752 0.12874943
-0.08151993 -0.10424437 -0.1440818 -0.39392245 -0.18456125 -0.53837 0.07320508 -0.3680779
0.13345689 -0.0049503446 0.19823247 -0.20963751 0.41114503 0.090064205 -0.10483518 0.009785553
-0.21011019 0.25487357 -0.12594874 0.07631923 0.025882188 -0.20259658 -0.032283083 0.46634105

Predict/spark1/expand3x3/separable_conv2d f4 [32, 1, 1, 8]
00000000: 2c4a 7e3e a418 963d 70d7 fbbc c039 b1be
00000010: 53fd 04be cea3 003f 0072 103d cf62 f9be
00000020: 6e80 14be 69b2 4cbe a069 7f3e 7c1f 61be
00000030: 8ca0 3d3f aec2 7a3e 2e6c 99be 2054 533e
00000040: 228e 83be 081e 03be 40c5 d23d 7e90 87bd
00000050: 17b9 a0be 5341 adbe e41f b2be a75c 513e
00000060: d621 bf3e a062 1dbc 840d 573e 2afd 7abd
00000070: f3c6 3dbe a3c6 00bf 18b7 67bd 0fe2 80be
00000080: 1853 663e b0c6 e1bc c831 a13e 4aaa c7be
00000090: 0c06 2fbd 10cf a8bd 4431 693e a3f1 413f
000000a0: a864 3a3e e8eb 3d3e 0c82 b23e 6b28 ec3e
000000b0: fb56 88be 7b1a 713e a817 973e 48eb b13e
000000c0: b01c 713e 689d 8e3d 54d4 ccbd 9300 0c3f
000000d0: 455d ff3e dc63 83be 886c a8be 8b13 dbbe
000000e0: 37e9 35be b046 65bd 50d9 6fbe e0f7 aa3e
000000f0: ee6f 15be 490b 3f3e 8ce2 f8bd a3ed 643f
00000100: 67d6 29be f029 a43c e453 a0bd f4aa 06be
00000110: a470 ccbe 2277 e7bd 38e1 9cbe 38b9 83be
00000120: 203f 95be f038 eb3c 4456 723e af5d 0abf
00000130: 92ef 85be 6b32 79be 2c41 74be f0b2 a03e
00000140: 9f7c babe 0b1e 72be f270 b2be 6c1f 823e
00000150: e1fa 973e 295c 223f 7a97 a33e d075 913e
00000160: fc31 c9bd e0b0 bf3d dced 573e a4bc b53e
00000170: 6ad1 41be 80ee 893e 3e9f adbe 0e00 913e
00000180: 0c8a a63e 487d 75be f605 b93e 61f0 003f
00000190: 2fa7 b2be e467 0fbf 98d7 f6bd 6fde acbe
000001a0: 3573 c3be 09cb a0be 66c3 8f3e 60d5 3f3f
000001b0: d7a9 2bbe 4d91 dfbd 2c0f 2c3e a2bc 6abe
000001c0: f394 95be 103b 893c 7817 743e 187d bfbe
000001d0: 3eef 66be 0a5e 943d 3ce7 3d3e 13ad 88be
000001e0: 4065 5abc 9acb 73be 209a 4c3d d695 debe
000001f0: bc1c 70be acbd ad3e f4ed 333e e99d 363d
00000200: 7295 c33e b53e 30be 6d4b 1bbe cbab ebbe
00000210: c022 9ebd e296 1cbe d873 e83d ff65 1d3f
00000220: b027 543e 96d1 b5be 0899 383e c30e d4bc
00000230: 2cd3 133f 4fa4 5bbe d2c5 803e 44dd acbe
00000240: 90c2 73bd a23d 9c3e 2e77 0dbe e21f 34be
00000250: 172d 75be ed62 163e a0c8 bc3e fabc c33c
00000260: 5220 a2be 6039 953c 56ec b53e 8d4d b7bc
00000270: 829b 4b3f d7c9 453e 32a2 4dbe e69f 73bc
00000280: 4018 d6bb 0aaf 6dbe a8ec 26bd 5506 8ebe
00000290: 9db8 0c3f 3cc8 bd3e d621 ba3e 8a8e 76bc
000002a0: 6f8a 4fbe d271 833e 8070 6fbe cbf3 bcbd
000002b0: f3c5 6ebe ec1b bd3e fa52 ac3e 8422 7fbc
000002c0: c3c5 c3be 00b2 093e b0ff 0f3e 10d5 8dbe
000002d0: b3fe 7dbe dc4b aabe 5892 3b3e fc49 01be
000002e0: 480c 9b3e cd74 23be 98fb 703e e476 81bd
000002f0: 50dd d6be af99 9ebe 60e9 3e3d 9209 9bbe
00000300: ea73 b13e 38b8 813d 60b5 313e 3d66 89be
00000310: f787 523f e073 203d 0a1a 5fbe bf0c 9c3e
00000320: 3807 0b3e 60a2 b8bd 8454 4b3e 8ffa 333f
00000330: 8d0a fbbd 7b11 933e 68c1 5abd 085a 983d
00000340: 61b9 92be 435f 63be 1778 adbe 5b72 8c3e
00000350: da42 a63d fe67 c43d 1409 843e 2adb 00bf
00000360: 5069 03bd 88eb 8f3e 4039 a7bd ce11 133f
00000370: 8d73 83bd 1ae9 e53e 19ea 7dbe bbfb e7be
00000380: cdfd 15be 4090 79be a247 c53e 3130 c7be
00000390: 12f5 ec3e ff1d 05be 288e b13e d5f8 dcbe
000003a0: 1692 b63e 78e3 2f3e 91c2 49be 264d e23d
000003b0: cfd0 50be b188 0dbe 28b1 ea3d d1de b13e
000003c0: ccb5 a33d cc5d 4e3e f446 91be 1ff7 9dbe
000003d0: 3246 0e3d 2a12 06be a4ec a1bd 0fe1 11bf
000003e0: 98b7 96be 14ed 8bbd 7a92 88be b4dd 063e
000003f0: e62b 1f3f 3b07 043f 68b1 453e 78fa e33e
0.24832982 0.073289186 -0.030742377 -0.34614372 -0.1298726 0.50249946 0.03526497 -0.48708197
-0.14502117 -0.19989933 0.24942636 -0.21984667 0.740731 0.24488327 -0.29965347 0.2063756
-0.25694376 -0.12804425 0.10291529 -0.066193566 -0.31391212 -0.338389 -0.34789956 0.204455
0.37330502 -0.009606034 0.2100125 -0.061276592 -0.18532924 -0.50303096 -0.056571096 -0.2517247
0.22492635 -0.027560562 0.31483293 -0.38997108 -0.042730376 -0.08242619 0.227727 0.75759333
0.1820246 0.18547022 0.34864843 0.46124586 -0.2662886 0.23545258 0.29510236 0.34749818
0.235461 0.069636166 -0.10001436 0.54688376 0.49875847 -0.25662124 -0.32895303 -0.42788348
-0.17764746 -0.055975616 -0.23422742 0.3339224 -0.14593479 0.18656649 -0.121525854 0.89425105
-0.16585694 0.020039529 -0.07828501 -0.13151151 -0.39929688 -0.1130202 -0.30640578 -0.25727248
-0.29149723 0.028713673 0.2366572 -0.540492 -0.2615934 -0.24335639 -0.23852986 0.31386518
-0.36423203 -0.23644273 -0.34851795 0.25414598 0.29683593 0.63421875 0.31951505 0.28410196
-0.09823987 0.09359908 0.2108683 0.35495484 -0.18927541 0.26939774 -0.33910555 0.28320354
0.32527196 -0.23973572 0.3613736 0.5036679 -0.34893176 -0.560179 -0.1205284 -0.33763453
-0.38173833 -0.31404904 0.28078765 0.7493496 -0.16764008 -0.10916386 0.16802663 -0.2292352
-0.29215202 0.016751796 0.23837078 -0.37400126 -0.22552201 0.07244499 0.1854524 -0.26694545
-0.013329804 -0.23808137 0.049951673 -0.4347369 -0.23448461 0.3393377 0.1757124 0.04458419
0.38199955 -0.17211421 -0.15165491 -0.46029505 -0.07721472 -0.15291932 0.113502204 0.6148376
0.20718265 -0.35511464 0.18027127 -0.025885945 0.577441 -0.21449398 0.25150925 -0.33762562
-0.05951172 0.30515772 -0.13814995 -0.17590287 -0.23942982 0.14686175 0.36871815 0.023893822
-0.31665283 0.018215835 0.35531873 -0.022375846 0.7953416 0.19315277 -0.20081404 -0.014869666
-0.0065336525 -0.23211303 -0.040753037 -0.27739206 0.549692 0.3706683 0.3635394 -0.015048632
-0.20267652 0.25672776 -0.23382759 -0.09226187 -0.23317699 0.36935365 0.33657056 -0.015572194
-0.38236818 0.13446808 0.14062381 -0.27701616 -0.24804191 -0.33261 0.18317544 -0.12625879
0.30282807 -0.15962525 0.23533475 -0.06321505 -0.41965723 -0.30976626 0.046609282 -0.3028074
0.34658748 0.06333965 0.17354345 -0.26835814 0.82238716 0.039173007 -0.21787277 0.30478474
0.13576972 -0.090153456 0.19856459 0.703042 -0.12257872 0.28724274 -0.053407103 0.07439047
-0.28657058 -0.22204308 -0.33880684 0.27430996 0.0811822 0.095901474 0.25788176 -0.5033442
-0.032082856 0.28109384 -0.081652164 0.5744904 -0.06418524 0.44904405 -0.24796332 -0.45309243
-0.14647599 -0.24371433 0.38531214 -0.38903955 0.46280724 -0.12999724 0.3467877 -0.43158594
0.3565833 0.17176616 -0.19703127 0.11049871 -0.20392154 -0.13821675 0.11459571 0.34740308
0.079936594 0.20152968 -0.28374445 -0.308526 0.034734912 -0.13092867 -0.07906464 -0.5698404
-0.29436946 -0.068323284 -0.26674253 0.1317051 0.6217636 0.5157353 0.19305956 0.4452703

Predict/spark2/squeeze1x1/Conv2D i1 [16, 1, 1, 64]
00000000: 1ee6 f9f1 02ea 0a00 fde8 ff03 f9a5 e5f7
00000010: f099 1407 e4f4 1808 fbe9 eae9 0281 16e7
00000020: ff33 4126 1b12 1f1b 261b cf08 09e5 211b
00000030: 2315 c7f3 35cf 120e 3212 2320 07f0 1f32
00000040: f902 ffc3 13f6 dae0 14e9 10ef f11c fd13
00000050: 023b 17f2 12ce 200e e002 0311 f925 ec0f
00000060: 19ae 0517 f6e6 4615 0ede b10d decb 2602
00000070: 09f2 7f39 29fa cbd0 adf5 7df9 52f3 0800
00000080: 1664 d020 471e 0d07 26df 1ce0 1203 1b38
00000090: f6f2 fa40 0f07 22dc 6ad3 1522 ea0b f821
000000a0: 2a62 28f5 4f01 1846 d706 3355 32fe ec01
000000b0: 2ee3 d6de 65cf 28d9 7f52 ee33 d008 10e4
000000c0: e01e 0d28 271c 0bfc 25e5 2804 2ffc e71f
000000d0: f80f 070f 0707 f305 2f02 210c 001b 0715
000000e0: 39f7 22f1 d4a2 f781 3f0b d8e4 e5c6 2306
000000f0: fa49 3b2c de25 212c 0dbd a5f8 30c5 f408
30 -26 -7 -15 2 -22 10 0
-3 -24 -1 3 -7 -91 -27 -9
-16 -103 20 7 -28 -12 24 8
-5 -23 -22 -23 2 -127 22 -25
-1 51 65 38 27 18 31 27
38 27 -49 8 9 -27 33 27
35 21 -57 -13 53 -49 18 14
50 18 35 32 7 -16 31 50
-7 2 -1 -61 19 -10 -38 -32
20 -23 16 -17 -15 28 -3 19
2 59 23 -14 18 -50 32 14
-32 2 3 17 -7 37 -20 15
25 -82 5 23 -10 -26 70 21
14 -34 -79 13 -34 -53 38 2
9 -14 127 57 41 -6 -53 -48
-83 -11 125 -7 82 -13 8 0
22 100 -48 32 71 30 13 7
38 -33 28 -32 18 3 27 56
-10 -14 -6 64 15 7 34 -36
106 -45 21 34 -22 11 -8 33
42 98 40 -11 79 1 24 70
-41 6 51 85 50 -2 -20 1
46 -29 -42 -34 101 -49 40 -39
127 82 -18 51 -48 8 16 -28
-32 30 13 40 39 28 11 -4
37 -27 40 4 47 -4 -25 31
-8 15 7 15 7 7 -13 5
47 2 33 12 0 27 7 21
57 -9 34 -15 -44 -94 -9 -127
63 11 -40 -28 -27 -58 35 6
-6 73 59 44 -34 37 33 44
13 -67 -91 -8 48 -59 -12 8

Predict/spark2/expand1x1/Conv2D i1 [64, 1, 1, 16]
00000000: f411 3c02 dfdb d9bd 5481 e7dd e9ed bf1f
00000010: 5d3c 25fc 0c31 def7 0e01 d6da 81fa ceaa
00000020: 3fa4 d175 3b10 e1cd 81af c8d3 683d e525
00000030: b529 f99e a805 f882 9b0b 30aa 7381 8f57
00000040: 1b2b e681 92e6 f3f1 fa12 0c98 3e11 d82c
00000050: fa03 101d 227f 51fa cf25 da1f c4f6 3bbb
00000060: f15e 1dee 4c5e 0ae1 5a3c 2c34 919a 81e3
00000070: f6ee 1cac 0df6 4b23 cf8d 2b81 f3ff c511
00000080: 70c9 769d 2f23 7a74 81e6 d89b c63f 1cbb
00000090: 56a1 25ea 0706 282f 8117 e4f1 131a 6ed4
000000a0: 4fe5 60dd 317f 45e5 40ee d80b 38d7 29cb
000000b0: 061f e981 a311 f9ea 5f39 0c99 2f2c 8533
000000c0: d107 dbd3 1314 81e8 e934 2400 53fa 4df6
000000d0: baa9 cd0d c908 0dba a4f1 eab1 c07f e2ac
000000e0: 94e9 4918 fc06 bb89 e122 161e 81d7 a000
000000f0: 6b05 2fe7 812f 0248 0505 eb0e 3339 2d02
-12 17 60 2 -33 -37 -39 -67
84 -127 -25 -35 -23 -19 -65 31
93 60 37 -4 12 49 -34 -9
14 1 -42 -38 -127 -6 -50 -86
63 -92 -47 117 59 16 -31 -51
-127 -81 -56 -45 104 61 -27 37
-75 41 -7 -98 -88 5 -8 -126
-101 11 48 -86 115 -127 -113 87
27 43 -26 -127 -110 -26 -13 -15
-6 18 12 -104 62 17 -40 44
-6 3 16 29 34 127 81 -6
-49 37 -38 31 -60 -10 59 -69
-15 94 29 -18 76 94 10 -31
90 60 44 52 -111 -102 -127 -29
-10 -18 28 -84 13 -10 75 35
-49 -115 43 -127 -13 -1 -59 17
112 -55 118 -99 47 35 122 116
-127 -26 -40 -101 -58 63 28 -69
86 -95 37 -22 7 6 40 47
-127 23 -28 -15 19 26 110 -44
79 -27 96 -35 49 127 69 -27
64 -18 -40 11 56 -41 41 -53
6 31 -23 -127 -93 17 -7 -22
95 57 12 -103 47 44 -123 51
-47 7 -37 -45 19 20 -127 -24
-23 52 36 0 83 -6 77 -10
-70 -87 -51 13 -55 8 13 -70
-92 -15 -22 -79 -64 127 -30 -84
-108 -23 73 24 -4 6 -69 -119
-31 34 22 30 -127 -41 -96 0
107 5 47 -25 -127 47 2 72
5 5 -21 14 51 57 45 2

Predict/spark2/expand3x3/separable_conv2d/depthwise f4 [16]
00000000: 0000 0000 0000 0000 0000 0000 0000 0000
00000010: 0000 0000 0000 0000 0000 0000 0000 0000
00000020: 0000 0000 0000 0000 0000 0000 0000 0000
00000030: 0000 0000 0000 0000 0000 0000 0000 0000
0.0 0.0 0.0 0.0 0.0 0.0 0.0 0.0
0.0 0.0 0.0 0.0 0.0 0.0 0.0 0.0

Predict/spark2/expand3x3/separable_conv2d/depthwise1 f4 [1, 3, 3, 16]
00000000: c7e5 52be 0412 febd b503 303e 2e6e 613d
00000010: 93ff 6abe de9a 1b3e b903 3fbe d2af debe
00000020: 7c2d 9cbe 4dee 9ebe 2ce3 23bc b8da 66be
00000030: 7327 49bf 38db 893d b611 d1be 29d9 903e
00000040: ee0c 8dbe 5d73 bfbd 30a9 6bbd dc3e 88be
00000050: 01b9 dd3e b9a4 0cbf f319 5b3c e84d 613e
00000060: e777 cfbe 55c8 06be 527e 0ebe 4b51 3e3d
00000070: bd3c dbbe 84db f6be 18b0 813d e477 433e
00000080: b9ba b93e 462e cdbe dde6 8f3e 2a49 d4bd
00000090: 9c66 173e cd69 4fbe 9de2 613e d8b0 b33e
000000a0: eae9 e4be f80e fa3e e4df e63b 64f2 b33e
000000b0: 0411 ea3c 0eb3 20bf bc1f 2c3f a9e1 053f
000000c0: 69e9 debe d4dc babc 54d8 093e 04da 45be
000000d0: 0b25 0cbe b0a6 473d 56bd 213d aa6d adbe
000000e0: cb7b 57be 5568 5f3e 0857 89ba 9373 bebd
000000f0: 6ab0 0ebd 375e 4cbe bb91 ffbc 7864 3dbd
00000100: 79e1 9abe 0339 853e 4155 9a3c 598f 3fbd
00000110: f36d 93bd 7ed4 1a3e a756 c1be 49f9 303f
00000120: c6b1 ea3c 41ea 473d c4ba 3c3e 778c a3be
00000130: 2391 8fbd b658 f63d fbae 833e 1745 73bd
00000140: f736 cf3e 8eaf 303c 56c1 1e3e ab49 3f3e
00000150: 3cf4 81bd 524a 6b3e 07a4 3dbe cb8a 9ebd
00000160: bea1 963e e5e3 3e3e 7858 80bd 715a 4fbc
00000170: 8c37 c13e d4ab 0f3f 45e6 063f 30bc 17be
00000180: 108e a13e fa7b b33c 9a91 e1bd 779e 34bf
00000190: c89f 60bd 96bc 903e 8e9e 273f 10ee 7f3e
000001a0: 050b 263e 8a79 09bf 45bf b53d 952b 013f
000001b0: cdb2 fe3d df5e b3bc 63a8 483e 0474 ac3d
000001c0: bab1 efbe 93f6 033f 0d13 10bf fdd9 c93b
000001d0: 7d35 8abe e9b4 053f ec80 813e 759c 57bf
000001e0: ff45 163e f18b 643e b25a bf3d f338 4cbe
000001f0: ef0e a13e c0ea 3dbf a717 e1bc ee02 bfbe
00000200: 9c6f 6b3e 452b 873e 7554 acbe ac5b b13e
00000210: e95d 2abe 5c1b ed3d b357 5abd 50ae e03d
00000220: 4d37 ffbd c996 e8be 64f6 603e 882c ea3e
00000230: 5af2 093e 6bec b0bd 1f86 7abe fc2f 29be
-0.20595466 -0.1240578 0.17188914 0.055036716 -0.22949056 0.15195796 -0.18653764 -0.43493515
-0.30503452 -0.31041184 -0.010002892 -0.22544372 -0.7857582 0.06731266 -0.40833825 0.2829068
-0.27548927 -0.09348176 -0.057534397 -0.26610458 0.4330521 -0.54938847 0.013372886 0.22002375
-0.40521166 -0.13162358 -0.13915375 0.046464246 -0.42819777 -0.48214352 0.06332415 0.19088703
0.3627527 -0.40074366 0.28105822 -0.103655174 0.14785236 -0.20255204 0.22059102 0.3509586
-0.44709712 0.48839545 0.007045733 0.35145867 0.028572567 -0.62773216 0.6723592 0.52297455
-0.43537453 -0.022810377 0.13461429 -0.19321448 -0.13686006 0.04874295 0.039487205 -0.3387273
-0.21043317 0.21817143 -0.0010478208 -0.09299388 -0.03483621 -0.19957815 -0.03119742 -0.046238393
-0.30250147 0.2602006 0.01883948 -0.046767566 -0.071987055 0.15120122 -0.37761423 0.6913038
0.028649222 0.048807386 0.1843062 -0.31943104 -0.070101045 0.12028639 0.25719437 -0.05939206
0.40471622 0.010784043 0.1550344 0.18680446 -0.06345412 0.2297757 -0.18519603 -0.077413164
0.29420274 0.18641622 -0.06266874 -0.01265584 0.3773769 0.56121564 0.52695113 -0.14817882
0.31553698 0.021909703 -0.110140994 -0.705543 -0.05483988 0.2826888 0.6547631 0.24993157
0.16215141 -0.5370108 0.088743724 0.50457126 0.12436447 -0.021895824 0.19595484 0.08420566
-0.46815282 0.5154812 -0.5627907 0.0061600194 -0.26993933 0.5222917 0.25293672 -0.8422311
0.14675139 0.22319008 0.09343471 -0.199436 0.31456706 -0.74186325 -0.027477099 -0.37306923
0.22991794 0.264002 -0.33658186 0.34640253 -0.16637386 0.11577484 -0.053306293 0.109707475
-0.1246172 -0.4542754 0.2196899 0.457371 0.13471356 -0.08638843 -0.24465226 -0.16522211

Predict/spark2/expand3x3/separable_conv2d i1 [64, 1, 1, 16]
00000000: 4f3a d40b 129b fcc7 2acb 1638 c27f c6f2
00000010: 3f38 407f d801 caa3 0313 f20a 0af4 01ef
00000020: 42d8 dbd6 903c 9513 ae8f e556 7fee f18c
00000030: ef18 eac4 3315 1112 edad 1d81 304d 25ff
00000040: 81f5 1033 ffe9 28fd 21c9 05d4 020c ebeb
00000050: e237 3833 43e1 18ac dbc7 09a6 a981 e02f
00000060: 2d29 f010 ff23 0d12 f47f 211a ef65 4412
00000070: d57f 05f7 c034 d82e 3add f306 acd1 e594
00000080: aef3 4e1e 77ae d181 b7da e7cb 369b a641
00000090: 2ace 11ea 4ed3 6b2c 0e50 137f 9449 df5b
000000a0: 273c f97f fde6 d7c2 02f6 eafc 2408 fbd1
000000b0: 4e37 7f06 1e43 f0b4 7332 02d1 5a16 e3d8
000000c0: afe9 0309 1b2a 09f9 3a7f 0b94 1e22 07c5
000000d0: f1f2 39ed 7fee 13a3 e8e5 1bc1 33c6 e43b
000000e0: a7ef 9df2 3a4f d981 1af3 0028 32f8 b1e2
000000f0: 2ae2 e005 fc4c 1574 df7f 2a1f 425b 3dfc
79 58 -44 11 18 -101 -4 -57
42 -53 22 56 -62 127 -58 -14
63 56 64 127 -40 1 -54 -93
3 19 -14 10 10 -12 1 -17
66 -40 -37 -42 -112 60 -107 19
-82 -113 -27 86 127 -18 -15 -116
-17 24 -22 -60 51 21 17 18
-19 -83 29 -127 48 77 37 -1
-127 -11 16 51 -1 -23 40 -3
33 -55 5 -44 2 12 -21 -21
-30 55 56 51 67 -31 24 -84
-37 -57 9 -90 -87 -127 -32 47
45 41 -16 16 -1 35 13 18
-12 127 33 26 -17 101 68 18
-43 127 5 -9 -64 52 -40 46
58 -35 -13 6 -84 -47 -27 -108
-82 -13 78 30 119 -82 -47 -127
-73 -38 -25 -53 54 -101 -90 65
42 -50 17 -22 78 -45 107 44
14 80 19 127 -108 73 -33 91
39 60 -7 127 -3 -26 -41 -62
2 -10 -22 -4 36 8 -5 -47
78 55 127 6 30 67 -16 -76
115 50 2 -47 90 22 -29 -40
-81 -23 3 9 27 42 9 -7
58 127 11 -108 30 34 7 -59
-15 -14 57 -19 127 -18 19 -93
-24 -27 27 -63 51 -58 -28 59
-89 -17 -99 -14 58 79 -39 -127
26 -13 0 40 50 -8 -79 -30
42 -30 -32 5 -4 76 21 116
-33 127 42 31 66 91 61 -4

Predict/spark3/squeeze1x1/Conv2D i1 [32, 1, 1, 128]
00000000: ed0f 360d 1dfc 1402 262c 0226 fcfe 170e
00000010: 0718 1433 fc10 1811 0933 f305 1106 15ff
00000020: fce9 f321 f209 121a 003b 0ff4 222f f326
00000030: 0e09 1103 00eb 0c08 410c e8ff 0d06 0c0e
00000040: 0de0 d010 31e7 c21c 0e27 fb00 20df f3df
00000050: efe1 3d49 26fa 3ae8 161d e7e2 f7d5 3528
00000060: f31e 03fc 0e02 edf9 f945 1503 f9e7 01f5
00000070: 004d d7de 0725 0138 ecff 0604 c01c 811e
00000080: f020 43ad 07c8 c925 0a08 f9fa d7fc edf7
00000090: d715 a83e b8fb 1034 f37f 07e7 07e3 c8d2
000000a0: d5ee e1f3 ece4 bd19 be58 02d8 494d f4d6
000000b0: d2dd 2921 fc01 dae6 4d59 cbf2 e325 f718
000000c0: f1f7 1814 1521 f9fd 2b16 e9a4 dc18 212c
000000d0: 0415 dc10 14e9 3a0a f628 1715 2ddf 38eb
000000e0: fccf 2a1a 1a2e 1209 de01 410e 1a05 40e5
000000f0: 0b2d 39f3 043f fe0d f105 40d5 ed0b bd3b
-19 15 54 13 29 -4 20 2
38 44 2 38 -4 -2 23 14
7 24 20 51 -4 16 24 17
9 51 -13 5 17 6 21 -1
-4 -23 -13 33 -14 9 18 26
0 59 15 -12 34 47 -13 38
14 9 17 3 0 -21 12 8
65 12 -24 -1 13 6 12 14
13 -32 -48 16 49 -25 -62 28
14 39 -5 0 32 -33 -13 -33
-17 -31 61 73 38 -6 58 -24
22 29 -25 -30 -9 -43 53 40
-13 30 3 -4 14 2 -19 -7
-7 69 21 3 -7 -25 1 -11
0 77 -41 -34 7 37 1 56
-20 -1 6 4 -64 28 -127 30
-16 32 67 -83 7 -56 -55 37
10 8 -7 -6 -41 -4 -19 -9
-41 21 -88 62 -72 -5 16 52
-13 127 7 -25 7 -29 -56 -46
-43 -18 -31 -13 -20 -28 -67 25
-66 88 2 -40 73 77 -12 -42
-46 -35 41 33 -4 1 -38 -26
77 89 -53 -14 -29 37 -9 24
-15 -9 24 20 21 33 -7 -3
43 22 -23 -92 -36 24 33 44
4 21 -36 16 20 -23 58 10
-10 40 23 21 45 -33 56 -21
-4 -49 42 26 26 46 18 9
-34 1 65 14 26 5 64 -27
11 45 57 -13 4 63 -2 13
-15 5 64 -43 -19 11 -67 59

Predict/spark3/expand1x1/Conv2D i1 [128, 1, 1, 32]
00000000: f182 09df 0dff 13f1 c1e0 f1d1 eeed 47ee
00000010: d54f 79db f781 d225 e1fe 2607 8d0c 05f9
00000020: b3c6 172b d4dd 1c0e d5d3 2690 e6f6 48d2
00000030: 092c 7246 d181 ce25 44d5 0d1b 93f1 e702
00000040: 2f04 c99c 4dc9 dbb7 ee0c 0035 0be3 dbee
00000050: aa81 e0be 3b37 2f01 6031 8ad5 98e2 8a5d
00000060: b6f3 0d52 1e04 172f b9ed fd81 ded3 141d
00000070: fd41 e725 cfda d4d3 e88d 2efa 88f0 1dc8
00000080: c0da 11d9 13df 2406 f8c4 c2f2 ebf3 a5f2
00000090: c637 31d6 0081 ea08 90f1 2c12 c8ff f85d
000000a0: 87e5 0b42 ff2b 0700 81eb ffd8 2502 0430
000000b0: 0b20 3225 8233 bdef c78d 0ab2 d9db ad93
000000c0: 1be6 8142 47e5 f3d8 0602 13df f49b 14fe
000000d0: eb20 08f8 2747 15e6 420e f20a f806 c727
000000e0: 0cf9 c400 0414 1901 1de8 00cf 218a 3b14
000000f0: 0102 d5f6 0603 e405 f6b8 81d6 e808 0ec3
-15 -126 9 -33 13 -1 19 -15
-63 -32 -15 -47 -18 -19 71 -18
-43 79 121 -37 -9 -127 -46 37
-31 -2 38 7 -115 12 5 -7
-77 -58 23 43 -44 -35 28 14
-43 -45 38 -112 -26 -10 72 -46
9 44 114 70 -47 -127 -50 37
68 -43 13 27 -109 -15 -25 2
47 4 -55 -100 77 -55 -37 -73
-18 12 0 53 11 -29 -37 -18
-86 -127 -32 -66 59 55 47 1
96 49 -118 -43 -104 -30 -118 93
-74 -13 13 82 30 4 23 47
-71 -19 -3 -127 -34 -45 20 29
-3 65 -25 37 -49 -38 -44 -45
-24 -115 46 -6 -120 -16 29 -56
-64 -38 17 -39 19 -33 36 6
-8 -60 -62 -14 -21 -13 -91 -14
-58 55 49 -42 0 -127 -22 8
-112 -15 44 18 -56 -1 -8 93
-121 -27 11 66 -1 43 7 0
-127 -21 -1 -40 37 2 4 48
11 32 50 37 -126 51 -67 -17
-57 -115 10 -78 -39 -37 -83 -109
27 -26 -127 66 71 -27 -13 -40
6 2 19 -33 -12 -101 20 -2
-21 32 8 -8 39 71 21 -26
66 14 -14 10 -8 6 -57 39
12 -7 -60 0 4 20 25 1
29 -24 0 -49 33 -118 59 20
1 2 -43 -10 6 3 -28 5
-10 -72 -127 -42 -24 8 14 -61

Predict/spark3/expand3x3/separable_conv2d/depthwise f4 [32]
00000000: 0000 0000 0000 0000 0000 0000 0000 0000
00000010: 0000 0000 0000 0000 0000 0000 0000 0000
00000020: 0000 0000 0000 0000 0000 0000 0000 0000
00000030: 0000 0000 0000 0000 0000 0000 0000 0000
00000040: 0000 0000 0000 0000 0000 0000 0000 0000
00000050: 0000 0000 0000 0000 0000 0000 0000 0000
00000060: 0000 0000 0000 0000 0000 0000 0000 0000
00000070: 0000 0000 0000 0000 0000 0000 0000 0000
0.0 0.0 0.0 0.0 0.0 0.0 0.0 0.0
0.0 0.0 0.0 0.0 0.0 0.0 0.0 0.0
0.0 0.0 0.0 0.0 0.0 0.0 0.0 0.0
0.0 0.0 0.0 0.0 0.0 0.0 0.0 0.0
