v3/spark_TFLite.tflite (tflite, 560532 bytes, 43 tensors)

model/conv2d/BiasAdd/ReadVariableOp/resource f4 [32]
0.04421311 0.05003867 0.053343095 0.04304126 0.024563687 -0.04198396 -0.034629174 -0.0726633
-0.047323994 0.13899195 0.058145106 0.02475538 -0.086684324 -0.019105053 -0.01841197 0.02630497
0.019045644 0.21427213 0.12097189 0.017420417 -0.091604985 -0.020923259 -0.07734535 0.011039583
0.04794142 -0.08033749 -0.03399588 0.03743762 0.104095414 -0.08538489 -0.045570508 -0.075701505
00000000: ce18 353d 59f5 4c3d 4a7e 5a3d 084c 303d
00000010: c939 c93c 5ff7 2bbd 52d7 0dbd 7fd0 94bd
00000020: ced6 41bd e853 0e3e 9029 6e3d cbcb ca3c
00000030: 8d87 b1bd 3382 9cbc b3d4 96bc 857d d73c
00000040: 9c05 9c3c 276a 5b3e 1cc0 f73d 43b5 8e3c
00000050: 659b bbbd 4167 abbc 3d67 9ebd 5edf 343c
00000060: 395e 443d fb87 a4bd 443f 0bbd 3158 193d
00000070: fa2f d53d 46de aebd 24a8 3abd 6409 9bbd

model/dense/BiasAdd/ReadVariableOp/resource f4 [4]
0.032322913 -0.03516559 0.13616706 -0.1622719
00000000: 0865 043d cb09 10bd 616f 0b3e 9b2a 26be

model/spark1/expand1x1/BiasAdd/ReadVariableOp/resource f4 [32]
-0.1396918 -0.058048125 -0.09554768 0.05896311 -0.056402978 0.035054915 -0.03029903 0.075147115
-0.03974933 -0.223909 -0.02979747 -0.06397464 -0.068961106 0.09810956 0.08634122 -0.11146463
-0.040673237 -0.030096876 0.026056966 0.048448525 0.09633445 0.10902857 0.07844351 -0.042559557
-0.051475596 0.07177193 -0.010455128 -0.08279664 0.009694315 0.04884033 0.059012655 0.040101252
00000000: 5e0b 0fbe dfc3 6dbd 81ae c3bd 4d83 713d
00000010: cf06 67bd be95 0f3d ac35 f8bc bbe6 993d
00000020: 32d0 22bd 6748 65be d319 f4bc 2305 83bd
00000030: 7b3b 8dbd aaed c83d aad3 b03d 9147 e4bd
00000040: fb98 26bd b98d f6bc 6b75 d53c f671 463d
00000050: ff4a c53d 5f4a df3d fea6 a03d ee52 2ebd
00000060: 13d8 52bd 29fd 923d fc4b 2bbc 4991 a9bd
00000070: e7d4 1e3c cc0c 483d 41b7 713d 3641 243d

model/spark1/expand3x3/BiasAdd/ReadVariableOp/resource f4 [32]
-0.08050446 -0.072251804 -0.0996506 -0.10134753 -0.044090856 -0.06332869 -0.026503084 -0.0023079088
-0.082235046 -0.019766888 0.06164702 0.05847076 -0.065278925 0.063770525 0.039040763 -0.07625308
0.04822675 0.040587094 -0.10114354 -0.015994117 0.0064964727 -0.08624193 0.025024056 -0.08194383
-0.09070934 -0.13013078 -0.07574474 -0.06596503 -0.025354454 -0.13072321 -0.07882784 -0.10950577
00000000: 86df a4bd c1f8 93bd 9d15 ccbd 4b8f cfbd
00000010: 9d98 34bd 79b2 81bd ff1c d9bc 4940 17bb
00000020: d96a a8bd 2bee a1bc 9681 7c3d 097f 6f3d
00000030: f5b0 85bd 1f9a 823d 35e9 1f3d 932a 9cbd
00000040: 6a89 453d a73e 263d 5824 cfbd 1806 83bc
00000050: 5de0 d43b 9c9f b0bd 40ff cc3c 2bd2 a7bd
00000060: d2c5 b9bd 0141 05be 0f20 9bbd ac18 87bd
00000070: 25b4 cfbc 4edc 05be 7e70 a1bd 9044 e0bd

model/spark1/squeeze1x1/BiasAdd/ReadVariableOp/resource f4 [8]
0.053279627 0.064644136 0.03403997 -0.06431075 -0.0041046934 -0.080757976 -0.024537284 -0.07506777
00000000: bd3b 5a3d 2564 843d 7f6d 0b3d 5bb5 83bd
00000010: aa80 86bb 7064 a5bd 6a02 c9bc 22bd 99bd

model/spark2/expand1x1/BiasAdd/ReadVariableOp/resource f4 [64]
-0.09720772 0.010402878 -0.02866763 -0.11534666 0.016335813 -0.0854669 -0.08479755 -0.025677823
-0.043754287 -0.06482208 0.011383281 -0.111654915 0.008165864 0.07736123 -0.061341196 -0.03423779
-0.07531118 -0.01048881 0.039451085 0.067805864 -0.057000034 0.03332256 0.035476014 -0.11365567
0.029153176 -0.019716272 -0.05993759 -0.0562493 -0.019177172 -0.05816189 -0.10778364 0.059356704
-0.008629721 0.04356173 -0.048438337 0.004797369 0.018351717 -0.021636797 -0.062343724 0.009171704
-0.100751415 -0.0017461288 -0.013664919 0.048114896 0.09722606 0.009199503 0.031222422 -0.04381494
0.030956803 -0.06776677 -0.1361208 0.09902431 -0.07460404 -0.083304346 -0.17118943 -0.05557032
0.0041812835 -0.048203535 -0.072343886 0.018433463 -0.14561434 0.026680501 -0.07973362 -0.1254391
00000000: d714 c7bd d570 2a3c 61d8 eabc df3a ecbd
00000010: afd2 853c 4509 afbd 57aa adbd 4c5a d2bc
00000020: b237 33bd 70c1 84bd f180 3a3c 55ab e4bd
00000030: 1eca 053c 916f 9e3d e840 7bbd ed3c 0cbd
00000040: bf3c 9abd 42d9 2bbc 7697 213d cddd 8a3d
00000050: de78 69bd 3d7d 083d 4c4f 113d 4ec4 e8bd
00000060: a4d2 ee3c 0584 a1bc 1e81 75bd aa65 66bd
00000070: 7219 9dbc 293b 6ebd abbd dcbd 0420 733d
00000080: ac63 0dbc c96d 323d 4767 46bd 3f33 9d3b
00000090: 5756 963c a73f b1bc 225c 7fbd ea44 163c
000000a0: c256 cebd 5cde e4ba d3e2 5fbc 2014 453d
000000b0: 751e c73d 83b9 163c 2ac6 ff3c 4b77 33bd
000000c0: 1f99 fd3c 4ec9 8abd 4063 0bbe 42cd ca3d
000000d0: 01ca 98bd 789b aabd 484c 2fbe b49d 63bd
000000e0: 2603 893b 1271 45bd 0829 94bd c601 973c
000000f0: ed1b 15be 1191 da3c 614b a3bd 1c73 00be

model/spark2/expand3x3/BiasAdd/ReadVariableOp/resource f4 [64]
-0.026933461 0.0158184 0.0052899425 0.038702663 -0.15164578 0.05763314 0.005347196 -0.20887244
-0.010191178 0.067349896 -0.15792315 0.07768387 0.066390835 0.01149087 0.10902486 -0.08579096
-0.132398 -0.0616625 0.009859217 -0.041888844 -0.02672201 0.014875009 0.05335197 -0.10893122
-0.13686173 -0.07975962 -0.17968957 -0.02911555 -0.033284772 0.04815034 -0.16674528 -0.05335091
-0.085038505 0.010002513 -0.12712803 0.034084506 -0.15647829 0.0024215528 0.014125742 0.038932826
-0.047063656 -0.033406854 0.0028276923 0.03742989 0.03693086 0.037821695 0.0011675139 -0.08938007
-0.06298753 -0.0912214 -0.030292006 -0.16191408 0.007926047 -0.03961928 -0.05647281 -0.038161594
-0.22645019 -0.10222374 -0.021659238 -0.0779712 -0.029787587 -0.1680332 0.02866617 0.006289276
00000000: 90a3 dcbc 9795 813c 4157 ad3b af86 1e3d
00000010: 0849 1bbe ba10 6c3d 8837 af3b a8e2 55be
00000020: e6f8 26bc beee 893d 9bb6 21be b918 9f3d
00000030: ebf7 873d 3444 3c3c 6d48 df3d 2cb3 afbd
00000040: 5793 07be d191 7cbd 8e88 213c a393 2bbd
00000050: 1ee8 dabc 4fb6 733c 9887 5a3d 5517 dfbd
00000060: 7b25 0cbe 0359 a3bd 8b00 38be bc83 eebc
00000070: 9d55 08bd 4a39 453d 46bf 2abe 7c86 5abd
00000080: ab28 aebd 95e1 233c da2d 02be 329c 0b3d
00000090: d83b 20be eab2 1e3b a86f 673c 0778 1f3d
000000a0: d2c5 40bd a0d5 08bd ce50 393b 1650 193d
000000b0: d044 173d ecea 1a3d 4407 993a e60c b7bd
000000c0: 9bff 80bd 49d2 babd f126 f8bc cecc 25be
000000d0: 40dc 013c d347 22bd 0950 67bd 554f 1cbd
000000e0: 8fe2 67be ae5a d1bd b76e b1bc 5daf 9fbd
000000f0: 1905 f4bc e510 2cbe 51d5 ea3c 4516 ce3b

model/spark2/squeeze1x1/BiasAdd/ReadVariableOp/resource f4 [16]
-0.020722976 0.014061846 -0.041141853 0.020345578 -0.009791113 -0.0030294843 -0.060223944 -0.032127053
-0.0450376 -0.04026784 -0.03030377 -0.081994064 -0.035770074 0.045007735 -0.08162873 -0.050498024
00000000: 3bc3 a9bc a863 663c 5c84 28bd c5ab a63c
00000010: e86a 20bc 508a 46bb 62ad 76bd a897 03bd
00000020: 5979 38bd e4ef 24bd 9d3f f8bc 81ec a7bd
00000030: a483 12bd 085a 383d f72c a7bd 04d7 4ebd

model/spark3/expand1x1/BiasAdd/ReadVariableOp/resource f4 [128]
-0.05764833 -0.050512463 -0.011760442 -0.05158507 -0.030877933 -0.036573835 -0.022750868 0.024796687
-0.11132783 -0.10530373 -0.012614292 -0.026228152 0.07769124 -0.08613197 -0.12283702 0.023239275
0.022358498 -0.012841967 -0.058078777 0.07126835 -0.058274593 -0.059562784 -0.15948623 0.044061832
-0.016279787 -0.01974571 0.06737374 -0.057518583 -0.06861756 -0.059125446 -0.024976514 -0.0145642115
-0.045506645 -0.0073672063 0.06660256 -0.006246269 -0.06683483 0.045068573 -0.028290486 -0.07693648
-0.009429445 -0.07375134 0.019147536 0.007590572 0.034304447 -0.030728972 0.063706934 -0.01765045
-0.027650286 0.004759905 0.04911008 0.06551019 -0.0058572544 -0.07656396 -0.03188588 0.019127855
-0.045496255 -0.0883173 0.052046392 -0.022259232 -0.08666614 0.08328919 -0.039126746 -0.021718282
-0.03701324 0.074802466 -0.055554565 -0.051932305 0.0435363 -0.036352735 -0.05617047 0.06384033
-0.08368928 -0.021116167 0.04975477 -0.043645363 -0.054335345 0.06395036 -0.06272689 -0.09429439
0.017698603 -0.007541946 -0.055151917 -0.03402986 -0.18494697 -0.044995643 -0.040526774 -0.044699647
0.076326676 -0.13174327 0.076515414 -0.04321184 -0.08726108 -0.049889386 -0.020308768 0.044161808
-0.11233711 -0.05591027 -0.028610846 -0.03263455 0.07705937 -0.024681557 0.06550386 0.04641726
0.0911722 -0.067903854 -0.032728888 -0.031835932 -0.0124012185 -0.030673055 -0.009218267 0.038285527
-0.04134111 0.050011043 -0.089633435 -0.05276512 -0.11871624 -0.15004277 -0.09800386 0.09326523
-0.02757166 -0.0793793 -0.059014995 -0.08665101 -0.076914795 -0.096761316 0.07968032 -0.060888533
00000000: a820 6cbd 28e6 4ebd deae 40bc de4a 53bd
00000010: b8f3 fcbc 72ce 15bd 0760 babc 6c22 cb3c
00000020: d8ff e3bd 7ba9 d7bd 2dac 4ebc 6cdc d6bc
00000030: 961c 9f3d f565 b0bd fa91 fbbd 4b60 be3c
00000040: 2b29 b73c 1d67 52bc 03e4 6dbd 24f5 913d
00000050: 57b1 6ebd 1bf8 73bd 5c50 23be 2e7a 343d
00000060: 305d 85bc c1c1 a1bc 3efb 893d 9b98 6bbd
00000070: 5d87 8cbd 862d 72bd 8c9b ccbc bb9e 6ebc
00000080: 2d65 3abd 9b68 f1bb ec66 883d 81ad ccbb
00000090: b3e0 88bd d399 383d 73c1 e7bc e090 9dbd
000000a0: f57d 1abc f10a 97bd 4bdb 9c3c 55ba f83b
000000b0: d282 0c3d 53bb fbbc c878 823d ad97 90bc
000000c0: da82 e2bc faf8 9b3b a727 493d 352a 863d
000000d0: 36ee bfbb 91cd 9cbd c59a 02bd 05b2 9c3c
000000e0: 485a 3abd b3df b4bd 992e 553d fe58 b6bc
000000f0: 047e b1bd 8693 aa3d 5e43 20bd 8aea b1bc
00000100: 329b 17bd 0932 993d 2f8d 63bd f8b6 54bd
00000110: 1f53 323d 9be6 14bd 0213 66bd b8be 823d
00000120: 4965 abbd d0fb acbc a8cb 4b3d 7bc5 32bd
00000130: bd8e 5ebd 68f8 823d f576 80bd 6b1d c1bd
00000140: a9fc 903c 6e22 f7bb fae6 61bd e562 0bbd
00000150: bd62 3dbe 5a4d 38bd 67ff 25bd fa16 37bd
00000160: 2951 9c3d b5e7 06be 1db4 9c3d e6fe 30bd
00000170: f0b5 b2bd d058 4cbd 935e a6bc 03e3 343d
00000180: 0011 e6bd 2b02 65bd 4b61 eabc ceab 05bd
00000190: 4ed1 9d3d fa30 cabc e326 863d 0620 3e3d
000001a0: 7eb8 ba3d 2d11 8bbd ba0e 06bd 6566 02bd
000001b0: 7b2e 4bbc 0f46 fbbc 3708 17bc 49d1 1c3d
000001c0: 4c55 29bd 61d8 4c3d bc91 b7bd 3d20 58bd
000001d0: 8021 f3bd d0a4 19be 3fb6 c8bd d701 bf3d
000001e0: f6dd e1bc 9d91 a2bd b5b9 71bd 1676 b1bd
000001f0: 8185 9dbd cc2a c6bd 702f a33d 4166 79bd

model/spark3/expand3x3/BiasAdd/ReadVariableOp/resource f4 [128]
-0.025923092 -0.05881581 -0.053951446 -0.043051038 -0.13669021 -0.18660232 -0.049038246 -0.074399546
-0.09733513 -0.01049253 -0.06707605 -0.019225985 0.14597449 -0.08236982 -0.0008642501 -0.07945779
-0.107074834 -0.014954673 0.04215836 -0.12023458 0.042564232 -0.15179507 0.017954476 -0.01810057
-0.18644908 -0.0365002 -0.046663057 0.023152607 -0.005657735 -0.028316367 0.114112556 0.013071544
-0.06939706 0.15875275 -0.11071673 0.11701988 -0.015388392 0.08551687 0.065880455 -0.01247727
0.02171557 -0.0063616466 0.03616257 -0.10763225 -0.05706864 -0.02483652 -0.06884697 0.024789492
0.1169593 0.03552361 -0.038257126 -0.05222824 -0.009008872 0.030964984 -0.032457314 -0.010507575
-0.09770487 -0.023601752 -0.018079042 -0.05011198 -0.034017604 -0.0155612435 0.02003363 -0.0058520543
0.022409173 -0.14860563 -0.01592742 0.026071265 -0.09835135 -0.05512373 -0.026087567 -0.09203993
-0.15678498 -0.01919313 -0.0012505112 -0.11176659 -0.023652028 -0.034741987 -0.08306689 0.1421386
-0.020219455 -0.012426863 0.0014541999 -0.012618294 -0.22709918 -0.19096981 -0.098488815 0.024735257
-0.078669295 0.13576287 0.00045588354 -0.016015803 0.00408294 0.052484665 0.11405477 -0.022939138
-0.03889589 -0.09910212 0.007870951 -0.22490351 -0.039813954 -0.01173496 -0.015888797 -0.21049182
0.005226468 -0.020537738 0.014375913 -0.021725066 0.09842192 0.043974012 -0.09689464 0.0020645943
-0.12963298 0.014146292 0.09319979 0.06357986 -0.015348152 -0.12992516 -0.04081937 0.07069091
-0.07557497 -0.11424681 0.038802143 0.017679732 -0.004566055 -0.047229815 -0.10197978 -0.25844985
00000000: aa5c d4bc d9e8 70bd 31fc 5cbd 4956 30bd
00000010: 85f8 0bbe ae14 3fbe 54dc 48bd ca5e 98bd
00000020: a457 c7bd dce8 2bbc 2b5f 89bd d07f 9dbc
00000030: 567a 153e 82b1 a8bd d88e 62ba c4ba a2bd
00000040: 0d4a dbbd 7204 75bc 3fae 2c3d 8c3d f6bd
00000050: d557 2e3d 2b70 1bbe 4415 933c a647 94bc
00000060: 82ec 3ebe 3c81 15bd c321 3fbd 89aa bd3c
00000070: 8564 b9bb baf7 e7bc d8b3 e93d 072a 563c
00000080: 0c20 8ebd 1590 223e 74bf e2bd 1ea8 ef3d
00000090: 981f 7cbc 7823 af3d 55ec 863d 776d 4cbc
000000a0: dae4 b13c 5c75 d0bb 341f 143d 4c6e dcbd
000000b0: cec0 69bd f575 cbbc a4ff 8cbd 5513 cb3c
000000c0: 5c88 ef3d 3481 113d 81b3 1cbd 47ed 55bd
000000d0: f399 13bc 47aa fd3c f6f1 04bd f727 2cbc
000000e0: 7e19 c8bd 7658 c1bc 801a 94bc 3842 4dbd
000000f0: 0b56 0bbd 96f4 7ebc 911d a43c 97c2 bfbb
00000100: 7193 b73c 132c 18be 397a 82bc 6893 d53c
00000110: 6f6c c9bd 6cc9 61bd 98b5 d5bc 6e7f bcbd
00000120: 3e8c 20be e93a 9dbc 31e8 a3ba e2e5 e4bd
00000130: e6c1 c1bc 9d4d 0ebd f91e aabd c88c 113e
00000140: 45a3 a5bc 0b9a 4bbc da9a be3a f6bc 4ebc
00000150: b08c 68be 978d 43be 81b4 c9bd 98a1 ca3c
00000160: 5e1d a1bd 6c05 0b3e a703 ef39 9333 83bc
00000170: 2fca 853b 29fa 563d 8c95 e93d dcea bbbc
00000180: 4c51 1fbd 0df6 cabd 29f5 003c 1b4d 66be
00000190: f513 23bd fd43 40bc 3929 82bc 2b8b 57be
000001a0: cb42 ab3b c23e a8bc f388 6b3c c4f8 b1bc
000001b0: 6e91 c93d 181e 343d b270 c6bd 254e 073b
000001c0: 82be 04be d9c5 673c 88df be3d 2836 823d
000001d0: d176 7bbc 1a0b 05be 3632 27bd 65c6 903d
000001e0: 0dc7 9abd 3bfa e9bd ffee 1e3d 16d5 903c
000001f0: d89e 95bb 0d74 41bd c6da d0bd 8a53 84be

model/spark3/squeeze1x1/BiasAdd/ReadVariableOp/resource f4 [32]
0.015991293 0.0127945915 -0.040508736 -0.09731144 -0.023718007 -0.02420193 0.03256958 -0.018766863
-0.030307421 -0.06398414 -0.04946601 -0.04364961 -0.047932427 -0.029106935 -0.019859722 -0.056192808
-0.010335543 -0.020759398 -0.010940369 0.011492057 -0.04817846 -0.036826383 -0.050772727 -0.054873902
-0.071932845 -0.012388725 0.030662773 -0.055058878 -0.104258105 -0.07004793 -0.019629844 -0.058609933
00000000: 2c00 833c 68a0 513c 7dec 25bd 384b c7bd
00000010: 444c c2bc 2043 c6bc ae67 053d f7bc 99bc
00000020: 4547 f8bc 1e0a 83bd df9c 4abd efc9 32bd
00000030: cb54 44bd ab71 eebc dbb0 a2bc 6e2a 66bd
00000040: 6956 29bc 9d0f aabc 3c3f 33bc 2e49 3c3c
00000050: c756 45bd 43d7 16bd 10f7 4fbd 75c3 60bd
00000060: 8751 93bd 14fa 4abc 7f30 fb3c 6b85 61bd
00000070: 4685 d5bd 4a75 8fbd c4ce a0bc f810 70bd

model/spark4/expand1x1/BiasAdd/ReadVariableOp/resource f4 [256]
-0.0253776 -0.037806123 0.09543724 0.10583063 -0.18060783 -0.050974846 0.109558396 -0.24747209
-0.06167216 -0.03548774 0.035126463 -0.037861027 0.1030707 0.033171866 -0.05799382 -0.10240447
-0.040645666 -0.15678674 0.004830546 0.093830265 -0.052336793 0.11891644 0.04552854 0.07928055
-0.095281966 -0.17066935 0.07913964 -0.019407405 -0.01400727 0.12249062 -0.017979827 -0.17572987
0.05563418 -0.24521305 -0.010146479 0.112954855 0.06483579 -0.13749976 -0.15658686 -0.023620514
-0.0064163366 -0.121650085 -0.10434062 0.03856493 -0.005779791 -0.070968844 -0.24941678 0.059975896
-0.16546799 -0.02595074 -0.058640163 -0.1689425 -0.008657578 -0.036404032 -0.061575066 -0.22206762
-0.08828502 -0.03592666 -0.04992867 0.111898325 -0.35326943 -0.11858392 -0.0077277203 -0.06977406
0.113383524 -0.059170436 -0.05550491 -0.063958615 0.07353133 0.082573906 0.07419763 0.06959293
-0.015064326 -0.34407943 -0.03626073 0.0926731 -0.073974915 -0.1414907 0.13007109 -0.23250523
0.048678875 -0.009372937 0.097566806 0.014694148 0.070135675 0.091489 -0.02741553 -0.059386764
0.046103314 -0.029748183 -0.010884736 0.037686758 -0.07763153 -0.046963267 0.1323034 -0.104794614
0.08696107 -0.015887322 0.101283714 0.09621601 0.13968857 -0.057545666 -0.017288327 -0.021500472
0.054735683 0.1031065 -0.034248427 0.062905535 0.2911297 -0.029460376 -0.066250004 -0.1170755
0.091721706 -0.046285775 -0.06640767 -0.05749899 0.032143835 -0.032474987 -0.088437594 -0.0042097284
0.033131704 0.08455243 -0.039665014 -0.17097594 0.10879385 0.10267943 0.07674502 0.2638558
0.10703179 -0.3297043 -0.104949005 0.05241415 0.060224127 -0.15325965 -0.01783043 -0.0051985765
0.083617084 0.02449757 0.08396511 -0.014106102 -0.23219503 0.3156527 -0.06458833 -0.029108165
-0.1165856 0.048552647 -0.21804087 -0.23336585 -0.14262798 0.098232046 0.03752083 -0.047367103
-0.13632676 -0.026994174 -0.017091842 -0.028333684 -0.07324741 0.0037204477 -0.04199175 -0.15457219
-0.04105579 -0.076851785 0.1199925 -0.064560644 -0.003304197 -0.00042972944 -0.0024224445 -0.23310979
-0.00570732 -0.020123933 0.06271583 0.08249607 -0.19752006 -0.035365928 0.030743245 -0.1387504
0.08155066 -0.06490963 -0.04772868 -0.03368886 -0.17096257 -0.046870694 0.085850514 0.080303
-0.048056502 -0.13500684 0.08849229 -0.020862205 -0.019347798 0.094505705 0.017020911 -0.041196484
-0.048572414 -0.032381754 -0.047171663 -0.08055145 -0.04142778 -0.030644758 0.024547879 0.0026635686
-0.006911351 0.07063737 -0.1108714 -0.054781612 0.093852274 -0.17610587 0.040224373 0.083865285
-0.2167482 -0.0114470525 0.090478875 0.013948459 0.047719065 -0.02362447 0.06771799 0.0853149
-0.14922184 -0.12086574 -0.01159535 0.09776839 -0.115779236 -0.015944976 0.01431123 -0.07275973
0.019627541 -0.02695508 -0.077911876 -0.18687092 -0.12083686 0.07343753 -0.08404315 -0.019385295
-0.13919777 0.09009752 -0.051724106 -0.20866694 0.04736462 -0.03458458 -0.0055829715 -0.14702505
-0.09848118 -0.016239488 -0.010211209 -0.059536003 0.09059981 -0.029962655 0.07409561 -0.020458601
-0.036070444 0.057501625 0.0056664576 0.12386586 -0.013612252 0.03242153 -0.081227705 -0.12741157
00000000: afe4 cfbc 98da 1abd 9a74 c33d bbbd d83d
00000010: 42f1 38be 00cb 50bd 2760 e03d 5369 7dbe
00000020: f29b 7cbd 985b 11bd c4e0 0f3d 2a14 1bbd
00000030: bb16 d33d 39df 073d ee8a 6dbd 6fb9 d1bd
00000040: 127c 26bd b48c 20be 8f49 9e3b 152a c03d
00000050: 1b5f 56bd 768a f33d 227c 3a3d d75d a23d
00000060: 3123 c3bd f2c3 2ebe f713 a23d 47fc 9ebc
00000070: c07e 65bc 5ddc fa3d 6e4a 93bc 88f2 33be
00000080: aae0 633d 2119 7bbe 6b3d 26bc e054 e73d
00000090: a0c8 843d bdcc 0cbe 4e58 20be cf7f c1bc
000000a0: 2240 d2bb ae23 f9bd 89b0 d5bd 43f6 1d3d
000000b0: 6764 bdbb 1d58 91bd 1d67 7fbe 49a9 753d
000000c0: 7170 29be a596 d4bc ab30 70bd 43ff 2cbe
000000d0: 84d8 0dbc 651c 15bd 2336 7cbd b265 63be
000000e0: c7ce b4bd d527 13bd 0182 4cbd f32a e53d
000000f0: bbdf b4be 20dc f2bd d138 fdbb b4e5 8ebd
00000100: 9f35 e83d b35c 72bd 1e59 63bd bcfc 82bd
00000110: 9897 963d 821c a93d edf4 973d bd86 8e3d
00000120: 5dd0 76bc 2e2b b0be 2286 14bd 65cb bd3d
00000130: 2980 97bd f0e2 10be 5b31 053e da15 6ebe
00000140: 8063 473d f290 19bc 1bd1 c73d b9bf 703c
00000150: 4ba3 8f3d 965e bb3d 8996 e0bc 893f 73bd
00000160: d4d6 3c3d 76b2 f3bc e455 32bc 6e5d 1a3d
00000170: 48fd 9ebd 8e5c 40bd 8b7a 073e 8f9e d6bd
00000180: a518 b23d 2126 82bc d66d cf3d e60c c53d
00000190: 850a 0f3e 01b5 6bbd 40a0 8dbc c221 b0bc
000001a0: 8632 603d 8029 d33d 1448 0cbd 9ed4 803d
000001b0: f40e 953e e356 f1bc 15ae 87bd 48c5 efbd
000001c0: 97d8 bb3d 2796 3dbd bf00 88bd 1084 6bbd
000001d0: 41a9 033d 7e04 05bd c51e b5bd c3f1 89bb
000001e0: 1cb5 073d d329 ad3d c877 22bd 5114 2fbe
000001f0: 4fcf de3d 9849 d23d 7e2c 9d3d 1b18 873e
00000200: 7c33 db3d 01cf a8be 81ef d6bd 38b0 563d
00000210: 93ad 763d 19f0 1cbe 1f11 92bc d258 aabb
00000220: 6f3f ab3d 21af c83c e6f5 ab3d 481d 67bc
00000230: 89c4 6dbe 3b9d a13e e346 84bd 3f74 eebc
00000240: 6ec4 eebd 24df 463d 1b46 5fbe 75f7 6ebe
00000250: 120d 12be e22d c93d 71af 193d 0204 42bd
00000260: 3e99 0bbe e322 ddbc 3104 8cbc 0b1c e8bc
00000270: bd02 96bd c1d2 733b 8bff 2bbd 2c48 1ebe
00000280: 1e2a 28bd 7864 9dbd a1be f53d 5f38 84bd
00000290: 3a8b 58bb 4f4d e1b9 e0c1 1ebb 55b4 6ebe
000002a0: 7804 bbbb f2da a4bc 2871 803d b3f3 a83d
000002b0: b342 4abe dddb 10bd 42d9 fb3c 9614 0ebe
000002c0: 0804 a73d 57ef 84bd 267f 43bd 54fd 09bd
000002d0: d010 2fbe 7cfb 3fbd 65d2 af3d e675 a43d
000002e0: e5d6 44bd 3c3f 0abe 723b b53d 37e7 aabc
000002f0: 467f 9ebc 358c c13d 706f 8b3c a5bd 28bd
00000300: def3 46bd bba2 04bd 1337 41bd 29f8 a4bd
00000310: 2db0 29bd b70a fbbc a218 c93c 448f 2e3b
00000320: 9d78 e2bb 53aa 903d 8b10 e3bd af62 60bd
00000330: 9f35 c03d 1955 34be 50c2 243d 90c1 ab3d
00000340: 3df3 5dbe 6b8c 3bbc fd4c b93d 1488 643c
00000350: 1175 433d 1b88 c1bc bbaf 8a3d 94b9 ae3d
00000360: 9ccd 18be 7588 f7bd 6cfa 3dbc cb3a c83d
00000370: aa1d edbd 0a9f 82bc a679 6a3c 0e03 95bd
00000380: f0c9 a03c e6d0 dcbc 4390 9fbd 175b 3fbe
00000390: 5179 f7bd 6a66 963d d11e acbd e9cd 9ebc
000003a0: dc89 0ebe 0c85 b83d a8dc 53bd c9ac 55be
000003b0: 6701 423d 90a8 0dbd 5cf1 b6bb bc8d 16be
000003c0: 80b0 c9bd ad08 85bc ea4c 27bc 06dc 73bd
000003d0: 658c b93d 3e74 f5bc 70bf 973d cc98 a7bc
000003e0: 9abe 13bd d386 6b3d b1ad b93b 62ad fd3d
000003f0: ec05 5fbc 70cc 043d b65a a6bd 2e78 02be

model/spark4/expand3x3/BiasAdd/ReadVariableOp/resource f4 [256]
-0.079867505 -0.11620993 0.048858497 -0.31813398 -0.10841978 -0.11756735 -0.116981335 -0.29048404
0.08995407 0.019699622 0.13415661 -0.049312476 -0.06157001 -0.10229094 -0.13734771 0.26500762
0.19402125 -0.16403303 -0.14222799 0.26759532 0.026008295 0.087892875 0.14075713 0.07999745
0.17508812 0.16271894 -0.12934701 -0.09134698 -0.059534263 -0.13020933 0.015809633 -0.16235432
-0.20167814 0.040167943 -0.0033292966 -0.056903325 0.086218566 -0.0969208 0.22779699 -0.088395044
-0.06302771 -0.08652005 0.032435734 -0.11312772 0.09909979 -0.13356392 -0.014203417 -0.09543943
-0.21211033 -0.12082428 -0.08040226 -0.10695008 -0.07687843 -0.14453635 -0.09093865 -0.043988183
-0.06803138 0.24792495 -0.2219611 -0.10291519 -0.01215286 -0.21909358 -0.07609783 0.20570594
-0.1495696 -0.0137683675 -0.16459237 -0.021132218 -0.2027676 -0.16668968 -0.20736155 0.09907762
-0.1538081 0.26802242 0.081668764 -0.122623876 0.048763532 0.037440825 0.33422697 0.18833858
-0.12297368 -0.046434548 -0.10551941 0.1494597 0.07909701 -0.22688852 -0.14191888 -0.10721544
-0.11717382 -0.12726474 0.16393186 -0.066171184 0.32473758 -0.07624728 0.20752199 0.21701376
-0.10541627 -0.10971869 -0.06999399 -0.050364323 0.143612 -0.23206131 -0.05438542 -0.08949539
0.15400885 -0.029063677 0.2746135 0.2005707 -0.11693096 -0.03835026 -0.031745695 -0.08440568
-0.10104237 -0.04339927 0.26928645 -0.09638473 0.04751799 0.025821479 -0.11287531 -0.1257444
-0.12297037 -0.04889 -0.08967998 0.20415942 0.007015032 -0.006017826 -0.13287765 0.05061545
0.10437429 -0.09028674 -0.06648866 -0.07689003 -0.10467412 -0.12436083 -0.14117053 -0.023255125
-0.108381495 0.048190407 -0.37030828 -0.16555522 0.13231963 -0.08678418 -0.10003779 0.01708519
-0.091964744 -0.12904024 0.24004188 -0.09128804 -0.13205154 0.2083461 -0.039593395 0.114229724
-0.075027786 -0.07499841 -0.08291927 0.26114714 -0.100270875 0.09597925 0.26550868 -0.029739449
-0.06626345 -0.122600906 -0.0076004816 0.2877685 0.14542277 -0.063414 -0.121379875 -0.06907302
0.024716519 -0.019099984 -0.059863456 -0.043837868 -0.06494029 0.21467523 0.32206625 -0.17866991
-0.14879277 0.0010476044 -0.10358558 -0.09430378 -0.11076685 -0.08323503 -0.071184054 -0.14364533
0.28181016 -0.015782475 -0.08387872 -0.06718747 -0.06633906 0.23342098 -0.1049689 -0.09196196
-0.15688665 -0.065130085 -0.06984421 -0.054227468 0.143811 -0.05852671 -0.025618518 0.0980349
-0.06351621 0.24455255 0.011515951 0.2579963 0.25190106 0.12104895 0.21026486 0.18564098
-0.08900752 -0.05017584 0.049511734 -0.0897407 0.07309624 -0.12921083 -0.16122912 0.11738496
-0.11581927 -0.114045426 -0.10577348 -0.036998976 -0.13819335 -0.08001924 -0.023986544 -0.09669431
-0.188274 -0.20257552 -0.17019187 -0.096100874 0.00851278 0.040934693 0.07221693 -0.06114017
-0.07199026 0.06435557 0.008362523 -0.06354704 -0.0142135555 -0.124921665 0.17409822 -0.029277373
-0.09219462 -0.11380198 -0.14494966 -0.046265714 -0.1055672 0.18957111 -0.11827303 0.023993017
-0.11028533 0.048006374 0.055167407 0.20335796 -0.15704657 -0.061167877 -0.07193695 -0.095881164
00000000: 9391 a3bd 79ff edbd d91f 483d 75e2 a2be
00000010: 310b debd 27c7 f0bd e993 efbd 53ba 94be
00000020: d739 b83d 1a61 a13c 5a60 093e e1fb 49bd
00000030: d630 7cbd ea7d d1bd e1a4 0cbe 14af 873e
00000040: 82ad 463e 46f8 27be 37a4 11be 4102 893e
00000050: 590f d53c 2e01 b43d a322 103e b4d5 a33d
00000060: 4d4a 333e cb9f 263e 8b73 04be 2014 bbbd
00000070: 33da 73bd 9855 05be 3483 813c 3640 26be
00000080: b784 4ebe 2487 243d 5430 5abb 7613 69bd
00000090: 5c93 b03d 6a7e c6bd 9d43 693e 7608 b5bd
000000a0: ac14 81bd 6d31 b1bd 55db 043d 82af e7bd
000000b0: d5f4 ca3d fbc4 08be 73b5 68bc bf75 c3bd
000000c0: 7333 59be b872 f7bd f1a9 a4bd a508 dbbd
000000d0: 7072 9dbd 5601 14be 0b3e babd f42c 34bd
000000e0: 0954 8bbd 0ae0 7d3e c549 63be 33c5 d2bd
000000f0: ca1c 47bc 115a 60be 2ed9 9bbd 94a4 523e
00000100: c628 19be b894 61bc e78a 28be 791d adbc
00000110: 4fa2 4fbe b3b0 2abe 9656 54be 35e9 ca3d
00000120: df7f 1dbe 3c3a 893e f441 a73d 3a22 fbbd
00000130: 45bc 473d 8d5b 193d cc1f ab3e d4db 403e
00000140: a0d9 fbbd 2732 3ebd 8f1a d8bd f70b 193e
00000150: 9dfd a13d 7755 68be 2f53 11be c593 dbbd
00000160: d4f8 efbd b051 02be c1dd 273e c284 87bd
00000170: 0144 a63e 8927 9cbd a580 543e db38 5e3e
00000180: 7ce4 d7bd 31b4 e0bd 0259 8fbd d24a 4ebd
00000190: 060f 133e 7ba1 6dbe 3fc3 5ebd 5c49 b7bd
000001a0: 7fb4 1d3e f316 eebc 249a 8c3e 6862 4d3e
000001b0: 8079 efbd 2a15 1dbd c607 02bd e3dc acbd
000001c0: 4def cebd 6fc3 31bd eadf 893e 5b65 c5bd
000001d0: 39a2 423d 9187 d33c 2c2b e7bd 24c3 00be
000001e0: e4d7 fbbd e140 48bd 23aa b7bd 2b0f 513e
000001f0: 5bde e53b 2f31 c5bb 1411 08be 2552 4f3d
00000200: 30c2 d53d 41e8 b8bd 352b 88bd 8578 9dbd
00000210: 635f d6bd e4b0 febd 028f 10be 8881 bebc
00000220: 1ef7 ddbd 4e63 453d 0c99 bdbe 4f87 29be
00000230: cc7e 073e e7bb b1bd 9de0 ccbd 3ef6 8b3c
00000240: 0358 bcbd 2023 04be 8acd 753e 39f5 babd
00000250: 8538 07be ae58 553e af2c 22bd 46f1 e93d
00000260: 2ba8 99bd c498 99bd 94d1 a9bd 14b5 853e
00000270: d15a cdbd c590 c43d c1f0 873e 25a0 f3bc
00000280: 22b5 87bd 2f16 fbbd 760d f9bb 6556 933e
00000290: b5e9 143e 33df 81bd 0396 f8bd 2876 8dbd
000002a0: 4c7a ca3c 9277 9cbc 6233 75bd 568f 33bd
000002b0: 6aff 84bd d3d3 5b3e dee5 a43e 3ff5 36be
000002c0: 225d 18be c54f 893a ad24 d4bd 5722 c1bd
000002d0: bbd9 e2bd 2177 aabd f2c8 91bd c317 13be
000002e0: 6c49 903e 404a 81bc 9bc8 abbd 9699 89bd
000002f0: c6dc 87bd e905 6f3e eff9 d6bd 8d56 bcbd
00000300: e5a6 20be ec62 85bd 7b0a 8fbd 9f1d 5ebd
00000310: 3143 133e b4b9 6fbd eddd d1bc 86c6 c83d
00000320: c914 82bd fc6b 7a3e 66ad 3c3c 1718 843e
00000330: 2df9 803e 83e8 f73d ac4f 573e ab18 3e3e
00000340: 9349 b6bd 2e85 4dbd d1cc 4a3d f9c9 b7bd
00000350: 7bb3 953d d84f 04be 3f19 25be 8767 f03d
00000360: a732 edbd a690 e9bd c49f d8bd 3d8c 17bd
00000370: 8f82 0dbe 21e1 a3bd 6e7f c4bc ab07 c6bd
00000380: e6ca 40be f56f 4fbe c746 2ebe 89d0 c4bd
00000390: 3079 0b3c 23ab 273d 78e6 933d 1d6e 7abd
000003a0: a16f 93bd dacc 833d f702 093c f324 82bd
000003b0: f9df 68bc eed6 ffbd ce46 323e 1ad7 efbc
000003c0: 88d0 bcbd 0311 e9bd af6d 14be 1e81 3dbd
000003d0: 9e33 d8bd ee1e 423e 2139 f2bd 018d c43c
000003e0: 46dd e1bd 55a2 443d 38f7 613d 123d 503e
000003f0: d1d0 20be 2b8b 7abd ae53 93bd 585d c4bd

model/spark4/squeeze1x1/BiasAdd/ReadVariableOp/resource f4 [64]
-0.045606513 -0.06468543 -0.07301901 0.06715551 0.105524056 -0.12150225 -0.046237603 -0.010225004
-0.1074757 -0.04440564 -0.007746923 -0.01351262 -0.08828678 0.052530684 -0.007944661 0.037577957
-0.028783487 0.068124056 -0.08496599 -0.09413544 -0.03386042 0.009632899 -0.021030396 0.09373846
-0.006501594 -0.011202623 -0.004812378 -0.022795921 -0.16560173 -0.08461794 -0.07480758 -0.07022943
-0.13082103 -0.031856168 -0.010726042 -0.09463167 -0.14464645 0.06923997 -0.01948653 0.076286726
-0.009552042 0.24424529 0.060059413 -0.2484849 -0.014335997 0.016623862 -0.005334817 -0.079025865
-0.01100867 0.030063674 -0.10711496 -0.11899533 -0.027061561 -0.12903546 -0.115855284 -0.005850946
-0.03152851 -0.0060027367 -0.1777281 -0.033596955 -0.0034279942 -0.07230025 -0.10799164 -0.0046980954
00000000: e5cd 3abd cb79 84bd fe8a 95bd d488 893d
00000010: ff1c d83d 2cd6 f8bd a463 3dbd c686 27bc
00000020: 381c dcbd b0e2 35bd e6d9 fdbb 0964 5dbc
00000030: b3cf b4bd 6a2a 573d 532a 02bc 58eb 193d
00000040: 59cb ebbc a084 8b3d a602 aebd 15ca c0bd
00000050: 39b1 0abd 4fd3 1d3c f047 acbc f3f9 bf3d
00000060: 530b d5bb 358b 37bc 27b1 9dbb 83be babc
00000070: 8093 29be 2c4c adbd b734 99bd 73d4 8fbd
00000080: f3f5 05be 9d7b 02bd 48bc 2fbc 40ce c1bd
00000090: 331e 14be afcd 8d3d 37a2 9fbc 373c 9c3d
000000a0: 2b80 1cbc 701b 7a3e dc00 763d d372 7ebe
000000b0: 88e1 6abc c42e 883c b0cf aebb 50d8 a1bd
000000c0: b55d 34bc 1848 f63c 175f dbbd d3b3 f3bd
000000d0: 35b0 ddbc df21 04be 8945 edbd 4bb9 bfbb
000000e0: 0a24 01bd 9bb2 c4bb 5bfe 35be f69c 09bd
000000f0: 33a8 60bb 2712 94bd b92a ddbd 7bf2 99bb

model/spark5/expand1x1/BiasAdd/ReadVariableOp/resource f4 [256]
-0.054556057 -0.011230171 -0.024192262 0.026839113 -0.011303229 -0.039191585 0.11494422 -0.08705678
-0.059794996 0.110107675 -0.024807831 -0.0502056 0.14389294 0.011624422 -0.07511824 -0.02884244
0.05672908 0.1543073 -0.024746792 0.14759906 0.03225611 0.036947154 0.27973562 -0.03361564
0.123290405 0.043988205 -0.050863836 0.05744303 0.021852912 -0.01231639 -0.022198612 0.08813038
-0.12502377 0.073676586 0.12561949 0.09100828 -0.03855855 0.11376986 0.023979755 -0.0065554283
-0.019432502 -0.010206404 0.24062929 -0.1087037 -0.067955 -0.009923667 -0.10631684 -0.046486977
0.025571726 -0.07135576 -0.11072595 0.00302275 0.025889095 -0.034815285 -0.0297152 -0.106910214
0.08106435 -0.07781891 0.0336976 -0.022527855 0.022759488 0.0032969287 0.12740256 0.018025529
0.113007605 -0.027323216 0.13206594 -0.0685404 -0.093232386 0.11679496 0.093805455 -0.04634735
-0.065742165 -0.0292678 -0.0028902881 0.017602364 -0.03966001 -0.051025935 -0.040080998 -0.0043731653
-0.028507972 -0.051101744 0.008957872 -0.02044811 0.06157496 0.11425328 -0.006492672 0.11037341
-0.029181061 0.101328 -0.012904822 -0.021916285 -0.029061219 0.08987569 0.06298694 -0.14268357
0.14032122 -0.064725526 0.029404469 -0.03819833 -0.0020804668 -0.0063257543 0.06312708 0.122801445
0.029929917 -0.035027422 -0.031161288 -0.06999903 0.078115374 -0.17160666 0.019196164 -0.08203283
-0.023096109 -0.012308747 0.02607201 -0.03350897 -0.058863882 -0.04510149 0.04302814 0.15744555
0.0041542742 -0.017598914 -0.07107417 0.071924806 0.2050126 0.06921208 0.12605546 0.17651129
-0.0045931446 -0.07837671 -0.03926063 0.099729136 0.06453026 0.0019283107 -0.065519646 -0.008437995
-0.0066942587 0.028273676 0.14214219 0.13313235 -0.034885854 0.10452659 0.12354214 -0.063177705
-0.12843153 -0.060109258 -0.07316189 -0.1239823 -0.016809525 0.108537555 -0.075879626 -0.0418084
-0.0062806336 -0.07475733 0.09319063 0.11230471 -0.014656136 -0.071186855 0.019663436 -0.03996479
-0.062919825 -0.055268586 -0.09374481 0.040953815 0.18409109 0.0015345071 -0.10120386 -0.08527945
0.014063564 -0.005312159 -0.053756457 0.010021289 -0.10463474 -0.024387449 0.0307506 -0.050666798
0.0022869923 -0.013969444 0.13004142 0.009595958 -0.0060264925 0.105884954 -0.040961772 -0.013316071
0.12982032 -0.08900862 0.08687373 0.10588611 0.11625748 0.015120171 0.11573248 -0.009458574
-0.014222163 -0.030764282 -0.0063838097 -0.063590616 -0.09098667 -0.050861213 -0.032174304 -0.091435395
-0.08754626 -0.06979089 -0.00077835505 -0.06155398 0.03424401 0.0083546555 -0.0074714436 -0.0103567885
-0.06364137 -0.028722381 -0.008689473 0.0932734 -0.09842803 -0.0029729889 0.030348647 0.12235175
-0.10222657 0.01592071 -0.09152526 -0.079575606 0.060634565 -0.006020346 -0.0022579317 0.01590787
-0.03214506 -0.12607951 -0.056970187 -0.02391084 -0.04657294 -0.047397733 -0.011926266 0.05233767
0.016588908 -0.045733612 -0.01066126 -0.007442566 0.06731651 -0.07608563 0.0364047 -0.034944087
-0.050171748 -0.048103757 0.020349342 -0.060813136 -0.013324663 0.071559705 -0.012340686 0.09869185
-0.07060799 -0.105833046 -0.09023453 0.039573405 0.03291988 -0.009165503 -0.0711733 -0.006103136
00000000: 2c76 5fbd c0fe 37bc da2e c6bc b3dd db3c
00000010: 2e31 39bc 5b87 20bd e067 eb3d d34a b2bd
00000020: 99eb 74bd 2280 e13d cb39 cbbc 63a4 4dbd
00000030: ac58 133e 5c74 3e3c 98d7 99bd fb46 ecbc
00000040: c05c 683d bc02 1e3e c9b9 cabc 3524 173e
00000050: fc1e 043d e655 173d 8239 8f3e 8eb0 09bd
00000060: ae7f fc3d fa2c 343d 9956 50bd 6249 6b3d
00000070: e104 b33c afca 49bc ddd9 b5bc b37d b43d
00000080: 3b06 00be c0e3 963d 65a2 003e 8d62 ba3d
00000090: 92ef 1dbd 2c00 e93d 3171 c43c ebce d6bb
000000a0: e930 9fbc c338 27bc 8667 763e 0ca0 debd
000000b0: fe2b 8bbd e096 22bc a5bc d9bd 2169 3ebd
000000c0: cc7b d13c f822 92bd 49c4 e2bd 5419 463b
000000d0: 5e15 d43c 799a 0ebd 4b6d f3bc bef3 dabd
000000e0: 1105 a63d 855f 9fbd 7f06 0a3d 568c b8bc
000000f0: 1b72 ba3c 4911 583b d175 023e 46aa 933c
00000100: 8870 e73d f0d4 dfbc 4b3c 073e e95e 8cbd
00000110: 9ff0 bebd 3232 ef3d 131d c03d b8d6 3dbd
00000120: d4a3 86bd 06c3 efbc fd6a 3dbb d532 903c
00000130: 8972 22bd 9200 51bd f92b 24bd c54c 8fbb
00000140: 8d89 e9bc 1050 51bd 0ac4 123c cb82 a7bc
00000150: 0636 7c3d a0fd e93d 7bc0 d4bb 740b e23d
00000160: 1f0d efbc 0e85 cf3d bf6e 53bc c889 b3bc
00000170: cb11 eebc bf10 b83d 4cff 803d a41b 12be
00000180: 5eb0 0f3e d18e 84bd a4e1 f03c da75 1cbd
00000190: 7158 08bb 4648 cfbb c548 813d 537f fb3d
000001a0: 962f f53c ea78 0fbd f545 ffbc a75b 8fbd
000001b0: f4fa 9f3d a8b9 2fbe 4641 9d3c d400 a8bd
000001c0: 0d34 bdbc a0aa 49bc f894 d53c b440 09bd
000001d0: 411b 71bd 57bc 38bd 463e 303d 6839 213e
000001e0: 9420 883b 992b 90bc 568f 91bd 504d 933d
000001f0: d3ee 513e 10bf 8d3d af14 013e 60bf 343e
00000200: 1782 96bb f883 a0bd c1cf 20bd ca3e cc3d
00000210: 7128 843d 5fbf fc3a 2a2f 86bd 843f 0abc
00000220: 835b dbbb 329e e73c b98d 113e d953 083e
00000230: 78e4 0ebd 0912 d63d a903 fd3d 5063 81bd
00000240: 8e83 03be 2035 76bd e7d5 95bd 6fea fdbd
00000250: 21b4 89bc f048 de3d c766 9bbd 493f 2bbd
00000260: c6cd cdbb 5f1a 99bd bbda be3d 0300 e63d
00000270: 4a20 70bc 6aca 91bd 3715 a13c 1fb2 23bd
00000280: 1cdc 80bd 5061 62bd 47fd bfbd 30bf 273d
00000290: 6082 3c3e 8421 c93a f843 cfbd fea6 aebd
000002a0: dd6a 663c 9f11 aebb bb2f 5cbd 5530 243c
000002b0: bd4a d6bd 30c8 c7bc afe8 fb3c fd87 4fbd
000002c0: 5de1 153b 18e0 64bc 9429 053e 5d38 1d3c
000002d0: e279 c5bb 36da d83d 88c7 27bd a62b 5abc
000002e0: 9eef 043e 274a b6bd dbea b13d d1da d83d
000002f0: 6718 ee3d 98ba 773c 2705 ed3d 22f8 1abc
00000300: 1304 69bc 6005 fcbc 472f d1bb cc3b 82bd
00000310: 3857 babd d953 50bd 34c9 03bd 7b42 bbbd
00000320: 744b b3bd 87ee 8ebd 860a 4cba 0720 7cbd
00000330: 7243 0c3d f7e1 083c 03d3 f4bb 85af 29bc
00000340: 6856 82bd 334b ebbc 4b5e 0ebc 2006 bf3d
00000350: a394 c9bd 7ad6 42bb ba9d f83c 8e93 fa3d
00000360: 2a5c d1bd 266c 823c 9871 bbbd 89f8 a2bd
00000370: f35b 783d 5346 c5bb cff9 13bb 3951 823c
00000380: 8aaa 03bd fd1a 01be 9259 69bd aae0 c3bc
00000390: 44c3 3ebd 2024 42bd 6366 43bc 0660 563d
000003a0: 76e5 873c 2b53 3bbd 91ac 2ebc c5e0 f3bb
000003b0: 3ddd 893d c8d2 9bbd 181d 153d 8821 0fbd
000003c0: e480 4dbd 7208 45bd aab3 a63c 3217 79bd
000003d0: b04f 5abc e58d 923d 9730 4abc f41e ca3d
000003e0: ec9a 90bd ffbe d8bd e2cc b8bd b917 223d
000003f0: ffd6 063d e82a 16bc 4fc3 91bd d1fc c7bb

model/spark5/expand3x3/BiasAdd/ReadVariableOp/resource f4 [256]
-0.09519192 0.11377059 0.15605982 -0.13665083 -0.082650624 0.04130056 -0.14409694 0.16564156
0.13261251 0.1381838 -0.15170981 0.20811205 -0.03432508 -0.17623504 -0.04829595 -0.09817769
-0.030878346 0.15744466 0.15380767 -0.15889414 -0.15446275 -0.1523678 -0.026775938 -0.11244031
-0.0021579966 0.11276331 -0.07375953 -0.14887355 -0.14544226 -0.1135197 -0.10423953 -0.102381386
-0.10524945 0.061606377 0.050515097 0.19886151 -0.025671197 0.011715589 -0.113380924 -0.073592596
0.17999233 -0.1006646 -0.08979904 0.1029356 -0.06543876 0.05016389 -0.07230399 0.18262461
-0.032277673 -0.045905516 -0.096696354 0.102100186 -0.12995669 -0.09854157 -0.015933873 -0.026162026
0.12813489 -0.12932993 0.2171484 0.05976913 -0.03659469 -0.00014304135 -0.15363744 -0.09781842
-0.13067855 -0.11753861 0.17443292 -0.18297161 -0.1364333 -0.11332166 -0.08950149 -0.1276142
0.15131003 -0.00010605326 -0.13399225 -0.11220101 -0.14826281 -0.09865456 0.21880445 -0.12123262
-0.15912847 -0.12483402 -0.16226189 -0.06764703 -0.13968726 -0.044669226 0.00406722 0.16246735
-0.17925793 -0.04484891 -0.12223767 -0.13139528 -0.09547708 0.12238593 -0.16467369 0.010455947
-0.103828326 0.091767915 -0.015054664 0.02276692 -0.092433535 0.18762419 0.183998 0.1574983
-0.033710398 -0.034239452 -0.011799568 -0.064866245 -0.08507471 -0.0017286803 -0.08320435 -0.15583184
-0.1223013 0.040572893 -0.12867075 0.12144834 -0.119973555 0.050671097 0.17286968 0.007700351
0.051731102 0.048107345 -0.0180159 -0.10947482 -0.094918914 0.0046320013 -0.15138543 0.24689274
0.1491804 -0.1347057 -0.14750038 -0.07488439 -0.1568037 -0.08291171 -0.083319366 0.022159878
-0.11769467 -0.13402508 -0.13183239 -0.1198961 -0.02383035 -0.17487977 -0.10343413 0.057811465
-0.17629695 0.18449062 -0.08541632 0.09965444 -0.10622161 0.21164131 -0.04250304 -0.12465977
-0.1358876 -0.1292119 -0.11853472 -0.12354452 -0.12034569 -0.09351699 -0.10508499 0.07142644
-0.0613369 -0.13834098 0.0060457108 -0.07770342 -0.105494365 -0.10326656 -0.15437223 -0.10663582
-0.1644568 -0.06424485 -0.15957543 -0.005531201 -0.14099744 -0.05036328 0.06626865 -0.09863416
-0.10548124 -0.10344047 -0.11070923 0.02344745 -0.047070812 -0.010035436 -0.09781696 -0.1402884
0.21310236 -0.15725286 -0.058005862 -0.025448997 -0.020301424 -0.12187016 -0.16129592 0.1603346
-0.10868718 -0.11036289 -0.09541602 -0.023750655 -0.09428777 -0.07576657 0.15412654 -0.117509216
-0.13064386 -0.14793484 0.007284411 -0.10841793 -0.14936689 -0.16253798 -0.15285306 -0.121151894
-0.07598553 -0.089932635 -0.09852181 0.037898697 -0.050670534 0.14409909 -0.15671107 0.12092264
-0.07366462 -0.08024008 -0.1650176 0.14690399 -0.077472776 -0.0154484175 -0.10485062 -0.12187781
-0.122552805 -0.13129051 0.122838415 -0.06538615 -0.052953247 -0.1353377 0.07107983 0.1871022
0.16231714 0.08635352 0.032978162 -0.13191621 -0.089143835 0.0010899168 0.12393982 -0.100755945
0.06312121 -0.15402311 -0.052755855 -0.11100434 -0.11354083 -0.07007768 0.1531465 -0.10375084
-0.08348169 0.073703974 0.20345326 -0.106202565 -0.1541397 0.055438273 -0.15765266 -0.116542175
00000000: fbf3 c2bd 8e00 e93d 25ce 1f3e 32ee 0bbe
00000010: bb44 a9bd c72a 293d 268e 13be f19d 293e
00000020: 93cb 073e 0e80 0d3e d159 1bbe 531b 553e
00000030: 7598 0cbd f576 34be f9d1 45bd 6211 c9bd
00000040: 96f4 fcbc 2c39 213e c27f 1d3e 25b5 22be
00000050: 7c2b 1ebe 4e06 1cbe 3659 dbbc 1b47 e6bd
00000060: 2d6d 0dbb 73f0 e63d 3d0f 97bd 4f72 18be
00000070: d1ee 14be 047d e8bd 897b d5bd 55ad d1bd
00000080: 068d d7bd f856 7c3d ebe8 4e3d 5aa2 4b3e
00000090: 674c d2bc bef2 3f3c 4234 e8bd b7b7 96bd
000000a0: e94f 383e 3e29 cebd 8fe8 b7bd e6cf d23d
000000b0: c204 86bd a778 4d3d 1d14 94bd f201 3b3e
000000c0: 9835 04bd 6c07 3cbd bd08 c6bd e719 d13d
000000d0: 5e13 05be 2ad0 c9bd c187 82bc bf51 d6bc
000000e0: cb35 033e 116f 04be 265c 5e3e 7ad0 743d
000000f0: 50e4 15bd 5ffd 15b9 2253 1dbe 0655 c8bd
00000100: 99d0 05be 15b8 f0bd 8b9e 323e e95c 3bbe
00000110: 2cb5 0bbe 3015 e8bd 8f4c b7bd 4cad 02be
00000120: 04f1 1a3e e968 deb8 4435 09be a5c9 e5bd
00000130: 35d2 17be 670b cabd 460e 603e cf48 f8bd
00000140: 93f2 22be fba8 ffbd fb27 26be 878a 8abd
00000150: 2d0a 0fbe 14f7 36bd 5046 853b d75d 263e
00000160: 648f 37be 7eb3 37bd be57 fabd 7c8c 06be
00000170: 7d89 c3bd 79a5 fa3d 38a0 28be 6c4f 2b3c
00000180: f2a3 d4bd d1f0 bb3d d6a7 76bc b181 ba3c
00000190: cb4d bdbd 8e20 403e f969 3c3e 3c47 213e
000001a0: ea13 0abd ab3e 0cbd fa52 41bc 98d8 84bd
000001b0: a63b aebd e394 e2ba 0b67 aabd 6292 1fbe
000001c0: 1b79 fabd c32f 263d 44c2 03be e8b9 f83d
000001d0: b2b4 f5bd 7f8c 4f3d c004 313e 3a53 fc3b
000001e0: fee3 533d 350c 453d 1596 93bc 5634 e0bd
000001f0: d964 c2bd 0bc8 973b c804 1bbe 73d1 7c3e
00000200: bfc2 183e 4bf0 09be 570a 17be fd5c 99bd
00000210: 2691 20be 9dcd a9bd 58a3 aabd a288 b53c
00000220: e709 f1bd df3d 09be 12ff 06be 168c f5bd
00000230: de37 c3bc af13 33be 46d5 d3bd b7cb 6c3d
00000240: 3087 34be 1ceb 3c3e c0ee aebd a117 cc3d
00000250: b78a d9bd 80b8 583e ab17 2ebd 9f4d ffbd
00000260: 1e26 0bbe 2050 04be 55c2 f2bd e904 fdbd
00000270: cd77 f6bd d685 bfbd cd36 d7bd 0648 923d
00000280: 673c 7bbd 42a9 0dbe 191b c63b f822 9fbd
00000290: 6e0d d8bd 6b7d d3bd c113 1ebe e163 dabd
000002a0: 5d67 28be ce92 83bd be67 23be 143f b5bb
000002b0: a261 10be ba49 4ebd dcb7 873d b500 cabd
000002c0: 8c06 d8bd 99d8 d3bd 85bb e2bd de14 c03c
000002d0: 53cd 40bd ab6b 24bc 4254 c8bd c3a7 0fbe
000002e0: 8137 5a3e e506 21be 8e97 6dbd 6a7a d0bc
000002f0: 2c4f a6bc 1097 f9bd c22a 25be c12e 243e
00000300: 6297 debd f005 e2bd 7969 c3bd bc90 c2bc
00000310: f219 c1bd 812b 9bbd 59d3 1d3e aca8 f0bd
00000320: 81c7 05be 3b7c 17be 12b2 ee3b 380a debd
00000330: a2f3 18be 5b70 26be 8385 1cbe 7c1e f8bd
00000340: 4d9e 9bbd 9a2e b8bd cdc5 c9bd aa3b 1b3d
00000350: e88b 4fbd b68e 133e de78 20be 4aa6 f73d
00000360: 7add 96bd e954 a4bd 60fa 28be 006e 163e
00000370: 0caa 9ebd 5c1b 7dbc ecbb d6bd 139b f9bd
00000380: f7fc fabd 0571 06be b592 fb3d 2ce9 85bd
00000390: 81e5 58bd f795 0abe 4d92 913d b897 3f3e
000003a0: 7736 263e 1dda b03d 1c14 073d 0b15 07be
000003b0: 0b91 b6bd 8adb 8e3a 29d4 fd3d 2259 cebd
000003c0: b145 813d 3cb8 1dbe 8616 58bd 3e56 e3bd
000003d0: 1888 e8bd e384 8fbd 70d2 1c3e 527b d4bd
000003e0: 73f8 aabd 1cf2 963d 0d56 503e bb80 d9bd
000003f0: ccd6 1dbe 3e13 633d b36f 21be aaad eebd

model/spark5/squeeze1x1/BiasAdd/ReadVariableOp/resource f4 [64]
-0.13368355 -0.0062302705 0.08428147 -0.027869588 -0.025675919 -0.029894168 -0.017134951 -0.021991463
-0.04491946 -0.028187156 -0.042388383 -0.0808994 -0.054753542 0.17027193 -0.09475832 -0.033049382
-0.049370788 -0.023369066 -0.006689878 -0.030712588 0.13777591 -0.054917455 -0.009399355 -0.006373115
0.058511257 -0.011182686 0.15009715 0.33125457 -0.0181418 -0.0013265841 -0.00399122 -0.13834658
-0.009135862 0.30556872 0.1991584 -0.033500616 -0.10551817 -0.0033542055 0.13652334 -0.10157473
0.09129356 -0.0072120456 -0.0055516134 -0.015232754 -0.067586124 -0.004245679 0.08418633 -0.13897298
-0.010665743 -0.15574895 -0.036617193 -0.0070152143 0.03704709 -0.04287088 -0.028518638 0.113934785
-0.028163856 -0.11887836 -0.039504312 -0.10499345 -0.010701038 -0.007559266 -0.23184155 0.1259608
00000000: 57e4 08be 4c27 ccbb c39b ac3d c34e e4bc
00000010: 4e56 d2bc 9de4 f4bc 995e 8cbc 7127 b4bc
00000020: 78fd 37bd c0e8 e6bc 719f 2dbd 96ae a5bd
00000030: 4045 60bd c45b 2e3e a610 c2bd ca5e 07bd
00000040: 0639 4abd 7c70 bfbc c436 dbbb f798 fbbc
00000050: 2115 0d3e 20f1 60bd c1ff 19bc 90d5 d0bb
00000060: 80a9 6f3d 9637 37bc 11b3 193e 339a a93e
00000070: 1d9e 94bc c7e0 adba c8c8 82bb baaa 0dbe
00000080: 95ae 15bc 8173 9c3e 2ef0 4b3e f137 09bd
00000090: e919 d8bd 3bd2 5bbb c6cc 0b3e 6906 d0bd
000000a0: 1ef8 ba3d 0653 ecbb 4fea b5bb cd92 79bc
000000b0: 986a 8abd 561f 8bbb e269 ac3d ef4e 0ebe
000000c0: 5ebf 2ebc a77c 1fbe e9fb 15bd e2df e5bb
000000d0: b0be 173d 6099 2fbd eb9f e9bc a456 e93d
000000e0: e3b7 e6bc 7f76 f3bd 46cf 21bd ce06 d7bd
000000f0: 6853 2fbc b8b3 f7bb df67 6dbe defb 003e

model/dense/MatMul f4 [4, 512]
0.001818972 0.05807865 0.05223438 0.11222503 0.016825035 -0.14110522 0.038713094 -0.020328384
-0.029933225 0.2303332 0.037110247 -0.021425439 -0.0747237 0.106501795 -0.1124172 0.04304063
0.020892303 0.029716633 -0.022721415 -0.027277902 0.03367317 -0.08329055 -0.14170411 -0.0221692
-0.114282005 0.060204983 0.15094626 -0.035844337 0.055973344 -0.19521385 0.06313094 0.06720691
0.051462457 -0.0502817 0.15781297 0.079387225 -0.06710401 0.048247542 -0.005861578 0.04630247
0.04929878 -0.13193393 -0.2539464 0.023017231 0.035394963 0.04300782 0.03326104 -0.0147681665
0.068879865 -0.1561007 0.006646584 -0.0105728805 -0.20183122 -0.1829257 0.09490354 0.0056280205
-0.3638887 -0.07310004 -0.106046766 -0.08805737 -0.1193203 0.043797225 -0.013591747 0.037721343
-0.26768374 -0.027787693 0.06580904 0.05653246 -0.07901499 0.070791446 -0.30396652 0.03910213
-0.11173209 -0.08362689 -0.04071164 0.009418015 -0.08621643 0.088755734 -0.08960152 0.066199824
-0.029056074 -0.053293854 -0.015305382 -0.03336507 -0.011098293 0.12504463 -0.053854566 0.045397323
0.037060175 0.023815265 0.08333658 -0.04159858 -0.088599406 0.013736019 0.07071683 -0.01362228
0.123824134 -0.019788144 -0.05274829 0.12556574 -0.085002184 -0.05515141 -0.0110503845 0.0624507
0.015559647 -0.0026267667 -0.07224412 0.086006515 -0.11614266 0.1894603 -0.000106827145 -0.0995075
-0.10914963 0.094755724 -0.116254374 -0.04939446 -0.093893796 0.072296314 -0.19023219 0.11040078
0.028693793 0.0060385983 0.0360533 -0.24841854 -0.28137583 9.976424e-05 0.016559273 -0.0049379845
-0.07457326 -0.008463967 0.06307206 -0.0055993693 0.0866788 -0.0009715437 0.08980354 0.034772217
-0.16841932 0.118848324 0.08668335 -0.10911477 0.0026671125 0.015565854 -0.36549187 -0.048112936
0.082888775 -0.072788015 0.045434553 -0.04094973 0.0863628 -0.088658206 0.07209078 0.1727052
0.05056386 0.064189576 -0.047475833 0.15593605 -0.03854696 0.010630184 -0.043124303 0.009763161
0.045667037 -0.09161133 -0.001924697 -0.12861718 0.045354404 -0.07902041 -0.037988994 -0.07915517
-0.041629564 0.088975355 -0.009306763 0.033567853 -0.018875284 -0.018953042 -0.05845744 -0.21427973
-0.03418197 0.019458074 0.017089881 0.020860124 0.021721492 -0.00015311995 0.024062496 0.16651484
0.068582036 -0.07960881 0.029109774 0.123539075 0.097565666 -0.350578 -0.041426763 -0.086988546
0.0054978896 0.064196356 -0.054754853 -0.027734447 0.017104477 0.015482704 -0.023085978 0.0013530485
-0.12559909 -0.14249963 0.09690094 0.035984505 0.053335536 -0.1456624 -0.044294287 -0.12959531
-0.092214584 -0.10840455 0.33818305 0.00303083 -0.08465561 0.03626636 -0.055481944 0.05943373
0.04732167 -0.12804957 -0.03297627 0.08331485 0.037481323 -0.08857763 -0.21437582 -0.11720385
0.02585855 -0.08418764 0.0843931 -0.079400115 0.054586682 0.017752057 0.019667028 -0.011753909
-0.07548949 -0.07820162 0.08700594 -0.04876356 0.027788917 -0.0057502487 0.09404855 -0.04286648
0.0472044 -0.030026322 0.054003756 0.08456557 0.06759273 -0.012789122 0.077680275 0.022191327
-0.11510931 -0.01265197 0.020971451 -0.06875589 -0.30357137 0.07024268 0.07749975 0.14334632
00000000: 936a ee3a e1e3 6d3d b8f3 553d 3dd6 e53d
00000010: a8d4 893c e37d 10be 9f91 1e3d b687 a6bc
00000020: 8636 f5bc 77dc 6b3e ea00 183d 6784 afbc
00000030: bd08 99bd 9d1d da3d fd3a e6bd 5f4b 303d
00000040: 5626 ab3c 4c70 f33c 4322 babc e875 dfbc
00000050: e1ec 093d 3c94 aabd e21a 11be 2f9c b5bc
00000060: af0c eabd 8099 763d a891 1a3e 83d1 12bd
00000070: 4e44 653d 24e6 47be cb4a 813d c7a3 893d
00000080: 4cca 523d 2ff4 4dbd b999 213e c595 a23d
00000090: d46d 89bd 379f 453d 7b12 c0bb a9a7 3d3d
000000a0: 84ed 493d b019 07be 4305 82be a28e bc3c
000000b0: 4ffa 103d f828 303d ba3c 083d 2ef6 71bc
000000c0: e310 8d3d ddd8 1fbe 96cb d93b e039 2dbc
000000d0: d8ac 4ebe e050 3bbe ca5c c23d 426b b83b
000000e0: 9f4f babe 79b5 95bd 0c2f d9bd 6c57 b4bd
000000f0: 345e f4bd b864 333d ebaf 5ebc b281 1a3d
00000100: d80d 89be 04a3 e3bc e4c6 863d 958e 673d
00000110: 9cd2 a1bd 1bfb 903d 80a1 9bbe 8e29 203d
00000120: cbd3 e4bd 9344 abbd 40c1 26bd 054e 1a3c
00000130: 3d92 b0bd 91c5 b53d 0081 b7bd c693 873d
00000140: 0107 eebc a84a 5abd 6dc3 7abc d0a9 08bd
00000150: 9dd5 35bc b30b 003e 9b96 5cbd 8bf2 393d
00000160: 69cc 173d 3b18 c33c 5eac aa3d 4663 2abd
00000170: 9b73 b5bd 0a0d 613c fcd3 903d fc2f 5fbc
00000180: 8297 fd3d bf1a a2bc 970e 58bd 4e94 003e
00000190: a015 aebd 72e6 61bd ac0c 35bc 4ecc 7f3d
000001a0: e4ed 7e3c d525 2cbb baf4 93bd 2f24 b03d
000001b0: 34dc edbd e201 423e 6308 e0b8 97ca cbbd
000001c0: d789 dfbd 4a0f c23d c616 eebd d851 4abd
000001d0: 644b c0bd 1710 943d 3acc 42be ce19 e23d
000001e0: 3f0f eb3c 6fdf c53b a0ac 133d 6e61 7ebe
000001f0: 7e10 90be 8538 d138 50a7 873c d1ce a1bb
00000200: deb9 98bd 73ac 0abc ed2b 813d ea7a b7bb
00000210: a884 b13d 32af 7eba ebea b73d 506d 0e3d
00000220: 1d76 2cbe c066 f33d 0a87 b13d 9177 dfbd
00000230: b9ca 2e3b ec07 7f3c c021 bbbe 1212 45bd
00000240: 97c1 a93d e211 95bd 9519 3a3d e7ba 27bd
00000250: fbde b03d 6f92 b5bd 55a4 933d a2d9 303e
00000260: 0d1c 4f3d d375 833d 0576 42bd b3ad 1f3e
00000270: 6be3 1dbd 392a 2e3c 1ca3 30bd aaf5 1f3c
00000280: 5c0d 3b3d b99e bbbd 1d46 fcba 39b4 03be
00000290: 8ac5 393d 74d5 a1bd 599a 1bbd 1b1c a2bd
000002a0: c383 2abd b638 b63d 657b 18bc 727e 093d
000002b0: 57a0 9abc 6943 9bbc 1271 6fbd 256c 5bbe
000002c0: 6502 0cbd 8a66 9f3c 1400 8c3c dae2 aa3c
000002d0: 45f1 b13c d38e 20b9 b61e c53c de82 2a3e
000002e0: bd74 8c3d f209 a3bd 9f77 ee3c 0e02 fd3d
000002f0: 82d0 c73d f67e b3be 1caf 29bd 0d27 b2bd
00000300: a427 b43b 6179 833d a046 60bd 5a33 e3bc
00000310: b01e 8c3c 2bab 7d3c ce1e bdbc c658 b13a
00000320: 0c9d 00be 6ceb 11be 0074 c63d 7d64 133d
00000330: 5d76 5a3d 8628 15be ed6d 35bd a2b4 04be
00000340: 00db bcbd 3403 debd 5426 ad3e e4a0 463b
00000350: ec5f adbd 098c 143d 0941 63bd c870 733d
00000360: 5ed4 413d 6d1f 03be 2012 07bd faa0 aa3d
00000370: 0486 193d 3068 b5bd 5685 5bbe 9208 f0bd
00000380: 4fd5 d33c 926a acbd 4ad6 ac3d 879c a2bd
00000390: 4996 5f3d c36c 913c bf1c a13c 7893 40bc
000003a0: 3c9a 9abd 2c28 a0bd 2c30 b23d 4cbc 47bd
000003b0: 95a5 e33c 956c bcbb 879c c03d c394 2fbd
000003c0: 6759 413d c3f9 f5bc 0b33 5d3d b730 ad3d
000003d0: 0f6e 8a3d 7789 51bc d616 9f3d 96ca b53c
000003e0: 6ebe ebbd 354a 4fbc 52cc ab3c e3cf 8cbd
000003f0: b56d 9bbe 65db 8f3d 30b8 9e3d 61c9 123e
